trained_language_model.pt (torch, 379271 bytes, 19 tensors)

weight f8 [147, 20]
0	0xbfeaca2214c64f71	-0.8371744542841794
1	0xbff8998a24cd27aa	-1.537485259776512
2	0xbfd22aa55dd28e6b	-0.2838529030070506
3	0xbfdb4648eaacac32	-0.42616484563285717
4	0x3ff8c37492befb91	1.5477185947672505
5	0x3fda858726e6801d	0.41439989851824227
6	0xbfde68b70c1a721a	-0.4751412981220554
7	0xc0066629216aa297	-2.7998831377665954
8	0x3fdc4c6c57e05b93	0.44216450292281556
9	0xbff0fed7c4ffb6b7	-1.0622174926060504
10	0x3fe0891b42565b55	0.5167366309786795
11	0x3fc6a9ef2499c904	0.17706097876686766
12	0x3fd40ad39c19c907	0.3131608032628183
13	0x3ff7135cb4b0db3a	1.4422270830379618
14	0x3fe385d629e5fff6	0.6100874727562757
15	0xbf94abfe72050013	-0.02018735476417539
16	0xbffe9ec431d9a0cd	-1.9137613246221463
17	0xbffcefb779df2000	-1.8085245857819245
18	0x3ff25d0866e6a1a9	1.1477130908552715
19	0x3fe869ddf378aaa6	0.7629232173251992
20	0x3ff2425a21a6a026	1.1411992372977777
21	0xbfff31c8626dd102	-1.94965399216477
22	0xbfe044ccc3a1db99	-0.508398420423748
23	0x4001b70c1ac8fc5a	2.2143785564981444
24	0x3ff39e4f5fad153e	1.2261499154422633
25	0xbff064656f284e08	-1.0245107976996923
26	0xbfcc540d561843c9	-0.22131506637427226
27	0x3fd81cf556a95b3c	0.37676747763673624
28	0x3ffa539fb3a9c1b1	1.6454159753885558
29	0x4000b70fc44fec0a	2.0893855416193263
30	0x3ff65e975b609df8	1.3980935639791578
31	0xbff55f191e9c27be	-1.335717315263977
32	0xbfee1815383efee9	-0.940439805846805
33	0xbfcfef7cffd48d53	-0.24949610225403748
34	0xbfe0b01f140c5fd0	-0.5214991942948419
35	0x3fd393e06b56b6c6	0.3059006736974478
36	0x3fe32f5ae3d8e920	0.5995306444304198
37	0x3fb4d7e2b8f8fd04	0.08141915336544875
38	0x3ff2ae27a9ecf048	1.1675182950703107
39	0x3fe463016551df21	0.6370856264975125
40	0xbfba30f720000000	-0.10230965167284012
41	0x3fe95bb380000000	0.7924439907073975
42	0xbfd289ea60000000	-0.28966769576072693
43	0x3faae242e0000000	0.05250748619437218
44	0x3fe0bb45e0000000	0.5228604674339294
45	0x40026aeaa0000000	2.3022053241729736
46	0xbff78096e0000000	-1.4688938856124878
47	0xbff96313c0000000	-1.586688756942749
48	0xbfe589f3e0000000	-0.6730899214744568
49	0x3febee3bc0000000	0.8728312253952026
50	0x3ff0e2be80000000	1.0553574562072754
51	0x3fc6c39540000000	0.17784371972084045
52	0xbfcd7ba200000000	-0.23033547401428223
53	0xbfd9128100000000	-0.3917543888092041
54	0x3fe162aba0000000	0.5432947278022766
55	0xbfd94a42e0000000	-0.3951575458049774
56	0xbfdc8ed280000000	-0.4462171792984009
57	0x3fe7cf0480000000	0.7440207004547119
58	0x3ff855eea0000000	1.5209795236587524
59	0x400b48b5a0000000	3.4105026721954346
60	0xbffea60e701d0be6	-1.915541112845625
61	0xbfef7a786d439250	-0.9837000021039533
62	0x3ffb57523687330e	1.708818638802032
63	0xbfe728a714883400	-0.7237124825493311
64	0xbfd6e54cf3fb1bd1	-0.3577453978181753
65	0x3fe81b58a3834659	0.753338164673731
66	0x3ff210c4ba9561a6	1.1290938652437972
67	0x3ff44ea04291b194	1.2691958046299066
68	0xbffe6a043b1e0205	-1.9008829411760655
69	0x4002da5b29080f05	2.3566191869339286
70	0xbfe2cf44f1193a37	-0.5878014286952923
71	0x3fe98b8098fd6e1f	0.7982790935597598
72	0xbff3e26c166e5720	-1.2427788616382216
73	0xbfe1b367c27fa31d	-0.5531500624466364
74	0xbfd0dbe79e1cbfe8	-0.2634219211640798
75	0xbfd48a1b30c3336b	-0.3209293342777559
76	0xbff147ca8c44ed6c	-1.080027149130582
77	0x3ff0c2a3a35efd2f	1.0475193387681647
78	0xbfe1b6240b8a19d3	-0.5534839845066081
79	0x3fe34d96a9b60a34	0.603221255747775
80	0xbfb7e5ab80000000	-0.09334823489189148
81	0x3fe5fc50c0000000	0.6870502233505249
82	0xbfead37ac0000000	-0.8383153676986694
83	0x3f4d3924a0000000	0.0008918217499740422
84	0x3feaf0cbe0000000	0.8418940901756287
85	0xbfd99a28e0000000	-0.4000341594219208
86	0x3ff0a1a2e0000000	1.0394619703292847
87	0x3fd6ebfb00000000	0.3581531047821045
88	0xbfcf7cf580000000	-0.24600094556808472
89	0x40026b8dc0000000	2.302516460418701
90	0xbffe1b6620000000	-1.881689190864563
91	0xbfa975d200000000	-0.049727022647857666
92	0xbff0b83b80000000	-1.0449786186218262
93	0xbfee9ba7a0000000	-0.9565008282661438
94	0x3fa12b1680000000	0.03353185951709747
95	0x3fe6b90780000000	0.7100865840911865
96	0x3ffa5578a0000000	1.6458669900894165
97	0xbff5c34080000000	-1.3601689338684082
98	0x3fd60d5c20000000	0.34456542134284973
99	0x3fe0a2c1a0000000	0.5198677182197571
100	0xc004e815a0000000	-2.6133224964141846
101	0xbffb24c260000000	-1.6964744329452515
102	0xbfcd3706e0000000	-0.22824178636074066
103	0x3fd1eac860000000	0.2799549996852875
104	0x3fcf9b48c0000000	0.24692639708518982
105	0x3fb3aedde0000000	0.07688700407743454
106	0x3fd5a1e320000000	0.33800581097602844
107	0x3fdd14eb20000000	0.45440176129341125
108	0x3fdd3e81e0000000	0.4569401443004608
109	0xbfebb11f40000000	-0.8653713464736938
110	0x3fe9007980000000	0.7813079357147217
111	0xbfeda84240000000	-0.926789402961731
112	0xbfcc02be00000000	-0.21883368492126465
113	0xc0037b0380000000	-2.435065269470215
114	0xbfb2aa8aa0000000	-0.07291475683450699
115	0xbfa166aaa0000000	-0.0339864082634449
116	0x3feeccf320000000	0.9625182747840881
117	0x3fd658c5c0000000	0.34916824102401733
118	0xbfed7c9de0000000	-0.9214619994163513
119	0xbfacc59020000000	-0.05619478598237038
120	0xbfe3ed2560000000	-0.6226984858512878
121	0xbfddad9fc0000000	-0.4637221693992615
122	0x3ffebf9ee0000000	1.921782374382019
123	0xbfd9c34e60000000	-0.4025455415248871
124	0x3fbfb812a0000000	0.12390247732400894
125	0x3ff2a2f400000000	1.1647834777832031
126	0x3fed8c46a0000000	0.9233735203742981
127	0x3ff6325c80000000	1.3872952461242676
128	0xbfec449d40000000	-0.8833757638931274
129	0xbfdacf7a80000000	-0.41891348361968994
130	0xbfe9c12380000000	-0.8048264980316162
131	0x3fe2197960000000	0.5656096339225769
132	0x3fe3881b60000000	0.6103646159172058
133	0x3fdde16b80000000	0.4668835401535034
134	0x3fff35e440000000	1.9506571292877197
135	0xbff10273a0000000	-1.0630985498428345
136	0xbfb3cb9ee0000000	-0.07732575386762619
137	0x3fbdcc4d40000000	0.1163986474275589
138	0xbfe301f900000000	-0.5939908027648926
139	0xbff3e72140000000	-1.2439281940460205
140	0xbfba22be20000000	-0.10209263116121292
141	0xbff0896a00000000	-1.033548355102539
142	0xbfd4024640000000	-0.3126388192176819
143	0x3fcf75e600000000	0.24578547477722168
144	0xbfd09df7a0000000	-0.2596415579319
145	0x3fbe4b5640000000	0.11833705008029938
146	0x3fcf3a0e80000000	0.2439592480659485
147	0x3ff2a23440000000	1.1646006107330322
148	0x3fd2780820000000	0.2885761559009552
149	0x3fd8be0480000000	0.38659775257110596
150	0xbfc9bc7660000000	-0.20106391608715057
151	0xbfbe307680000000	-0.11792698502540588
152	0x3fc899fa80000000	0.19219905138015747
153	0xbfe8b58260000000	-0.7721568942070007
154	0xbffe67d080000000	-1.9003453254699707
155	0x3fc0ba09e0000000	0.13067744672298431
156	0xbfe6899380000000	-0.704293966293335
157	0x3fd4246360000000	0.3147209584712982
158	0x3fc4257340000000	0.15739288926124573
159	0x3fd8a9c860000000	0.3853627145290375
160	0x3fe4b35a4ce64091	0.646893644518075
161	0xbff0a8da02023f46	-1.0412235334842577
162	0x3fde39ded16bcf28	0.47228212786943624
163	0xbfc5f9c3a6f5c4a2	-0.17168470051141066
164	0x3ffa51b1af97827f	1.6449448451095632
165	0xbfde875ee1b9a150	-0.4770123676630833
166	0x3ff2e23020a89095	1.1802216792794173
167	0xbfb3ca13cf64a8ad	-0.0773022061663677
168	0x3fd4797b10e43f2f	0.31991459512299775
169	0x3fe59d08bb8e3367	0.6754192031090555
170	0x3fc63885d47998de	0.17359993815188707
171	0x3fc53a13a7299eda	0.16583486234889372
172	0xbfebaf4a23f6ab6e	-0.8651476576245452
173	0xbffd2f289eea557c	-1.8240133483535308
174	0x3fe3dafaa3ed6ff7	0.6204808427532943
175	0xbffa3f1a584a5d5e	-1.6404059838149219
176	0x3f53d6f404006185	0.0012109168019432692
177	0xbfe0bea1842bc43c	-0.5232703763450739
178	0xbff8b93561045013	-1.5452169217796878
179	0xbfe24950b5ffbbc3	-0.571449618784634
180	0x3fefb9cf08e9cc70	0.9914317297065178
181	0x3fcc81be507c3056	0.22270945482194077
182	0x3ffe3b31d4e2a935	1.8894518199763983
183	0x3ff5759183c0c234	1.341203226718915
184	0xbffa4a54a2237b35	-1.643147118905927
185	0xbfd797548eb037d4	-0.36861146864327776
186	0x3ff3f9d1e69fdc83	1.2484911927001867
187	0xbf96cde25676fa6e	-0.022269760634794293
188	0x3fe845829ca71e68	0.7584851321816588
189	0xbfed0ac41935d7bc	-0.9075642101658938
190	0xbff441366f679371	-1.2659210540525374
191	0xbff28135509f76bd	-1.1565449857074974
192	0xbff079672e8552d1	-1.0296394173830559
193	0x3fac3e808b7759ec	0.05516435339420753
194	0x3fddd221cffb2e6e	0.4659504443231758
195	0x3fcca7f35d2e75ad	0.2238754467952452
196	0x3fda562669473ea6	0.411508181391563
197	0x3fe86f7ec5cc9809	0.7636102545991444
198	0xbfdd86ac2e56e964	-0.46134476209012676
199	0x3ff25c6ff1a81098	1.147567695589748
200	0xbfb30b8ba0000000	-0.07439491897821426
201	0xbff179bf80000000	-1.0922236442565918
202	0x3fd916f600000000	0.392026424407959
203	0x3fe3065ba0000000	0.5945261120796204
204	0x3fe5315960000000	0.6622740626335144
205	0xbff34d03c0000000	-1.2063024044036865
206	0x3fe3702560000000	0.6074396967887878
207	0xbfe1824f00000000	-0.547156810760498
208	0x3ff2bcc7c0000000	1.1710889339447021
209	0x3fb8f581c0000000	0.0974961370229721
210	0x3feed3f6e0000000	0.9633745551109314
211	0x3feae3ed80000000	0.8403232097625732
212	0xbff40ef840000000	-1.2536547183990479
213	0x3fef942960000000	0.9868361353874207
214	0xbfdfa86da0000000	-0.494655042886734
215	0xbff4875820000000	-1.2830430269241333
216	0x3fee912d60000000	0.9552218317985535
217	0x3ff48988c0000000	1.2835776805877686
218	0xbfe54ebc00000000	-0.6658611297607422
219	0x3fe2159340000000	0.5651336908340454
220	0x3fd269bb80000000	0.28770339488983154
221	0xbfa1168000000000	-0.033374786376953125
222	0xbff0fd7ec0000000	-1.0618884563446045
223	0xbfbd4b08a0000000	-0.11442617326974869
224	0xbfd5f936c0000000	-0.3433358073234558
225	0x3ff923e6a0000000	1.5712648630142212
226	0x3fc886d620000000	0.19161488115787506
227	0x3fd850f7a0000000	0.37994185090065
228	0xbfc2876600000000	-0.14475703239440918
229	0x3fe4675d80000000	0.637617826461792
230	0xbfd200a8c0000000	-0.2812902331352234
231	0xbff5472b20000000	-1.329875111579895
232	0xbfc22d68e0000000	-0.14201079308986664
233	0xbfe117b8e0000000	-0.5341457724571228
234	0xbfe0bf8560000000	-0.5233790278434753
235	0x3feb917160000000	0.8615042567253113
236	0xbfec6200a0000000	-0.8869631886482239
237	0x3fead73e00000000	0.8387746810913086
238	0x3ff2724220000000	1.1528950929641724
239	0xbffc2d7540000000	-1.7610981464385986
240	0xbffce04993bdc8c8	-1.8047576686044966
241	0xbff997c59827e904	-1.5995536750402275
242	0x3fd2b186d2f37d5f	0.29208536720940076
243	0xbff1045273ec5bde	-1.0635551956418037
244	0x3ff8132226369a91	1.5046712391573787
245	0x3fd3cf1dc3386917	0.3095163732956662
246	0x3fe96c291c5234ca	0.7944531968256794
247	0xbfbc568e05e7e31f	-0.1106957210939865
248	0xbfc82158f7e8c0c3	-0.18851768593731863
249	0x3ff5cf98b807c1bb	1.3631827534373844
250	0x3ff0ea51a2722c05	1.0572067590280778
251	0xbfd849c974a26cb7	-0.37950359716496557
252	0xbff4123c66d9a39f	-1.2544521348556612
253	0x3fb1870c65143923	0.0684669253134627
254	0x3fff42a19fa4060d	1.953767417522957
255	0x3fda3b2bf567bd4c	0.40986155476908404

weight_ih_l0 f8 [120, 20]
0	0xbfad988f941efe4f	-0.057804571944413234
1	0xbfcba2a77fd6cabf	-0.2159013151372928
2	0x3fc71f964184a29e	0.18065145682455336
3	0x3f948deb1e1aaa19	0.0200726258396263
4	0x3fa2b7150a6748e1	0.036553056259110546
5	0x3fa39a1f3863c9e2	0.038285232194443145
6	0xbfbcf45fdf72e668	-0.11310385899823816
7	0xbfd2a7edec9db417	-0.2914995966628466
8	0x3fcfcf61b87acdcf	0.24851628787801736
9	0x3fc970dc7a7763f9	0.1987567518215483
10	0x3fb4f585888ed8dd	0.08187136253295386
11	0xbfbf8b4d902f9112	-0.12321934480820954
12	0xbf9968f15205bdc2	-0.02481438696980632
13	0x3faafdfefa056a1c	0.052719085712585406
14	0x3f802178996e3ff4	0.007876341039974456
15	0xbfa065237eff51ea	-0.03202162671337645
16	0xbfbbdf8a1baaa1f5	-0.10887969184353337
17	0x3fc13972d994a27f	0.13456569313099817
18	0x3fa9eb9b0457655c	0.0506256525802182
19	0x3fb21c02b15c2a85	0.07073990659788805
20	0x3fcc68b4b0e8f597	0.22194536817725627
21	0xbfc24dcb577b59ee	-0.1429990937383105
22	0xbfaf676ca0bbb635	-0.06133593999934953
23	0x3fcfe763761c7d61	0.249248917266395
24	0x3fc09ff6203b988f	0.12988163541667005
25	0xbfb2cae2defc7da3	-0.07340829795838615
26	0x3fc6831e319254f4	0.17587640209664068
27	0x3fb16b379adaa23d	0.0680422547399155
28	0xbf9c58ed5f0323fd	-0.027682980465019814
29	0x3fca271f5a0c1f0d	0.20431892296641543
30	0x3fb2ff3d0124857c	0.07420712736031548
31	0xbfccc58a23392935	-0.22477843017470325
32	0xbfb266d2389fab92	-0.07188142664351307
33	0x3fcc9b908c6e0923	0.2234974561398043
34	0xbfb530ff2dc8ade3	-0.0827788817193134
35	0x3fc12cee00710707	0.13418364545400882
36	0x3fb42fefeaf08713	0.07885646329716804
37	0xbfd2ef4f61c55e7f	-0.29585632846781346
38	0x3fc30ed209b4a1d4	0.1488897845640752
39	0xbfa386334985be33	-0.038133242344767025
40	0x3fd4303045222c81	0.31544119597737824
41	0xbfd5502af4596759	-0.33301805364827924
42	0xbfd1a40b3b37e1a9	-0.2756374433806977
43	0xbfb7c3c57716df9d	-0.09283098370985816
44	0x3fc43d14d070cb11	0.15811405351413346
45	0xbfd5672f132a30d0	-0.33442284461558547
46	0xbfd2bd9f0db8102b	-0.2928235658621385
47	0x3fbb33a318123b53	0.106256669403803
48	0xbf8644ba950d0f6f	-0.010873277352977799
49	0x3fbe3d4e8f70b9d4	0.11812296869241062
50	0x3fb04b23ed37b978	0.06364655057379831
51	0xbfbb177ac7faffa6	-0.1058270204766801
52	0x3fd5edc1c035b6a6	0.3426365258263594
53	0x3fa9c3bdca98b156	0.05032151315785664
54	0xbfb651523463008f	-0.08717836169216951
55	0x3fcc7bc1ad875960	0.22252675030785962
56	0xbfd070de66023989	-0.25688896142755674
57	0x3fc023eb0cb6920c	0.12609613533744868
58	0x3fb900cbaa32d402	0.09766838937032676
59	0x3fcfc199957d4d56	0.24809570121088126
60	0x3faf82657cdabd87	0.061541720858595154
61	0x3fd4e6d6e8c90fb5	0.326589324311722
62	0x3fd3d02b5e0d0552	0.3095806520905927
63	0x3facf2a280d5fec5	0.05653865645126425
64	0x3fda8fa450c33c39	0.4150172032067903
65	0x3fda95a4d540798d	0.41538353753448903
66	0x3fd5da9eeaf055d4	0.3414685530018151
67	0xbfce7320dab3113a	-0.23788843802152276
68	0xbf93126acf79f975	-0.018624943650587384
69	0xbfd10af2b4abc04c	-0.2662932171215331
70	0x3fa63e3f9e6fa2ef	0.04344366845163516
71	0xbfc8b562d6abfde5	-0.19303546411536768
72	0xbf7dca353a9563b6	-0.007272918629802774
73	0xbfd2f06bdcfb16ff	-0.29592415409238976
74	0xbfcef5b10f0837ef	-0.24187291368474415
75	0x3fcc9de740cd484b	0.22356882728724012
76	0xbfcd6d39ced7f0d1	-0.2298958072641484
77	0x3fd5c9504b9c97b7	0.3404122103114519
78	0xbfcc55fbd551d1d3	-0.22137401500698548
79	0x3fd5f25533144375	0.34291582096289314
80	0xbfd507cc261eb9b2	-0.3286009189859228
81	0xbfb8d64d1fe88638	-0.09701997784625227
82	0xbfc8ff047e191dbc	-0.19528251797804141
83	0xbf93474d125c6f21	-0.018826679464026278
84	0xbfc9efe8a20af946	-0.2026339331841404
85	0xbfb46cf214cb8269	-0.07978737838448925
86	0x3fb575e400ea5ebb	0.0838301183924796
87	0x3fbac26a641f5bda	0.10452904648205621
88	0x3fbfb189f15e37c3	0.12380277769827246
89	0xbfa172b4428ad9ca	-0.03407824814114553
90	0xbfbb4640d68035c1	-0.10654072987400466
91	0x3fd26f70426956c3	0.28805166707512003
92	0xbfcb80ba3d544bbb	-0.21486595148652818
93	0xbfb391bd5ab43322	-0.07644256081057368
94	0xbfc120e122b0a39e	-0.1338159007439374
95	0x3fd77139ba9f4e54	0.3662857363208094
96	0xbfc0076d6018f7a4	-0.12522666160833495
97	0xbfb6e93da06c0888	-0.08949647108605252
98	0xbfd058fd52b68463	-0.2554314906829573
99	0x3fc3b4c811c8b614	0.15395451420174366
100	0x3fbfdb719f77fa0f	0.12444219725873772
101	0xbfc6c8713c9c2297	-0.1779920144984046
102	0xbfd0aba0eaa6f2db	-0.2604753772282444
103	0x3fd6bebc04fb5a62	0.3553915070200785
104	0x3fc62026882ba03e	0.17285615586229314
105	0x3fcd93059692c85a	0.2310492501470119
106	0x3fcc681d0dcd0603	0.22192729162092925
107	0x3fc8f2d2e8d62975	0.19491039628003262
108	0xbfbbc4064aac8e0e	-0.10845984767052405
109	0xbfc00d961b7f0702	-0.12541462271297382
110	0x3fb6e74ac67ad304	0.08946673722932635
111	0xbf9444802e01b80a	-0.019792559440638548
112	0x3faea2131a73bc23	0.05983028123761638
113	0x3fdd5cddb96b173c	0.45879309756525166
114	0xbfcbc120c4fb298a	-0.21683129900186443
115	0x3fb44b13a83d12b0	0.07927058083903193
116	0x3fc1409f02d41453	0.13478458059413131
117	0x3fd8109e55ded6e6	0.3760143126086021
118	0xbfba4dd2fff4fa02	-0.10275000332783438
119	0x3fca932b3bb53246	0.20761623778743593
120	0x3fc3b8b3b31b4bb4	0.15407415624085063
121	0xbfd0ac033c2deb8b	-0.2604988181771481
122	0xbfd16c5e7c78ada3	-0.2722393241444598
123	0x3fd11e17d8cb40ac	0.2674617402199242
124	0x3fc08cf2fc020254	0.1293014269358702
125	0x3fcd1470e5d7793e	0.22718631003130868
126	0x3fba5d98c34f08d5	0.10299067276267533
127	0x3fbb7374731425b1	0.10723045167482927
128	0x3fca68fd0fc955c3	0.2063289954264019
129	0x3fb02d7f5b1b2ee6	0.06319423651001052
130	0x3fb7071a1527df25	0.08995211616990824
131	0x3fa19acdef9c56f0	0.03438418912825891
132	0xbfb4bd36e47c2ddb	-0.08101218298195738
133	0x3fd71379f7c985e9	0.36056374738663394
134	0xbfd4cac241e52d22	-0.3248754161365516
135	0x3f711e449f4a3218	0.00417925649220454
136	0xbfd66b0ed597a237	-0.3502842985022058
137	0x3fc16163693a2f1a	0.13578455579806176
138	0xbfded609d8275317	-0.48181387051345
139	0x3fccc2b5aa89344d	0.2246920664496507
140	0xbfb4a1d15ff7b248	-0.08059414475401028
141	0x3fc05b49ee170529	0.127785912756772
142	0xbfd0f23ec77727c9	-0.2647854755310815
143	0x3fcd3030f738df57	0.22803318091768673
144	0x3f9cd19124714464	0.028143184518118494
145	0xbfa4ba1e9fd41422	-0.0404824800589625
146	0x3fd9d94032544038	0.40388493456794405
147	0xbfbec155ab10bdb4	-0.12013755251313435
148	0x3fd1e6242c90eb7c	0.2796717105117563
149	0xbfc63125e6bf4802	-0.17337487952187308
150	0xbfcb3e0f4004f822	-0.2128314077944547
151	0x3fb30ef9b5715a19	0.07444725684886357
152	0xbf9370401a74d161	-0.018982888808026902
153	0xbfd08d20db2dc287	-0.25861379055189854
154	0xbfcbfdb047224ccc	-0.21867946122492865
155	0xbfb0a5633cd50d28	-0.065023615218753
156	0xbfc82801e397f567	-0.18872092831581286
157	0x3fc249f540d0be6b	0.14288201966109013
158	0xbfd2ac584048c70e	-0.2917690875793689
159	0xbfb0cbfe1691b1bf	-0.06561267901424282
160	0xbfbe86a57817274e	-0.1192420404614982
161	0xbfd23457be5a2ca4	-0.2844447478207235
162	0x3fe061b8952afff6	0.5119288361966017
163	0x3fafa44057ce5abd	0.06180001327372995
164	0x3fa3dfe39c58964a	0.038817513308725696
165	0xbfd3acfc79753129	-0.30743324147330725
166	0x3fb2ad191e1feddc	0.07295376763789058
167	0x3fc45b1686074313	0.15902978462556713
168	0x3fd7b2d35b0ca01a	0.37028964892897565
169	0x3fa4f3dd9cdbbc33	0.040923047445055614
170	0x3fb3c8afe33ace85	0.0772809915313762
171	0xbfc45ec40fde7769	-0.15914202475408537
172	0x3fb18884507511fe	0.06848933185853665
173	0x3fa0b6ab55a4e346	0.032643655972100435
174	0xbfd7d53aca7363f8	-0.37238950510578617
175	0x3f4e285e3f9c1e36	0.0009203396031986558
176	0x3fc4de892c89b192	0.16304125475597836
177	0xbfd701f0a4635c1a	-0.35949340871360536
178	0xbf8d5548bc920121	-0.014322822813710947
179	0x3fb5ad563dd91acf	0.08467616090738804
180	0xbfb8028370f04119	-0.09378835208213267
181	0xbfc078fc91d0f9c6	-0.128692218016978
182	0x3fca2eea7313b11d	0.2045567571543722
183	0xbfb5605886f301bd	-0.08350137037905987
184	0x3fd0d37579774c51	0.2629064260665404
185	0x3fd80ba07d92368b	0.3757096506386481
186	0x3fd21d4c0c90e165	0.2830381510462046
187	0xbfd410b18ef86522	-0.3135188957399625
188	0xbfb5382c04abe12a	-0.08288836587951623
189	0xbfd94d5fd1e1a58d	-0.3953475522635806
190	0xbfc5d8fea0357441	-0.17068465063758434
191	0xbf94e5166026e163	-0.02040514909615022
192	0xbfba8d22b1ca7ee4	-0.10371605721092753
193	0xbfd9a58c3a0c3ea2	-0.40072923344357936
194	0x3fd663a5185f513c	0.34983184223280595
195	0xbfca5cd17dab97a2	-0.20595759044880163
196	0xbfde1a48963dac5b	-0.47035422012294753
197	0x3fa582153f5efb36	0.04200807951519041
198	0xbfc44165c8fca225	-0.15824577630816453
199	0x3fb5d85bbae75000	0.08533261597705177
200	0x3fbb4e31a4f35907	0.10666189458001805
201	0xbf9950744cdc00db	-0.024720971289753684
202	0xbfc62de4f2e45d01	-0.17327558383906452
203	0xbfc33a40bf05035d	-0.15021523787620597
204	0x3fc0790d14b7af2c	0.12869418632123464
205	0x3fa73d68e498f0ac	0.04539039412017706
206	0xbfc355a1c68b2458	-0.15105077929027533
207	0xbfca823187d6d39e	-0.20709818966647914
208	0x3fcbb08f9c54d5ca	0.21632571347588075
209	0xbfc6060ec7cb36f8	-0.1720598674350453
210	0x3f661934ae2bce6b	0.0026975659287645135
211	0xbfbe305f7a8ebd9d	-0.11792561285141408
212	0xbfc69bf8641c0b26	-0.17663483513032324
213	0x3fb5b34c39bb83dd	0.0847671166370811
214	0xbfdfebf2ddc9f8e2	-0.49877616557195215
215	0xbfc91996fe3f2582	-0.19609343923938743
216	0xbfd1a3c302e13b52	-0.2756202247737082
217	0x3fabb6a26e244888	0.054127765603099454
218	0xbfc1e0324f8e455b	-0.13965443501050853
219	0xbfdc5ea11fb6211c	-0.4432757196123178
220	0x3fc0dbb485139988	0.13170486925009706
221	0xbfccd8474842aff5	-0.22535029438347434
222	0x3fc80dc5d368408e	0.1879203111898317
223	0xbfb8dfa7bf8fbc1f	-0.09716270853799401
224	0x3fb0fe0da4b7b99b	0.06637654563357957
225	0x3fd04b573c3e6bec	0.25459843524157466
226	0xbf90f085086d1dc3	-0.016542509688660233
227	0x3faa90ca30c2b14e	0.051885908558093705
228	0x3fccbf4ada29c9a3	0.22458778049947367
229	0x3fc59b6a1e242151	0.16880537482962635
230	0xbfb09079acc967a6	-0.0647045180170652
231	0xbfc9bb4ef309c0e7	-0.20102869860739433
232	0xbfc13585b7bc4731	-0.13444587203462668
233	0xbf88528650c1acb9	-0.011876153316015313
234	0xbfd1abb9932c2a71	-0.27610625622097645
235	0xbfdaeb5b3b762402	-0.42061501318727335
236	0xbf98e2a53184a5e7	-0.024302083155964296
237	0x3fca5e202ed81826	0.20599748885450814
238	0x3fc10ecd8a9ddf80	0.13326424854653496
239	0x3fd53e61795151bc	0.3319324192755422
240	0xbf8b03450e35da29	-0.013189830299535537
241	0xbf99a6b282a6f0e6	-0.025049962257740165
242	0x3fd15071123e1559	0.2705347707891029
243	0xbfab90feb451a6ba	-0.053840598594275105
244	0xbfd729e3ed65fd85	-0.3619317835181948
245	0xbf78d3ddb4b9e833	-0.006061426199830011
246	0x3fb5fa0fd3cd3610	0.08584689064920092
247	0xbfc9858075060ea3	-0.19938665117307605
248	0x3facb02b5d4fbce4	0.05603156580024818
249	0x3fd0b42143106389	0.260994258396345
250	0xbfccfcbb8155ade4	-0.22646278205080173
251	0xbfd7d89f9a6dfb23	-0.3725966461278622
252	0xbfd4848f299e99cc	-0.3205907732430233
253	0xbfc8c540edbf76fc	-0.19351970299515375
254	0xbf99bc91a7cc27d5	-0.025133396021409588
255	0x3fc6ea1b64a49685	0.17901937879758037

weight_hh_l0 f8 [120, 30]
0	0x3fc07177cb5b6d06	0.12846276692912556
1	0xbfac0faa09e676de	-0.054807008465315596
2	0x3fc875b373855a37	0.19109194889706924
3	0x3faf31fa47aeda16	0.06092817425762946
4	0x3fb920e6f6dc6d62	0.09815829779511412
5	0x3f8230cb0540028e	0.00888212785503242
6	0x3fd2027d5335f365	0.2814019501309331
7	0x3fb0a19c89e2a8ff	0.06496599546759184
8	0x3fd0da551fa3984f	0.2633259591078784
9	0x3fcca36dfb93c40a	0.22373747619670353
10	0xbfb3eef3f51b66e5	-0.07786488279398503
11	0xbfb3fe478e4b259c	-0.07809874748195117
12	0xbfb05c3377525046	-0.0639068762123439
13	0xbf9e106c524143ef	-0.029359524269526757
14	0x3fc81b48fd3e5956	0.18833267560394046
15	0x3fcd5b9abe1aa8bd	0.2293580463641031
16	0xbfcf48ee66161bc9	-0.24441318497357958
17	0xbfc4f57ebeaf4ff2	-0.16374191580564418
18	0x3f93167c44a351cc	0.01864046257908729
19	0xbf9e3246f96e8337	-0.029488667463400033
20	0x3f66d09f543c4161	0.0027850257773779784
21	0x3fd01912c211a0b4	0.25153035118138267
22	0xbfc816cba7e31d5d	-0.18819566438308302
23	0x3f853075d9787603	0.010346337031530877
24	0xbfcc26e9ccb43641	-0.21993753905592153
25	0x3fc152b32390dca7	0.13533629643072695
26	0xbfc9f55023009efb	-0.20279885968306374
27	0x3fb0573a1acdc8b1	0.06383097795859062
28	0x3fc18d47d5f729f6	0.13712404201062584
29	0xbf93046e560f0274	-0.018571590426065446
30	0x3fd3c14a36604164	0.30867247877269777
31	0xbfabc7d580a5a787	-0.054258987382879424
32	0x3fd10367e2161f24	0.2658328731417774
33	0xbfa481d0f7912831	-0.04005291959818214
34	0x3fc2a5a4dc54f6c1	0.14568005331414294
35	0x3fc53ec2ff5b0e58	0.16597783535518107
36	0x3fafe53d97d6c976	0.062295841965709295
37	0x3fbfb901f23da07e	0.1239167419822724
38	0x3fbfec69a46127cf	0.12470112097903939
39	0x3fc045729e8bb5e6	0.12711937657824918
40	0xbfb42559997539b4	-0.07869491573840187
41	0x3fc7fcfa9a68743b	0.1874078039117267
42	0x3fca4896932dda29	0.2053402155540465
43	0xbfd1ba4dca6df0ee	-0.2769960858202144
44	0xbfb6142dab82fb56	-0.0862453979234322
45	0x3f8013ff4b6cca59	0.007850641717230976
46	0xbfcd2efe427980a6	-0.22799661870795268
47	0xbfa3a54318d96c8f	-0.03837022474609696
48	0xbfd61d8f5a405762	-0.34555419744116567
49	0xbfc793f89ffe6b87	-0.1842032223911156
50	0xbfd0d50183b26fc7	-0.26300084935223506
51	0xbfabaa77173c9891	-0.05403492125178489
52	0xbfcb04332588ff4e	-0.21106566746493133
53	0x3fd2c286b4ade363	0.29312293667276473
54	0xbfc243766edbf861	-0.1426837960534071
55	0x3fcaa7c67c0811f0	0.20824509674288505
56	0xbf99abfebb37d91b	-0.025070171524896084
57	0xbfc8302cb988c819	-0.18897017535488272
58	0x3fd0d39197140229	0.26291312936521877
59	0xbfc1a022fe9bcb02	-0.13769948417719752
60	0x3f8ef2b8e1bbdb3e	0.015111393345689113
61	0xbfc4f43108d85375	-0.163702134436473
62	0xbf73d681328b14fe	-0.004843239476661097
63	0x3fb42409bc33a9c9	0.07867489666720141
64	0x3fcbf8690520e741	0.2185183787385601
65	0x3fbb410e0e02b8a3	0.10646140901619332
66	0x3fadf125dfed9fd9	0.05848043783663543
67	0x3fcb56d584c88239	0.2135874651294374
68	0xbfc49bc34baf18b7	-0.1610035056639327
69	0x3fb6211073401ce5	0.08644202054721324
70	0x3f8f1ea80ec640a8	0.015195191336516992
71	0x3fc17085ac9c429b	0.13624640396348728
72	0x3fb64fbfcab1fd75	0.08715437601676064
73	0xbfa0ae58f7954216	-0.032580166075266856
74	0x3f93c015d8f84a1a	0.019287434928694315
75	0xbf932dc344d92b53	-0.018729258610885435
76	0x3f9725f6b3d55fca	0.022605757452168786
77	0xbfd186b9e6258690	-0.2738480327153434
78	0xbfa13f6976ea94e3	-0.03368691994300279
79	0x3f930a891c6fadfb	0.018594877586947316
80	0xbfc38e297bba64c7	-0.15277594129000802
81	0x3f811e98cc82c325	0.008359140149282471
82	0xbfcf8322dc84e0de	-0.2461894585374073
83	0x3fb76b22238450e9	0.09147847525702314
84	0xbfcb18e725a29c36	-0.2116974767461401
85	0x3fa5590ee525c99e	0.04169508502208717
86	0x3fa4c4030feaffbc	0.040557952588187146
87	0xbfb9640cad97e927	-0.09918288457985068
88	0x3fc86fe839df2ae4	0.19091513467568355
89	0xbfd47973fd8345fe	-0.31991290814502793
90	0x3fe1599b548c570b	0.542188325055322
91	0xbfd199bdba93fb50	-0.2750086137820533
92	0x3fd26bdc2b545bec	0.28783325415991956
93	0xbfc084adf72d2b30	-0.12904905862009164
94	0x3fe081422e2de90f	0.5157786275806603
95	0x3fd256c89251dfbb	0.2865468434242719
96	0x3fc2a69377599f51	0.14570849731102922
97	0x3fe2d8e58f43bdf5	0.5889766500603729
98	0x3fbfc665247fff86	0.12412101880181411
99	0x3fd1afd3abd773b1	0.2763566187039102
100	0x3fc741bfab3abf89	0.18169399128737165
101	0x3fca6f2804ede36a	0.20651722183881854
102	0x3fd3ac74547503ea	0.3074007820869712
103	0xbfd57df595762b54	-0.33581294628009073
104	0x3fd10a7ebd8ca481	0.2662655688350882
105	0x3fda2f87360eaab7	0.40915088919670545
106	0xbfcc2c149ba8a400	-0.22009523010754606
107	0xbfd7cf7ce03ded36	-0.372039050089103
108	0xbfd402ca6f1f5a53	-0.3126703343563452
109	0xbfe33673cec3e495	-0.6003970182784025
110	0xbfe0deada79fb461	-0.527182414427113
111	0x3fd0d37c709588e8	0.26290808672469135
112	0xbfe0a3162bf9421a	-0.519908033262314
113	0x3fdb484cfb37547a	0.42628788502526727
114	0xbfd1149db31283a9	-0.2668833016160144
115	0x3fe20041b5d145f5	0.5625313330767187
116	0xbfe1fefa2fa5c5e0	-0.5623751574150297
117	0x3fd28f8dc862746f	0.2900118309860948
118	0x3fe2e37dcda0bd21	0.5902699485940596
119	0xbfd5b8f647fa34c2	-0.3394141867546062
120	0x3fcc285a77979abb	0.21998148765051959
121	0xbfc3131d5c7bfaf0	-0.14902083412012912
122	0x3fdb095edbb28b17	0.4224469323618662
123	0xbfd7b71cfd1f1375	-0.37055134505163007
124	0x3f913d3170e0d479	0.016834995760480063
125	0x3fc6d0fa5962bc2d	0.1782525001958403
126	0x3fa4fc8f739aecd2	0.04098938261219022
127	0x3fa46198fe38fc47	0.03980711081793991
128	0xbf9273ce5cf56fa9	-0.018019890235663336
129	0x3fa8cb62950c850b	0.048426705069013996
130	0xbfb88acbbfd96c8e	-0.09586785730191336
131	0x3fcf2d4a57f537fa	0.2435696534616339
132	0x3fd2066cc724ebcb	0.2816421456115534
133	0xbfc2f0402463a7cd	-0.14795686508960984
134	0x3f96dd913b04a875	0.02232958719938734
135	0x3fc7a1b5195b4b92	0.18462241876713087
136	0xbfb795147ed5d52a	-0.09211853119434879
137	0xbfd680f97fd4605a	-0.351621985276784
138	0xbfcb78a1ce2c0c21	-0.21461889807696458
139	0xbfc571965c1778eb	-0.16752891060509198
140	0xbfb5eaa83b01b9c7	-0.08561183395952475
141	0x3f9b3b407db632cb	0.026593215630373018
142	0xbfa77efa87511777	-0.04589064504447909
143	0x3fc918e9e07f5377	0.1960728021791984
144	0xbfd5d36024c0cee2	-0.34102634038138835
145	0x3fd3eb470a04d79c	0.31123519876870787
146	0xbfa5dbe82acfa081	-0.042693381524999026
147	0xbf8926fad87ad66d	-0.012281379443588503
148	0x3fbe0d630aea3d12	0.11739176765899043
149	0xbfb1b6324b39fe27	-0.06918634735665617
150	0x3fba59658c8f947f	0.10292658502256023
151	0xbfc19a19693cb600	-0.1375152362683565
152	0x3fc6c9f95180cd77	0.17803875426907798
153	0xbfc42e8b0e0b4bbe	-0.15767038522480264
154	0x3fc756322d7e9184	0.18231799336821208
155	0x3fd315c4161f4869	0.2982034889256569
156	0x3fa5c2410f6af9ee	0.04249766648489471
157	0x3fc8c9a9140ff310	0.19365418891529673
158	0x3fd3b903d89ffe2c	0.30816742090971405
159	0x3fba88fe2965072f	0.10365284453021383
160	0x3fb458bc533b733e	0.0794789984897308
161	0xbfa4fcba0e177bf5	-0.040990652294333
162	0x3fc256c83b554755	0.14327338120579705
163	0xbfcb92672b742b63	-0.21540536519782014
164	0x3fd6bc27be24ff45	0.355234084785469
165	0x3fd9419be8c81e3a	0.39462945683087336
166	0xbfcf4ea9da93f36a	-0.24458811924696572
167	0xbfc30c509557cd7c	-0.148813317223908
168	0xbfc0dbd70c2add47	-0.1317089852725337
169	0xbfb2aa5d4cf5faec	-0.07291205529143568
170	0xbfabe0e9f2c594f8	-0.054450331578474065
171	0xbfb957f402cb76bf	-0.09899830883247328
172	0xbfce431892e44bb7	-0.23642260715913974
173	0x3fd13afb41a1db07	0.269224943250649
174	0xbfca15de33ab58cf	-0.20379235766330914
175	0x3fd0d37003329365	0.26290512382757064
176	0xbfd82e97bf86589b	-0.3778437967643044
177	0x3fe22f13262f268b	0.568246435717087
178	0x3fd35f261ba40380	0.30268242549214364
179	0xbfd29c0348626a2a	-0.2907722670439933
180	0x3fdd3cd6c7789df4	0.4568383167229222
181	0xbfd24321a0df680f	-0.2853473731062203
182	0x3fe47c71e25060bd	0.6401910228915068
183	0xbfc3487c7d487ddc	-0.15064960591642673
184	0x3fd8ba72813226ad	0.38637983910357826
185	0x3fdfe13de69c3733	0.4981226684620765
186	0x3fc3cb1bf4685d98	0.1546359008213869
187	0x3fe07425ef95f683	0.5141782454881682
188	0xbf73e7f2ad00910e	-0.004859874679855615
189	0x3fd668273019c3a1	0.35010699937179807
190	0x3fdc5a68494ed3dd	0.4430180278680476
191	0x3fd4b9801fdf788c	0.32382205116835716
192	0x3fd42b256ead00e8	0.3151334362810432
193	0xbfdd8c93d25d25bf	-0.46170516532273703
194	0x3fd25f835b901096	0.28707965795207124
195	0x3fdb1afa938907bc	0.42352165611020687
196	0xbfd14327d7603a64	-0.26972385437776425
197	0xbfda4deee53547b3	-0.41100666411977754
198	0xbfe0d8c8d4f919cc	-0.5264629516248589
199	0xbfd687eb95c4c283	-0.3520459139427105
200	0xbfd4d78409e43590	-0.3256540390583149
201	0x3fd06f3f59405d02	0.2567900058360949
202	0xbfdd8f08824f7204	-0.4618550560533381
203	0x3fdbd95393d887f9	0.4351395553404696
204	0xbfdb7e769ceafd1f	-0.42959370922103973
205	0x3fda0f3bae2ce9b8	0.4071797562534374
206	0xbfd57f943559514a	-0.3359118004784888
207	0x3fd08958aed4f6bc	0.25838296006609673
208	0x3fe01bdd15a6f0f6	0.5034013197796685
209	0xbfd83f9da30dad88	-0.37888279841600836
210	0x3fb7273301c4291b	0.09044188302155869
211	0xbfbe94229e81e007	-0.11944786424453478
212	0x3fd20af0ff2769b0	0.281917809652124
213	0x3fa4d65d305a437f	0.04069796767465216
214	0x3fc9d8decbabb631	0.20193085617886333
215	0x3fc9351f54950724	0.19693366651522937
216	0xbfa40a66483f2c3c	-0.039141842192826876
217	0x3fcaf5f22769143a	0.2106306736406241
218	0xbfa44db948e5f737	-0.03965548529502743
219	0x3fc9667384c8170a	0.19843906386829985
220	0xbfc6603ceccd7b84	-0.1748119503272073
221	0x3fbaa5d2f49736e7	0.10409277411892114
222	0x3fd1e88eeca2f51f	0.279819232073196
223	0x3f8b5037987c61ea	0.01333659586048071
224	0x3fd04061283bd1c3	0.2539294140726975
225	0x3fc54f31d5c0bd81	0.16647932946350966
226	0xbfb16b0a87b474a4	-0.06803956807239558
227	0xbf954e3b703cdac4	-0.020806244588323933
228	0x3f94f78e696b5932	0.020475602325711502
229	0xbfa1d2fa079f19e5	-0.0348127493194175
230	0xbfb11aa66a121e7e	-0.06681289758318518
231	0x3f83d67307b756af	0.009686373398760521
232	0xbfc6e2b320d131de	-0.1787933264007639
233	0x3fb0f45d32af158f	0.06622869956398446
234	0x3f83c8bf99839003	0.009660241005299502
235	0x3f9fe50d0826b678	0.031147197363387197
236	0xbfaaaa6e333bf2c6	-0.052081531290217906
237	0x3fcdf728c86a6c7a	0.23410520349429814
238	0x3fd28f94e8b3b091	0.2900135300140017
239	0xbfcd7149652efd32	-0.2300197357235248
240	0x3fd6cf37568acc7e	0.3563974709642891
241	0xbfcf0cb114988579	-0.242574820572411
242	0x3fcd17c738c12e56	0.2272881533739219
243	0xbfcf0e702fc5dd9f	-0.24262811978017582
244	0x3fcf9ebe7a60053c	0.24703198409410188
245	0x3fcaf242e50268b9	0.21051822836017722
246	0x3fbee5b26e165146	0.12069239795375095
247	0x3fd34f153d59c653	0.30170184127118665
248	0x3fb06a47ac43526a	0.0641217036785037
249	0x3fdbbe0b883d7e1a	0.433474429175449
250	0x3fd37e4a167b050c	0.30458309359899327
251	0x3fce9c9e2d042a3f	0.2391545982175831
252	0x3fe21eebd47930d4	0.566274561869728
253	0xbfdef94eb94aa8cf	-0.48396652312170557
254	0x3fbf8ecb37b8722c	0.12327261076320245
255	0x3fd280bf63124247	0.28910813021596876

bias_ih_l0 f8 [120]
0	0x3fd2556eda6c7c96	0.2864644177479446
1	0x3faf2bc4cb4e39c1	0.060880803887914954
2	0x3fb4581d5131bd76	0.07946952087671896
3	0x3fd22890625d34c8	0.28372583013408503
4	0x3fcece838227b554	0.2406772981188775
5	0x3fc29bf074cbfdf4	0.1453838892266358
6	0x3fe0715c04e5401a	0.5138378234496515
7	0x3f849e23c737b831	0.010067252652302102
8	0x3fd3e9f14a4d1005	0.311153719482036
9	0x3fde6552b7a5a00a	0.4749342721393083
10	0x3fe20c2ea10ddb6e	0.5639870782459704
11	0x3fdc3bc385a4b031	0.4411476903067096
12	0x3fd689775b7a711c	0.35214027341295817
13	0x3fd144af776863a5	0.269817225083495
14	0x3fe156924e7eda48	0.5418178113093939
15	0x3fbf568e0e333c26	0.12241447302516004
16	0x3fd40449a0136fb4	0.31276169426359535
17	0x3fdd5a510c6f198c	0.4586374875474568
18	0x3f7d30515d873828	0.007126157601716122
19	0x3fd231c324a1637b	0.2842872483939158
20	0x3fc5fb10e9a2b4cf	0.17172442825304876
21	0x3fde963d401fc098	0.47791987669098424
22	0x3fc60d82c47b4606	0.17228731721711216
23	0x3fcc2860186abb45	0.21998215858681128
24	0x3fdd6857c399680e	0.45949358083237335
25	0x3fb163fe043887d4	0.06793201067969729
26	0x3fcded0007c41694	0.23379516963193636
27	0x3fd357818b6d7431	0.30221594444248284
28	0x3f8d054e40f8bd27	0.014170276029374108
29	0x3f8d518bd6186d11	0.014315693350957422
30	0x3fc2da00264351f6	0.14727784984883358
31	0x3fcf8e8528577b04	0.2465368697148379
32	0xbf8c9793cdfb5178	-0.013960985873759255
33	0xbfb9adee4498b94d	-0.10031022238465433
34	0x3fd05add0b50fef6	0.2555458651076913
35	0xbf7f671942e6a1e4	-0.007666681935383644
36	0xbfc1f82b9097e645	-0.14038605270597962
37	0x3fac32005c5d1336	0.05506898047909774
38	0xbfb03193ca3f06e4	-0.06325648963595715
39	0xbfcbae2eb2f164f5	-0.21625312554787227
40	0xbfa17681899b0e0c	-0.034107254073685395
41	0xbfd8b1a6199c3d47	-0.3858428239918407
42	0x3fbd5fb73c2c8390	0.11474175662125519
43	0xbfb2fdf4747d4c88	-0.07418754428845109
44	0xbfc08f8b6b290e49	-0.12938063366356037
45	0x3fb9e8e71d315189	0.10121006453238669
46	0xbfd78d108758d3dc	-0.36798489778021604
47	0xbfbc6cd7be9dfc05	-0.11103580859888502
48	0x3fc207f4445f7fa5	0.1408677419522039
49	0x3fc0947a15b13ea2	0.12953115519711839
50	0x3f788290e5762d47	0.005983892442041955
51	0xbfb38d29f48eabac	-0.07637273998868349
52	0x3f9e7943a84de8d0	0.0297594615435422
53	0x3fa429d439f3c331	0.03938163001465112
54	0xbf9a786c68fffc19	-0.025850004109084865
55	0x3fc3c7d7a1c334ab	0.15453620337067284
56	0x3fc7b51c9140a5a3	0.18521458713921132
57	0xbfc16d0f7b7d20bb	-0.13614076165891284
58	0x3f996ac085fa2318	0.02482128923159896
59	0x3fc64922dcb9ab0d	0.17410693910218136
60	0x3fd1933b37b31427	0.2746112865391432
61	0xbfb886d8d02aed11	-0.09580760080546137
62	0x3fd2e8d735304b09	0.2954614657802926
63	0xbfa1eaa902aad865	-0.03499344022331811
64	0x3fd2ae3c21405269	0.2918844532698928
65	0x3fd401402b793a8a	0.31257633443321053
66	0x3fbe47b11c40ffa0	0.11828143062393659
67	0x3fc94e7547fb4433	0.19770685209962977
68	0xbfaa911da881b905	-0.05188839609114563
69	0x3fc2cd2b0189aaed	0.14688623023115302
70	0x3fb0ee7ed8b76ac8	0.06613915244035262
71	0x3fb3ef5b96ab72e1	0.07787105968914033
72	0x3fb31764cfd2c9b8	0.07457571100056881
73	0xbfc1468113951455	-0.1349641175858404
74	0x3fc04c9059ea6c26	0.12733654394546184
75	0x3fbd6e39e6795fd1	0.1149631679230645
76	0xbfb7bd5b3f12a858	-0.09273309984078659
77	0xbf9cb33331d17c49	-0.02802734366957463
78	0xbfc26f3d58219240	-0.1440197639777967
79	0xbfbdba999a612fc2	-0.11612854022058541
80	0xbfc55e463fa7bbb3	-0.16693952663578457
81	0x3fb619206fe9d3b8	0.0863209031320612
82	0xbfc5195723ddbba4	-0.1648358273627909
83	0x3fd1c1e608d6b481	0.27745962966111654
84	0xbfc87ad706b0dfe9	-0.19124877764420425
85	0x3f8b0094a82083b0	0.013184701329068321
86	0xbfc4d12250276f5e	-0.1626322642686046
87	0x3f7721fc46c80975	0.005647645430601468
88	0x3fc92cf9d3751040	0.196685055018067
89	0xbfa506ae6a1eec3f	-0.04106659932536915
90	0x3fc266963673053a	0.14375569971711305
91	0xbfb0b41b833c96d3	-0.06524822191257877
92	0x3faba47c15d85b5d	0.053989293734210554
93	0x3fde770aeec7ea8b	0.4760157901616046
94	0x3fbb4f71841de0dc	0.10668096042161629
95	0x3fa9b81abd05d40f	0.050232730459278334
96	0x3fe0338c928b52e2	0.506292616099554
97	0x3fcc152420bd3060	0.21939517592034274
98	0x3fcca5f1d36bea24	0.2238142282802339
99	0x3fdf4116143d63a1	0.48834754921477425
100	0x3fe13582869bacee	0.5377819661202048
101	0x3fd8efd281468197	0.38963759064247355
102	0x3fdb1d6efbe4e6e9	0.423671480169658
103	0x3fd00ff06336ec66	0.25097284020347954
104	0x3fe0b1b09fa2eabe	0.5216906659982994
105	0x3fc5f8a9a9200dc8	0.17165108449999722
106	0x3fd1bc9eb9da39eb	0.2771374525990768
107	0x3fd97dd94cd86c26	0.398306202930771
108	0x3fccd63a39aec90e	0.22528770271817006
109	0x3fb46aa99d4d0cb7	0.07975254145007936
110	0x3fae9aba13fc43a9	0.05977422231638425
111	0x3fd9c80c7d151683	0.4028350087649885
112	0xbfa40556ecc60673	-0.039103237536448975
113	0x3fc0ed64cc10b56e	0.13224468196987565
114	0x3fda592940a7d822	0.41169196428325183
115	0x3fc96a809fd3a726	0.1985626964954516
116	0x3fcc8ead8193aeec	0.22310417963978268
117	0x3fd110e9aaf3f16e	0.2666572732412281
118	0x3fd3e15e49799a91	0.31063038993162545
119	0x3fb15025065c8fea	0.06762915997802535

bias_hh_l0 f8 [120]
0	0x3fb5bf55a9b1f259	0.08495078461596374
1	0x3fbbaa2585a71cea	0.10806498063094563
2	0x3fa6876962637b03	0.0440018589595095
3	0x3fdfe05fb25d34c6	0.4980696908795149
4	0x3fc70735c227b551	0.17990753154973985
5	0x3fd487b2ca65fefc	0.32078237309904956
6	0x3fca64e753950074	0.20620433407930572
7	0x3fb2b965d8e6f6fe	0.07314144654716512
8	0x3fd6d5f6aa4d1003	0.3568092978568986
9	0x3fccae080f4b4015	0.22406101938986525
10	0x3fe2212fb10ddb6e	0.566551061447951
11	0x3fd098c7eda4b032	0.2593250103698238
12	0x3fc7157216f4e237	0.18034196968962288
13	0x3fd6f62bd76863a2	0.3587751010505206
14	0x3fe300ff3e7eda48	0.5938717098823156
15	0x3fcba3d3a7199e17	0.21593709620650323
16	0x3fe17ed0a009b7d9	0.546730339597839
17	0x3fc57ff6b8de3320	0.16796764399296027
18	0x3fc6ec336aec39be	0.17908327790105533
19	0x3fb6f50492858df6	0.08967617585363272
20	0x3fb36515b34569a1	0.0757611811326684
21	0x3fdbb582001fc097	0.4329533578120474
22	0x3fcee246e47b4607	0.24128042370152533
23	0x3f9054eac355da2c	0.015948932812046276
24	0x3fd4031ee399680f	0.312690469994437
25	0x3fd26f95f10e21f5	0.2880606512121909
26	0x3fd3a05943e20b43	0.3066619074744958
27	0x3fcbc2cb26dae85d	0.21688212773534846
28	0x3fd5bd5a3207c5ed	0.3396821487977764
29	0x3fc24ec7bd6186d2	0.14302918192975383
30	0x3fc5f487c64351f5	0.17152497463997887
31	0xbfab2db9dea213d1	-0.05308323710145369
32	0xbf5dabfe6fda8bf6	-0.0018110260711317028
33	0xbfcf950ae24c5cac	-0.2467359166118731
34	0x3fc58e6916a1fdfa	0.16840852360836306
35	0x3fc8ff3a55e8caf1	0.1952889365653259
36	0xbf91e6c084bf324c	-0.017481811620927254
37	0x3fbd4ce26e2e899c	0.11445441427216568
38	0x3fa172046b81f23c	0.03407300770138419
39	0xbfd332b7d178b27a	-0.29997058349798744
40	0xbfb48fd344cd8703	-0.08031959943539495
41	0xbfd8111b199c3d48	-0.37604405880934566
42	0xbfc3b5ad41e9be35	-0.153981835540877
43	0x3fbaa368eb82b381	0.10405593633431744
44	0xbfd331b8a594872b	-0.2999097458833712
45	0xbf926a4e0b3ab9ca	-0.017983645854366327
46	0xbfd391cb0f58d3d9	-0.3057735109207989
47	0xbfb31d875e9dfc00	-0.07466932353962363
48	0x3fcc751b045f7fa3	0.22232377732779893
49	0x3fcb8fb075b13e9a	0.2153225493116125
50	0xbfa4027ca3513a55	-0.039081473289674186
51	0xbfc540e9fa4755d7	-0.16604351730954534
52	0xbfa141f5ebd90b9a	-0.03370636466981765
53	0xbf93368f0c187999	-0.01876281272245137
54	0xbfc37fc88d1fff85	-0.1523371399962309
55	0x3fc4483e41c334ac	0.158454687224013
56	0x3fcc10ea1140a5a4	0.21926618425758904
57	0xbfc5ca943b7d20b6	-0.17024472145772557
58	0x3fc2333f60bf4465	0.14218895172101323
59	0x3fd0bcb07e5cd58a	0.2615166887292949
60	0x3fbbac8ddecc50aa	0.10810171784788972
61	0xbfc20cfa28157683	-0.14102103192538004
62	0x3fd40ebb15304b09	0.31339909619525536
63	0xbfba0f6f41556c35	-0.10179801316319088
64	0x3fd20ee4e140526a	0.28215906140511626
65	0x3fb45455cde4ea21	0.07941185261453444
66	0x3fc0138b8e207fd1	0.1255964702586412
67	0x3fd076a183fda217	0.2572406567547047
68	0x3f2120577e46f9e3	0.00013066356690490032
69	0xbfb2b9759cecaa1e	-0.07314238625682676
70	0xbfbed08b67489536	-0.1203696372181938
71	0x3fb442e8d6ab72e2	0.07914595833740237
72	0x3fbf1326afd2c9bc	0.1213859729057622
73	0x3fa68b85b1abaea6	0.04403322023230531
74	0xbf9bda9330ac9ef4	-0.02720098480781892
75	0x3fa93785ccf2bf9c	0.04925172926721119
76	0xbf76c3fbf12a85c5	-0.005557998798992829
77	0xbfcc0963e63a2f85	-0.21903656713072564
78	0xbfd270c46c10c91f	-0.28813276818540773
79	0xbf8cb578d3097e42	-0.014018005314198171
80	0xbfb607327f4f7755	-0.08604732139744205
81	0x3fbfc434afe9d3be	0.12408761305580548
82	0xbfc3076083ddbba5	-0.14866262854363047
83	0x3fcce75951ad6902	0.22581020820764058
84	0xbfc172f2e6b0dfec	-0.13632045997815057
85	0x3fca98f5aa820844	0.20779295754988614
86	0xbfb0f27f604edec1	-0.06620021916648523
87	0x3fa3b4e888d90134	0.038489596085585026
88	0xbfa89ebfb22bbf04	-0.04808615732133428
89	0xbfd0af18ed43dd88	-0.26068709535999135
90	0x3fae917cd9cc14f1	0.05970373304993782
91	0xbfa8c08b06792dad	-0.04834398702640939
92	0xbf92728cd44f493b	-0.018015099008900064
93	0x3fd762dac6c7ea8d	0.36540860569190486
94	0x3fc2aa54420ef06c	0.14582303262239138
95	0x3fc830591f417507	0.18897546793133577
96	0x3fd76d3bed16a5c4	0.3660421195332584
97	0xbf9d0dda7a167cfc	-0.028373159124041245
98	0x3fc3993e936bea22	0.15311414907758186
99	0x3fdd51bfd43d63a0	0.4581145832685767
100	0x3fde77888d3759de	0.47604574003835676
101	0x3fe1c31878a340cd	0.5550653797345376
102	0x3fd4d3e97be4e6ee	0.3254340848830982
103	0x3fd492087336ec5f	0.3214131474630388
104	0x3fddb905ef45d57c	0.4644179188392952
105	0xbf7ce940dbfe46fa	-0.007058385235625181
106	0x3fe01334f4ed1cf8	0.5023445876803683
107	0x3fdee5efecd86c26	0.4827842534011232
108	0x3f8055959aec9120	0.007975739279182437
109	0x3fa47bf3ba9a1978	0.04000817921501015
110	0xbfbd1aa83601de33	-0.11368800467050093
111	0x3fe265d7168a8b3f	0.5749316635377467
112	0xbfa685cd6cc6066d	-0.043989581611651875
113	0x3f9c4de36085ab9a	0.027640869871372688
114	0x3fd5bfacc0a7d824	0.3398239022639038
115	0x3fa56411ff4e9c9b	0.04177910081426114
116	0x3fadb6aa064ebb9f	0.058034241933788915
117	0x3fd1b23bf2f3f171	0.27650355077619
118	0x3fd4eacfc9799a92	0.32683176684660353
119	0x3f644da0cb91fcd5	0.002478422215574131
