TRAINED/xml_train.pt (torch, 337799 bytes, 19 tensors)

weight f8 [83, 20]
000000 58 f5 39 7e e8 3d f2 bf 70 09 3a 69 26 5b f8 bf
       -1.1401143007963892 -1.5222534284990523
000010 72 5b eb a5 7d dc ec bf 26 0e 75 e0 f9 76 84 3f
       -0.9019153824436741 0.009992553865806175
000020 7e 14 b9 be d5 6c fe 3f 93 26 a8 cd f2 1f e6 3f
       1.9015710306278204 0.691399957345498
000030 dd c4 ee bc ca 09 e3 bf ac f0 24 e9 3a c6 08 c0
       -0.5949453058330182 -3.0967920507810813
000040 1d 32 7e c1 7c 95 e4 3f 6d 04 8a d3 86 a9 e7 bf
       0.643247964778826 -0.7394441730140336
000050 3f ff 77 84 ba 33 f5 3f d2 20 96 f2 ca c4 e3 bf
       1.325129048782358 -0.6177725542084096
000060 48 07 8c 97 67 f4 e3 bf 1f 85 a5 64 48 45 e5 3f
       -0.6235845527555535 0.6647073713067221
000070 6c b7 ae e4 c9 c0 f6 3f 3c c2 6c 05 15 f5 b6 bf
       1.4220675404462453 -0.08967715628092149
000080 3e 16 af 8e ee a1 f0 bf e6 8a aa 1a ce 63 fb bf
       -1.0395341466513766 -1.7118664781234485
000090 f0 1f cd 43 0a a3 dd 3f 0a e1 a8 27 51 a4 ed 3f
       0.46307617779939303 0.9263082289317321
0000a0 eb 35 bc 0f be f0 e9 3f 2d 8b fc c9 8c b8 ff bf
       0.8106375033691483 -1.9825561418626407
0000b0 f6 ee e3 2c fe 7c d8 bf f6 0d b5 be a7 f3 03 40
       -0.3826289595015021 2.4939722918513736
0000c0 13 c5 51 0d 77 d3 f1 3f 4b 08 56 0f 99 50 f2 bf
       1.1141272087373337 -1.1446772193017007
0000d0 4b bb 95 27 e2 91 ca bf 82 c3 ae 3b ff 46 89 3f
       -0.2075770085607139 0.01234244728934342
0000e0 5e 7e 90 d5 7f c1 f8 3f 40 95 81 48 45 22 01 40
       1.547241052852676 2.141733709768829
0000f0 75 4a 06 0e 7e 5d f4 3f c9 e2 c4 56 16 8b f4 bf
       1.2728252933344752 -1.2839568509499932
000100 5d 40 e3 aa 3c 5e f3 bf 61 78 7d ce 0f 9b d6 bf
       -1.2105070758152785 -0.35321421780634493
000110 73 7a 01 62 03 28 f0 bf 10 ae 1c 4c 50 0d e6 3f
       -1.0097688511229108 0.6891252028048616
000120 97 9f 65 fe 7d 3c e8 3f 62 cd 3c 33 cd 1c de 3f
       0.7573842972460508 0.4705079079023645
000130 05 78 3f 7c 34 c6 e7 3f b3 68 22 a2 23 ea c6 3f
       0.7429449488370216 0.1790203611061024
000140 c4 23 44 36 c1 38 b3 bf 68 ad df 7b 23 bc f1 3f
       -0.07508475851876911 1.108432277566715
000150 72 62 1d 48 fb da a3 bf 1e 51 2c 3f 74 65 b5 3f
       -0.03878007178599753 0.08357931654274295
000160 b7 2b b9 7f ca d8 e1 3f 44 f7 96 b4 c5 e8 03 40
       0.5577137465091856 2.488658343178857
000170 d0 d1 67 df d9 e3 fb bf e0 fc d5 e6 b6 e4 f6 bf
       -1.7431277014521704 -1.4308384911562868
000180 5d f8 8f 0c f6 9a f0 bf f7 11 8f c0 71 b8 e8 3f
       -1.0378323069303612 0.7725151787677181
000190 4b ba 6f 97 2a 0a ef 3f a6 a2 1f 46 fd cd ae 3f
       0.9699910123579881 0.060165324029928954
0001a0 2d af a2 01 df 25 e0 bf 9a b9 73 c2 02 7c a9 3f
       -0.5046229392951084 0.04977425216371785
0001b0 51 b8 a1 7c d9 97 e2 3f ac da 4f 80 5a 61 d2 bf
       0.5810363229954963 -0.28719198732816653
0001c0 de 04 80 b2 20 65 e2 bf a0 85 19 0b 38 2c ec 3f
       -0.57484469283386 0.8803978173056528
0001d0 55 f2 40 9d 76 db fa 3f 47 2d 2d 98 f9 60 08 40
       1.6785799162600104 3.047351063612641
0001e0 b1 e8 1e 1f 22 65 f6 bf fb e3 e6 9f 9d d9 f5 bf
       -1.3996907439855415 -1.365628838173733
0001f0 c5 f5 1b 9c 2b 38 ff 3f 4e e7 9b fc 5a db e5 bf
       1.9512134645477641 -0.6830267843026634
000200 57 23 d1 1d 28 04 dc bf b8 e6 de 05 d2 d2 f0 3f
       -0.4377537051373585 1.0514698247265368
000210 a5 8f 63 78 80 e0 f3 3f 5c 50 79 c2 19 89 f2 3f
       1.2423100187961407 1.1584718319545777
000220 5c 2a 3c 5c ff 8b f5 bf 9f da ac f9 62 7c 03 40
       -1.3466790774279138 2.4357356553912974
000230 bd 7e 69 ec 2d dd d5 bf af 1f 50 0d 59 e3 dd 3f
       -0.341624718543226 0.46700121212097206
000240 d6 ec e3 2d 58 f7 f7 bf a6 d0 06 e5 98 c4 da bf
       -1.4978868286696545 -0.41824934354668597
000250 86 02 68 f5 f7 4b d6 bf be 86 bf 80 a0 32 e4 bf
       -0.3483867546602045 -0.6311800493824291
000260 4b 57 db 4b 83 ef ed bf 16 ae 1e 51 5c 78 ef 3f
       -0.9354874116495265 0.9834424576160383
000270 a4 cf 9a 56 83 8c 83 bf cd e4 58 82 f2 fd ed 3f
       -0.00954535110518135 0.9372494264454417
000280 c2 ae 55 38 28 b3 c6 bf 3f d1 19 8d 07 5d e6 3f
       -0.17734244108884495 0.6988561397434195
000290 c9 a4 d0 b4 f5 41 f8 bf 17 a7 fe fe 7a 46 c4 bf
       -1.5161034644209386 -0.15840089274325272
0002a0 a3 26 96 b2 e7 e3 f2 3f c1 28 61 d3 ea 52 b3 3f
       1.1806408859287465 0.07548396740563403
0002b0 30 13 55 97 9c 72 f2 3f 5c c1 f9 31 8e 95 d4 3f
       1.152981368200198 0.3216281402628931
0002c0 ed 6b fa ff ff 71 b6 bf b1 cb 14 47 a7 bb 00 40
       -0.08767700194805146 2.0916276505681357
0002d0 58 db 95 e9 f9 04 ff bf a3 68 e0 f3 2b fb d0 bf
       -1.9387148975781283 -0.26533030334543123
0002e0 31 ae 53 02 4e 3f fa bf d9 ca d6 b0 d4 1b e8 bf
       -1.6404552546399709 -0.7533973173034055
0002f0 25 59 e7 5d 39 80 c2 bf 49 d5 f3 48 12 89 de 3f
       -0.14453808865682408 0.477116175882959
000300 cd a4 e5 ba 38 5e 01 40 50 e9 1a 87 c2 34 fa bf
       2.1710066415149414 -1.6378808286231852
000310 76 e0 32 09 a4 d7 bb 3f cd e7 fd 7b d5 84 e3 3f
       0.10875916695192864 0.6099650785174561
000320 af c1 9e 0b 6f 04 08 c0 d9 76 10 fe 6d c8 f8 bf
       -3.0021649272750532 -1.5489330219638104
000330 c2 57 12 6f 84 81 d8 bf c8 a3 1c ee c7 e6 8e 3f
       -0.3829051098522279 0.015088617281053276
000340 55 9d 2f 9c 42 cf df 3f d0 c9 99 3b b7 06 bf 3f
       0.49702515842951317 0.12119622426124654
000350 33 8c 88 d0 14 4d e5 3f 97 b0 92 44 c8 4b f1 3f
       0.66565933922937 1.0810015371926391
000360 21 c4 a2 98 fd 6b e4 3f 94 bf 8a 56 c1 1a e8 bf
       0.6381824475448675 -0.7532660188935432
000370 63 24 d6 bb da ae ea 3f 6a d2 08 f0 f9 a8 e7 bf
       0.8338445347482203 -0.7393769920514164
000380 e6 b9 07 77 ef fd e7 bf 74 7d 50 40 c9 4b 05 c0
       -0.7497479748542986 -2.6620049500049223
000390 c9 53 3d 13 59 02 d4 bf 47 67 8c d9 8f 4b c5 3f
       -0.3126433074842763 0.16636846659167245
0003a0 0d 80 2a 62 72 52 f2 3f 78 b1 fd 42 38 53 d8 3f
       1.1451286158189788 0.38007933179940023
0003b0 bd a8 35 a3 cd 0d ef bf fc 72 22 ad 16 4f c2 bf
       -0.9704349696815125 -0.14303859189831047
0003c0 17 b7 f6 df b6 ab e8 bf de 58 f7 40 3e e5 ed bf
       -0.7709612249652505 -0.9342337864752854
0003d0 9f f4 ec 75 ca 63 f9 3f 54 0b 6f 90 ca bb d8 bf
       1.586863003394036 -0.3864618692861559
0003e0 ed 37 27 b5 3c bf 99 3f fa af 95 1e ce 3b f7 3f
       0.025143574291909877 1.4521008677211271
0003f0 8e a5 23 05 5d a1 f1 3f 64 2c 79 1f 9b 38 01 40
       1.101895351481605 2.1526396235326946
000400 2b 2f ff 21 13 6a dd bf 7e 29 7a 5f 6e 74 de bf
       -0.4595992881775028 -0.4758563930887688
000410 aa 9c 87 7c 84 1a e9 bf 3e b4 f6 2d f5 68 c5 bf
       -0.7844870025845883 -0.16726555580444996
000420 8d 9b e0 35 41 04 e5 3f 6f 4c 57 66 b7 71 ba 3f
       0.6567693760197116 0.10329767464217963
000430 34 09 bf 98 25 80 03 40 a9 34 7c 90 ad b2 ea bf
       2.4375717099475427 -0.8343112775779861
000440 e5 89 81 d8 18 c0 db 3f d4 5b d6 8c b2 10 ba 3f
       0.4335996736828334 0.10181728304301824
000450 55 89 9f 1a 54 5e e5 bf b5 69 cc aa 85 23 f9 bf
       -0.6677647132858434 -1.5711723968330322
000460 60 29 d2 c0 a4 35 d4 3f 8c f5 a5 e0 09 80 f1 bf
       0.3157741435067205 -1.0937594199488982
000470 d4 19 59 ef 54 f6 dc bf 7d 76 cd b2 e2 be b1 3f
       -0.452534898508387 0.06931893220231618
000480 96 c4 37 32 06 75 ac bf 28 df 12 91 34 2a bb 3f
       -0.05558032382021698 0.10611275235976037
000490 3a ab ad b7 df d0 d8 3f 5e f6 41 e9 bf 5e f5 3f
       0.3877486509069744 1.335632239496952
0004a0 2f bb ef e4 78 ea d7 3f c4 32 aa 84 f9 4b cd 3f
       0.3736860500056762 0.22888106324935198
0004b0 9f 2e af 79 e8 98 c1 bf be 18 d7 b5 9f 28 db bf
       -0.13747888509384595 -0.4243544841559802
0004c0 b5 b6 02 64 70 e4 dd 3f 46 52 96 9f 1e 87 e2 bf
       0.4670678116479892 -0.5789940945565568
0004d0 cc a2 61 f0 8b 15 05 c0 2c 40 2a de d8 da 7e bf
       -2.6355208186908836 -0.007532927646607884
0004e0 05 bc 5e 42 0b 9b d3 bf f5 13 c4 cc 5a 1c c3 3f
       -0.30633813363505197 0.1493028163751259
0004f0 09 b5 d4 a3 8e e3 d8 3f 6f ed 0a 79 95 61 c2 3f
       0.38888898848638626 0.1436030236271608
000500 fc 80 8c 36 16 c4 ee 3f 3c 24 3e bf 3d 33 f0 bf
       0.9614363732726185 -1.0125100584430262
000510 13 50 1b d9 13 8f e0 3f fa 40 ca 59 9d b1 cc bf
       0.5174655189862299 -0.2241703689983366
000520 0a 8d d6 bb a1 ff f3 3f db a2 ca df 4b f1 d5 bf
       1.2499101006913542 -0.3428525624718028
000530 fb 58 6d 5b f8 d9 f2 3f 2e 87 13 2f f4 f9 e3 3f
       1.1782153674481026 0.6242619437655088
000540 14 6d 0a e5 4b f0 e4 3f fa 54 2f 76 7b ab bd 3f
       0.6543330644084642 0.11589786181805897
000550 cd ba ab 98 c6 4a b3 3f bd af cb f1 8e c9 d8 3f
       0.0753597376567356 0.38730214703423
000560 ad 41 38 58 08 ba e0 bf 73 49 25 ec e0 98 f1 bf
       -0.522709057144359 -1.0998238777579814
000570 60 9a 81 1e 53 b0 d2 3f ce 62 a6 52 17 ca f5 bf
       0.29201200465323573 -1.3618386486543161
000580 ce 56 06 37 a7 33 d4 bf 20 40 e8 f1 b0 3a e1 bf
       -0.315652660117263 -0.5384144520521694
000590 c6 a7 4a 1f 10 9d fb bf ee 25 41 d8 28 20 cf bf
       -1.7258454534844403 -0.2431689315729239
0005a0 60 01 e6 4a a3 8c ec 3f 62 09 f9 1d 1e 13 a1 bf
       0.8921677077160375 -0.03334898105505847
0005b0 8d 5e fe d4 ad 44 ff 3f 34 a5 cc f9 49 ac e0 3f
       1.9542673416198426 0.5210313681501817
0005c0 6c 66 22 52 9a 65 ea bf b4 10 6d 20 2d 84 e1 bf
       -0.8249026874720591 -0.547384799320318
0005d0 9e f8 08 64 60 04 00 40 01 71 59 bb 60 27 da 3f
       2.002136975787905 0.4086534337600512
0005e0 86 b2 fe 30 1f c6 e9 3f 51 79 c0 11 3c 63 f3 bf
       0.8054347950870386 -1.2117272084647832
0005f0 a3 40 4a 29 c2 d9 f2 bf 12 e0 b9 d7 51 a0 f0 bf
       -1.178163682259801 -1.0391405512618843
000600 a9 ab ff ca 56 04 ef bf b8 8a 60 db 6a a3 e2 3f
       -0.9692796673601737 0.5824484142979918
000610 03 77 b4 a4 95 52 d5 3f be 4a 92 25 1a d5 d2 3f
       0.3331655605742158 0.29425672215544896
000620 fa ea c2 23 5b 02 db 3f 91 73 48 6f e9 a2 e8 3f
       0.42201879970859546 0.7698867009636264
000630 ab 3b 74 ca 5d 24 de bf 45 64 68 e5 31 4c f0 3f
       -0.47096962710287 1.018602272152081
000640 0b b3 58 c5 7e 21 de bf 33 1e e3 f5 5d 2b f3 bf
       -0.4707943846904505 -1.1980876545875503
000650 fb c4 84 2e ba ec d8 3f a9 2e 5b 6e d8 b6 da 3f
       0.3894486860545638 0.4174099996277883
000660 d7 d1 b4 87 e7 8d e5 3f 6f f3 d3 28 5c 2d f3 bf
       0.6735723162187764 -1.198574218258013
000670 ac 3b 1b c3 17 24 cb 3f 83 3a 76 be 57 2d c9 bf
       0.2120389654796474 -0.196696250914517
000680 77 b7 15 1e be 04 f8 3f 85 4a 60 79 3e f5 c9 3f
       1.5011578726948451 0.2027967541367454
000690 f3 e8 6b a3 57 7b f6 3f f7 53 16 d3 d3 10 eb 3f
       1.4051128753331426 0.8458041308209648
0006a0 a5 ec b1 e2 27 af f8 bf eb 60 3a 8a e0 a8 f4 3f
       -1.542762647178088 1.2912297629864564
0006b0 b4 2a 68 75 b1 36 cf bf 00 81 05 03 d8 d6 f9 bf
       -0.24385660393484943 -1.614952098658307
0006c0 0a f6 af bc 6a e2 e1 3f 49 fd 56 2b 13 d4 f2 3f
       0.558888786821343 1.1767760937653569
0006d0 e1 9d 27 81 ea 8b ce bf 74 e0 29 58 50 7a e4 3f
       -0.23864489847549833 0.639930889315123
0006e0 32 e4 f8 fc aa 9c cb 3f 04 f3 16 8a 96 c3 e4 bf
       0.21571862556609883 -0.648875493723239
0006f0 9e 94 ce 3f 95 4d f3 bf 65 cd 95 8a 00 66 c0 bf
       -1.2064411632975758 -0.12811285750249649
000700 26 42 2c fc 05 0d e0 bf 3c 3f 08 3f 44 dc fe 3f
       -0.5015897679568908 1.9287760221668142
000710 24 25 cf 33 9e 3f d2 3f 41 95 24 13 11 f6 c7 3f
       0.28513293323028877 0.18719685969078095
000720 db a2 b7 fb f8 99 b1 bf ba 32 d4 39 d1 c1 e4 3f
       -0.06875568528597446 0.6486593369932827
000730 ee 67 89 0d 80 96 b3 bf 0a 78 cf b2 c5 ed f5 bf
       -0.07651520090567462 -1.370549868086075
000740 ec 7e c0 29 0b 5e c1 3f 3b e9 e9 0e b1 e4 e4 bf
       0.13568248308819564 -0.652916459205961
000750 3f 26 ad 04 0e bc e1 bf 11 3c b6 53 00 58 dd 3f
       -0.5542059031806231 0.45849617171273943
000760 5e 46 45 9a 2f 8a e4 bf 73 0f aa 9d 47 4e ea 3f
       -0.6418684018228296 0.8220556334858727
000770 e5 ce 84 3d 5c ab fb 3f 0c 13 7a 3a 65 c3 ff bf
       1.729336014087431 -1.9852039608242107
000780 d4 0a 4c 83 b9 94 fa bf a6 58 30 91 73 19 fa bf
       -1.6613097313681253 -1.631213729042011
000790 86 58 c3 82 4d 5b ce 3f fb 1d 65 27 66 4c f5 bf
       0.2371613396159697 -1.3311521090380427
0007a0 d1 1c a2 e1 e7 5c fc 3f b2 ba c5 0c e8 e8 bb 3f
       1.7726820768164553 0.10902262031388935
0007b0 f6 83 3e 79 19 9e e9 3f 81 6f 2c db 37 46 b7 3f
       0.8005492561388781 0.09091519452016252
0007c0 81 e5 f2 14 96 4e d8 3f 04 dd f7 93 ea 64 e9 3f
       0.37979652448446904 0.7935688867572996
0007d0 01 43 dd 2c 3a 0b e5 3f 22 33 f9 7f bd 74 cc bf
       0.6576205135589533 -0.22231262921050027
0007e0 63 4e 1b 33 ad 9a e6 bf 44 07 4a 43 6c db df 3f
       -0.7063814161469505 0.49776751109321915
0007f0 24 02 77 01 24 41 fc 3f fb 38 3e 71 98 21 cb 3f
       1.7659034783574805 0.2119627526230444

weight_ih_l0 f8 [120, 20]
000000 fb a9 46 55 ac 4c c7 3f 2c 1f 86 7d 7f ae d2 bf
       0.1820273796450492 -0.29190051325029986
000010 bc 1f 91 b4 02 64 ca bf 24 44 fe 5d eb d2 c2 3f
       -0.20617708031408977 0.14706174935830163
000020 47 10 e2 50 a0 3a 92 3f 54 7d 05 eb ff 03 a8 3f
       0.017801766335211047 0.046905515135899606
000030 b8 f1 7a 21 49 7a c9 bf c2 d4 9c 2b be 9a c4 bf
       -0.1990443623998439 -0.16097237710497408
000040 59 24 cb db 89 62 a0 3f 33 5c 4c 20 63 d1 a0 bf
       0.03200178916956337 -0.03284749764696251
000050 c3 e7 ab 22 82 9d ce 3f fa 2d 6a 13 eb 6f c8 bf
       0.23918177311844432 -0.19091547439562345
000060 7b eb ee 4e 74 ec d8 bf 62 84 3d 37 82 b3 d0 3f
       -0.38943202694252194 0.2609563388305728
000070 4d 2a 53 68 a9 41 df 3f 6a 56 2c 83 de 68 83 bf
       0.4883826750562193 -0.009477365854347403
000080 cf a7 3b 5a a6 eb c9 3f fd 3e aa 20 7d 13 bd 3f
       0.20250396161946901 0.1135786251782029
000090 66 44 5f 3e aa 83 b6 3f d7 be 9a 84 39 ea d4 3f
       0.08794654867894422 0.32679593991904937
0000a0 46 74 30 1e 66 47 d5 bf 36 62 15 45 42 e7 d3 3f
       -0.3324828429047709 0.31098992105902157
0000b0 e1 fa 8a 71 6e 5f c1 3f 90 76 41 ea 8b 7d c3 bf
       0.1357248358162542 -0.15226887644069054
0000c0 71 75 c3 f8 af dd c8 3f 78 7f b1 24 df 32 d2 bf
       0.19426536223083304 -0.284354959328986
0000d0 d8 39 18 63 7f 3b b2 bf d7 2c 3a b5 f9 e1 c3 bf
       -0.07122036141684107 -0.15533372258173614
0000e0 dd b7 2c 05 12 98 c4 bf 18 da 3d 35 ea 5b 9e 3f
       -0.1608908200518603 0.029647502421960764
0000f0 84 d8 28 b1 28 9c 94 3f 90 b5 d0 44 7a 3e af 3f
       0.020126949131928487 0.06102354135542065
000100 89 44 1e 7e 46 de dd bf 82 df 6d 9d 1e 40 ce bf
       -0.4666916114447948 -0.2363317745873666
000110 be 1d 81 0a 22 f7 c3 bf 37 38 fd 47 0a b6 be 3f
       -0.15597939980419356 0.11996521241710033
000120 47 05 5b e9 7c 23 d3 bf fd 04 e9 f8 a8 6c b6 3f
       -0.29904101170184955 0.08759552075300188
000130 e9 b0 3f 2c 23 2d ba bf df 5d 3c 1d 03 f9 b2 bf
       -0.10225124197285464 -0.07411212409748867
000140 d9 50 45 bb 5c f0 d7 3f 5b 24 04 5d 18 fe ab bf
       0.37404554641876825 -0.054672967295183304
000150 eb 53 b2 a4 a2 90 c1 bf e3 14 e7 fa 20 6d a2 bf
       -0.13722641984773473 -0.03598883688713685
000160 34 ba 8b 25 1d 89 e0 3f c0 7d b8 ef 7a d9 c5 bf
       0.5167375310246087 -0.17069946961508542
000170 29 94 6d f2 28 9d c6 3f 58 14 1a 1d 47 e0 d2 bf
       0.17667114102656115 -0.2949388298223474
000180 5b a7 19 a4 27 9b ae bf 1d 8f 78 17 d5 c0 b2 3f
       -0.05977748754669562 0.07325488875408977
000190 2e 03 bf 4c 47 2a d7 3f 2e 6d c1 c8 95 dd c2 bf
       0.361955475757031 -0.14738724043386625
0001a0 20 c6 c8 ef af 8c a9 bf f8 41 06 05 07 83 d9 bf
       -0.049901483555356174 -0.39862227907818193
0001b0 9f 46 70 77 16 00 c0 bf 85 50 aa fd 12 ae e0 3f
       -0.1250026782222919 0.5212492899322717
0001c0 d5 c4 c7 7f 2f f0 c6 3f 8d 70 1f 59 86 f2 e0 3f
       0.17920488108896984 0.5296050778083711
0001d0 58 01 ae 32 f7 bc 9f bf 6a 59 4b dd 51 ce d8 bf
       -0.03099428412269964 -0.3875927601888153
0001e0 cd ec 17 c8 e2 73 36 3f 0e 37 46 24 b4 73 9b bf
       0.00034260069523357474 -0.026808562006002616
0001f0 e2 76 68 fa 3f 95 c5 3f 17 f6 f3 f4 a4 60 c7 3f
       0.16861724593120814 0.18263685188860343
000200 b1 4d 8e f7 fe 4a c8 3f e2 ac 33 8c 6c 72 9f bf
       0.1897886952179824 -0.03070993047451232
000210 c7 53 62 ac f0 4e ba 3f a3 f1 7b 0d 71 3a b9 bf
       0.10276703079791992 -0.0985479982300093
000220 da 95 fb 8d 01 e9 cf bf b5 e7 5c d5 d3 bb 8c 3f
       -0.24929828102828716 0.014030127476519863
000230 61 6b 30 dd 72 5e c4 bf c7 20 5f d0 5d 89 ae bf
       -0.15913234520197775 -0.05964177292440947
000240 fb f8 62 27 4d ed d8 bf c4 0a 30 c7 5d e4 d5 bf
       -0.3894837269434814 -0.34206337406082477
000250 d1 e8 c5 5d 1d f7 c9 bf 79 31 20 4c dd c1 e0 3f
       -0.20285384253276686 0.523665093119731
000260 12 b3 15 82 49 ba 97 bf 4b f1 91 32 28 0d c5 3f
       -0.023171566548103213 0.16446402043573935
000270 b3 21 f9 56 a1 65 d1 bf 24 98 88 81 22 ba bd bf
       -0.2718280171725624 -0.11612144148293219
000280 40 d7 a6 45 55 c3 de bf ea 81 f5 a8 ee 27 b2 bf
       -0.48067218591619465 -0.07092181801772993
000290 9c 9b ac cb 7c e8 95 3f c8 dc 2f af 68 8e cc 3f
       0.021394681865014684 0.2230959754376498
0002a0 ce f2 d0 1d 0c 6c d5 3f 38 b1 22 5e 22 76 a7 bf
       0.33471968566645394 -0.04582316779246515
0002b0 65 e7 8b 71 d7 cc c2 bf 65 b1 f2 00 b9 6e b8 3f
       -0.14687626880896257 0.0954394938768864
0002c0 e2 e8 d7 52 9c e4 df 3f 2b 79 b0 85 06 25 bd bf
       0.49832828607726587 -0.1138462139501583
0002d0 85 52 db 57 bc 6a b2 bf 2e 09 12 4b ff fd d1 3f
       -0.07194115776958128 0.28112776118372806
0002e0 26 a8 b7 75 da 05 d6 bf 5a 17 c6 00 5a db c9 3f
       -0.344107260664375 0.2020065788057604
0002f0 7c 8a 19 e6 74 e1 da bf f1 33 7a ee 25 a6 a6 3f
       -0.4200107810085354 0.04423635994053388
000300 f0 74 7d ca 9e 13 a3 bf fc 57 25 da a6 c3 d4 3f
       -0.037259065835977156 0.3244416361170577
000310 b8 c7 bb 58 b3 e0 ce bf e3 9f aa 06 66 71 c7 3f
       -0.24123231728259298 0.18314814877999117
000320 86 9c 6d f8 ce 18 9d bf 7c 2d 3e 7b cf ef a1 bf
       -0.02841494933400359 -0.03503273372106272
000330 c4 b9 f8 00 f6 50 c3 3f e3 4e 10 42 d9 67 d0 3f
       0.1509082321876588 0.2563384194520337
000340 11 d5 00 c7 3d 97 df 3f 94 d0 ee 83 f4 05 cb bf
       0.4936060374632954 -0.21111923639330554
000350 1f 4b f3 d2 cf 0e d8 bf 82 93 45 d8 9f ea d5 bf
       -0.3759040412962111 -0.34244533653537
000360 48 94 c8 7e a4 e8 d5 bf a7 cf 47 b8 8b df cc 3f
       -0.34232437497332 0.22557207582542313
000370 1b e7 43 ec fb 36 bf 3f 05 f8 47 51 f7 c6 e5 bf
       0.12193274038500272 -0.6805378520509754
000380 1d f1 1c 7a c7 1c e4 bf 09 d8 21 73 2f a5 cb bf
       -0.6285130867977703 -0.2159785568398436
000390 3a 21 7e e1 26 d5 cf bf e5 02 ae 99 76 d4 dd 3f
       -0.24869237909684633 0.46609272964273735
0003a0 d7 a6 52 77 1d 79 cd 3f 7f 04 ec 81 14 3b d1 3f
       0.23025863958655776 0.26923096358957105
0003b0 5f 18 fc 42 1f 5b ba 3f c1 93 1e 2c 80 01 e5 3f
       0.10295291314477727 0.6564331876476147
0003c0 e9 89 bb 76 42 94 d4 3f 6d 8a fa 22 b2 f1 d1 bf
       0.32154904932954637 -0.28037694373975947
0003d0 f9 21 51 6b 8e f0 c7 3f ef 14 bf 28 7b eb d0 3f
       0.18702869644245348 0.2643726251520339
0003e0 d0 87 ae f6 54 e6 d5 bf 66 c7 1c 87 7e 24 dd bf
       -0.3421833428384362 -0.4553524321992114
0003f0 5c 9c e1 25 42 95 c9 bf 39 72 28 0e 50 5a e6 3f
       -0.1998675045935866 0.698524501468973
000400 f1 ad bc dd 4e 74 b0 3f 80 c9 db d6 56 58 d9 3f
       0.0642747203207177 0.39601679785041455
000410 b1 86 9e aa c7 f0 a3 bf 83 4a e8 ff 7a 48 e2 bf
       -0.0389463802123492 -0.5713477132979538
000420 14 67 ba 0d f6 2d cf bf 96 28 dd 69 58 7b d0 bf
       -0.24359012289351567 -0.25752840364715135
000430 19 c0 d8 dd 06 0f dd bf 0f 96 74 7b 59 e6 d0 3f
       -0.4540421644660469 0.2640594201678547
000440 29 25 0a ef 77 2c e4 3f 2e b5 55 dd 9d e4 ce 3f
       0.6304282826178326 0.24135182673800543
000450 97 e6 5a 6a c9 6b d1 3f 3c 9c ed 3d 5e ed e0 3f
       0.2722037829040373 0.5289756021055676
000460 92 22 ab 6f 01 8f ab 3f 01 16 f0 0e 93 31 b8 3f
       0.05382542122021507 0.0945064460248304
000470 4a b5 69 f6 5b f9 b0 3f f2 8f 88 46 8c 0f ce bf
       0.06630491987171641 -0.23484948581710757
000480 10 67 9e 94 0d b9 c8 bf 76 b9 72 8b c8 00 c8 bf
       -0.1931473708798923 -0.18752390679351166
000490 0a 3c df 57 38 4f bb bf f6 ce 06 45 a1 21 9c bf
       -0.10667755265534154 -0.027472038114594498
0004a0 b6 0e 0a 13 35 6c db bf 39 fa 69 8e 26 bd cf bf
       -0.42847945079141014 -0.24795991853530255
0004b0 cb e3 bc 33 92 97 b6 3f 34 f2 98 91 29 19 b0 3f
       0.08825029147273182 0.0628839474165453
0004c0 ed d4 78 9c 9c 7b c7 bf ad dc 5e 8e 25 c9 c2 bf
       -0.1834598316214974 -0.14676351024329418
0004d0 4b 87 f8 92 62 9e bd 3f 2c d8 31 d2 44 2b d2 3f
       0.1156980141463723 0.2838909199412025
0004e0 95 05 4f ed b7 6c d3 bf 07 ce 2e ba f7 cf c8 3f
       -0.3035106484859054 0.1938466700645309
0004f0 7b cf 27 c9 95 a7 d8 bf 50 f4 0c d3 97 46 d1 bf
       -0.3852285828027033 -0.2699336586991352
000500 e7 06 04 82 d2 ac d9 3f 56 28 df fa 30 b8 d0 3f
       0.40117323586319603 0.261242146484283
000510 66 b0 59 83 96 48 e0 3f 69 3c b5 b3 db bf e4 3f
       0.5088608327328188 0.6484201917572935
000520 c0 2d bc d7 27 98 da bf e3 27 f7 dc f1 4a bc 3f
       -0.41553684299352867 0.11051856655754437
000530 0c 6b 4d cf ca f1 c1 bf e2 f3 28 d3 20 2d b6 3f
       -0.14019141313732353 0.08662610202095736
000540 11 92 56 16 79 d4 d0 bf 41 9a d0 17 7b 50 af 3f
       -0.26296832257710984 0.06116089502056755
000550 35 1e 10 5d 4e a4 d5 3f 09 31 ca db 09 38 c5 bf
       0.3381534489458063 -0.16577265960621215
000560 b8 90 56 ec 5d 94 db 3f 77 86 73 a8 3f 7a d4 3f
       0.4309305961599068 0.31996146631545436
000570 4d 90 60 49 26 a0 be 3f 15 fb 8b 13 d6 10 c3 3f
       0.1196311883109626 0.1489513011401519
000580 73 e0 da af 25 47 d6 3f d7 87 63 ba 3c ef c7 3f
       0.3480924813588963 0.18698844052329264
000590 38 be 6d 29 e1 77 c5 3f dd a2 0d 8f cc 8c ca bf
       0.16772093317875814 -0.20742184624693652
0005a0 7f 7b a2 5e 1f 88 c7 3f ea 4f 60 07 84 2c ad 3f
       0.18384163018069086 0.05698025312463513
0005b0 c6 0a bf 37 03 b3 d2 3f 25 c5 fa 3e 74 e9 d4 3f
       0.29217606014223596 0.3267489066157217
0005c0 ed bf a3 c1 75 2b b1 bf 17 03 df 99 da 14 ab bf
       -0.06706939675836994 -0.052893477709863905
0005d0 2a ec a7 23 0b ff c9 3f d0 d7 7c 4a ad 04 b3 3f
       0.2030958103276544 0.07429011410280784
0005e0 1a 3e 65 59 e9 3a bb bf b7 54 3e 4e ad f7 bc 3f
       -0.10636766846186455 0.11315425071946349
0005f0 16 a2 85 ae a5 15 c7 bf 32 74 aa c4 e3 70 c2 bf
       -0.18034811994154215 -0.14407012083839416
000600 dd 11 61 08 7b 0e c9 3f ef a5 6e d2 d5 c2 91 3f
       0.19575441273822394 0.017344799965632814
000610 68 4d 9e ed 10 d5 a7 3f 58 c4 de e6 5f 82 d2 3f
       0.04654744053473331 0.2892074350921283
000620 c0 0d 8d 41 ad 6a d1 3f 8c 0b 24 8c ed cb d1 3f
       0.27213603402580233 0.27807177243828884
000630 f9 89 28 93 d8 67 dd bf 9e 12 bc e7 61 8b c3 bf
       -0.45946325655873427 -0.15269111457032108
000640 37 94 b9 7a f6 29 d5 3f f5 8c fd 33 fa a5 bd 3f
       0.3306862066731954 0.11581386346147211
000650 38 d6 64 2f 1b 26 d0 bf 71 83 ed 9f f8 ff a5 bf
       -0.25232581737813886 -0.04296853019946568
000660 e2 5f 7a 5f ba f2 c5 3f 62 f3 97 0b e8 d5 d3 bf
       0.17146997129452674 -0.30993081218894336
000670 38 6e 3a 55 59 fe bc bf b8 35 3c aa cd bd c4 bf
       -0.11325605707900699 -0.1620423394419228
000680 f1 7a 2a 3e 04 7e c5 bf 24 f9 8c 6a 62 a9 d1 bf
       -0.16790822062917912 -0.2759634056600524
000690 3e 63 8d 7e 67 a1 c6 3f 98 b3 b7 c3 89 ec d2 bf
       0.1768006675654536 -0.29568714249654127
0006a0 0c 3a 8f 0a 29 0a c2 bf a4 f5 e4 6e 0a fb ce bf
       -0.1409350682792624 -0.24203615584148708
0006b0 3c 70 d5 63 58 d4 b6 bf 73 0a 35 fe 86 c8 e6 3f
       -0.08917763173434506 0.7119784321769899
0006c0 ce 06 ba f9 08 7e b6 bf 55 db 99 c1 2a e7 d7 3f
       -0.08786064240305366 0.3734843149790568
0006d0 a7 aa d0 15 ae 37 dc bf ff 51 e6 43 a5 b1 c8 bf
       -0.44089843874341245 -0.1929213124791573
0006e0 dc 0e a9 82 d1 f2 d4 bf 63 8d 5e 2c b7 b6 b9 3f
       -0.3273204589824965 0.10044426758991203
0006f0 f6 6f 86 b5 a4 08 a2 bf 20 62 b1 d3 79 4d 6e bf
       -0.03522219386942986 -0.003699052756513291
000700 5e 0e 73 e9 55 ac e0 3f 23 23 d7 10 fd 4a c3 bf
       0.5210370597419105 -0.15072596857341933
000710 a1 0b 99 a9 70 34 db 3f 3f db c0 eb df a5 d4 3f
       0.4250756889561505 0.3226241876868023
000720 f1 79 ce 60 cc 1d e2 3f c9 a6 88 77 9f d8 72 3f
       0.5661374941590208 0.004601118962946856
000730 b4 69 c1 ce f9 17 b1 bf 35 a1 d5 13 23 da b5 bf
       -0.06677209184400718 -0.08535975679626946
000740 56 59 9c a1 00 f3 e5 bf 85 5f 40 46 1e 62 bc bf
       -0.6859133869609575 -0.11087216582416033
000750 a6 9e 4f 4b 44 2d cd bf 06 ad 15 6f 77 20 b8 3f
       -0.22794393231673843 0.09424540006664381
000760 78 67 14 fa 99 f5 d6 bf ab 0b b4 63 eb 04 ca bf
       -0.35874032422872615 -0.20327513092351288
000770 dc d7 42 98 40 0a d0 bf 8b db b8 f0 72 21 e5 3f
       -0.250625752155768 0.660333128128387
000780 65 70 d9 2d 78 7f 93 bf 05 6e a8 1c 5f 82 d2 3f
       -0.019040944860862292 0.28920724676729065
000790 2d 52 d2 a2 ee 3b c3 3f 53 90 89 ab 32 10 bf 3f
       0.1502664847399883 0.12134091079639235
0007a0 82 ca 33 f9 59 d8 c9 bf 46 1d 30 db 6a 21 9b 3f
       -0.20191502254563792 0.02649466479126985
0007b0 81 52 f7 c7 6f 4f cd bf c6 3a 89 6f 53 4a c2 3f
       -0.22898671401948792 0.14289324709030476
0007c0 15 ba f0 da af d7 95 bf 06 82 10 6e b6 41 c8 bf
       -0.021330592859323334 -0.18950538992159255
0007d0 62 0d 19 4e dd 16 b2 bf 2b 6f 61 e2 97 68 d0 3f
       -0.07066138416944548 0.25638386828880994
0007e0 75 48 bb 9a ca 67 d1 3f 3d 21 5d 4b 21 3f af bf
       0.2719599257517367 -0.06102851910560723
0007f0 57 58 f0 0e a3 8a c0 bf 45 71 c5 a0 0a d3 c9 3f
       -0.12923086385188995 0.20175297594222222

weight_hh_l0 f8 [120, 30]
000000 e6 1e df 96 f1 ac d3 bf 59 cd b5 bc fa 1a d0 bf
       -0.30743064626265804 -0.25164669445731175
000010 6a 10 8a 68 10 af cc bf b3 38 16 67 c0 5c c8 bf
       -0.22409253220041886 -0.19033055337462698
000020 6f 57 8c 3f d5 a6 b7 bf e2 52 55 36 d0 80 c4 3f
       -0.0923894195696826 0.1601810708331391
000030 df f0 b9 09 61 27 d6 bf c7 a3 14 68 0d ff c2 bf
       -0.3461535067542751 -0.14840858060895654
000040 e7 e5 ee 61 82 00 dd 3f 90 b9 97 e2 31 34 de 3f
       0.453156085622679 0.47193572166624964
000050 d6 bc 8c 7b 33 94 dd 3f 0d d6 bb 8b 05 4e ce bf
       0.4621704775372114 -0.23675603220878863
000060 dc 17 c8 84 6c 4e d9 bf 47 d3 c1 6d 8d 76 d7 bf
       -0.39541161505655764 -0.3666108676764463
000070 7e 7b 0d 78 9d 4b d8 3f 72 9e d3 52 28 ef cb 3f
       0.37961518024342655 0.21823600811261518
000080 a7 28 21 7f a0 76 be bf af 33 eb 16 e5 2d c1 3f
       -0.11899760345218856 0.1342131006153102
000090 ae 00 c0 c9 08 bb c6 bf 50 b2 de 64 61 5d dc bf
       -0.17758283473086095 -0.4431994900758456
0000a0 87 7f ac 11 78 56 e0 3f 12 8b db f0 c7 99 cb 3f
       0.5105553002540412 0.2156305242598014
0000b0 6b a1 18 e3 26 71 d4 bf 08 75 51 5d d2 80 d7 3f
       -0.3194062440620857 0.36723765481095016
0000c0 fd b3 ad 5d e9 99 d3 bf ca e3 cb 71 2a 2b d3 3f
       -0.3062690176801082 0.29950963128027
0000d0 21 02 95 90 06 ac cf bf c5 dd 0f 2d b9 e2 c8 3f
       -0.24743730601950722 0.19441904735843543
0000e0 4a 8b 74 99 0e d0 ba bf ad b4 d6 fe 01 4a 95 bf
       -0.10473719831911157 -0.020790129832381755
0000f0 57 61 38 fc e8 4b db bf ea 3b 47 f7 47 8d c9 bf
       -0.42650818472750046 -0.19962405752309503
000100 56 2a f1 31 17 d8 dc bf 70 93 0e 22 0d 56 e2 bf
       -0.45068912388948 -0.5730043091940455
000110 f6 13 c2 97 da 43 7c bf 58 28 01 00 45 3e c0 3f
       -0.006900648000855538 0.12690031528683465
000120 2d 5a 62 be f6 d4 d4 bf f1 15 32 6f 33 9b c0 bf
       -0.32549828140455156 -0.12973635606265035
000130 04 9c 8b 11 39 c4 d6 3f e1 19 45 2f 67 35 dc 3f
       0.3557264968243887 0.44075946441844677
000140 7d 7a a8 4c 34 4b d4 3f 22 e7 de f8 e6 3e d2 bf
       0.31709010587830005 -0.28508924773960775
000150 0a f6 15 d9 b6 eb ba bf 45 63 5b 59 78 66 d8 bf
       -0.10515921401925979 -0.3812542793871681
000160 c4 56 de 38 b4 32 dd 3f 9f 15 16 ad e1 2e e3 3f
       0.45621972611966677 0.5994728451338921
000170 f8 e2 c5 2d 6c db c0 bf 19 8a 77 59 63 1e cf 3f
       -0.13169624552735804 0.24311487072471108
000180 a9 0c bb a1 12 0f c1 bf 51 45 b6 bb a3 ce d3 3f
       -0.13327248475079514 0.3094872792363122
000190 58 d7 03 f5 3c 82 d1 3f c4 af 6b 6e 11 2f d5 3f
       0.27357410361525103 0.33099780829683945
0001a0 fa fb 76 09 27 69 da bf 50 ed 31 40 fa 56 ae 3f
       -0.41266799854560043 0.05925733598356919
0001b0 00 0f 1f e7 b3 f8 da bf 66 d6 dc fe 0c dd dc 3f
       -0.4214296109241644 0.4509918679135353
0001c0 c3 3e 09 71 a7 20 db bf bc f0 a6 ec 03 ae be 3f
       -0.4238680461757946 0.11984276321067261
0001d0 60 58 72 6e e3 1f b8 bf 23 81 f9 e7 7c b7 98 bf
       -0.09423657843066868 -0.024137450846297825
0001e0 ee 19 52 83 ae 43 e3 bf 1f 15 1a 99 a3 c6 bc bf
       -0.6020119252069074 -0.11240599143828377
0001f0 f2 2a 5e dd 8e 79 b5 3f cc 1c fe 3a 4c 5f d1 bf
       0.08388607887733793 -0.2714415145969269
000200 d3 02 0c b9 de 55 db 3f 03 b5 f1 db 5c b0 c2 3f
       0.42711608954418273 0.1460071634241232
000210 c0 e6 09 3d 30 15 c9 bf 8c fc 26 61 29 8f cb bf
       -0.19595911960987245 -0.2153064464928075
000220 0a 40 a3 63 fc 68 c5 3f 77 2b 83 6f e4 bf d8 3f
       0.16726641526338454 0.38671217813378383
000230 c3 ba d8 80 34 e9 c4 3f 99 7f d0 7c e2 d5 d4 bf
       0.16336685458505515 -0.32555448712263907
000240 19 a5 41 ff ae 77 bc 3f 2d 9e 91 ef 61 fe d3 bf
       0.11120122653814625 -0.3124012794055229
000250 0b 61 84 b4 ad 20 d2 3f cb 42 c8 53 95 2b db 3f
       0.28324453953384027 0.4245351141153548
000260 57 ce 57 bb 41 38 d9 bf 59 5f da bc fd 2d b4 bf
       -0.3940586404343995 -0.07882676945371027
000270 2c fc d4 46 64 2f c5 bf 9f c6 cf 77 c7 39 d2 3f
       -0.16550878008453773 0.2847765607867618
000280 d9 3f ff dd 43 60 c5 3f 7c ab 56 9b d8 15 c1 3f
       0.16700027789784036 0.13347919068231906
000290 d1 c8 80 b8 4a af ca bf 4c 83 04 91 36 1d c7 3f
       -0.20847448357523615 0.18057901459635628
0002a0 bd d8 4e 32 79 32 e1 bf 7c 4c 1a ea a8 aa d8 3f
       -0.5374113066270848 0.3854162489089459
0002b0 16 7d f1 bd 8e 0b d7 bf c3 18 6e d9 3d 83 d6 3f
       -0.3600804190554795 0.35176035149960344
0002c0 ca 12 a6 5c fd 68 cb bf 85 b4 6c 5d dc b3 d4 bf
       -0.21414153121818053 -0.32347783206461883
0002d0 7c fd 9c 1d ae 96 e0 bf 8a 16 5a 37 e0 8e ac bf
       -0.5183935716994905 -0.05577755618746234
0002e0 c8 87 c1 d5 f2 13 d2 bf e6 5e 63 10 67 28 d3 bf
       -0.28246756434066045 -0.29934097862631714
0002f0 c6 8c 0a e3 2c 86 b3 bf 18 d9 1d 4a 2e 16 75 3f
       -0.0762661032008963 0.005148106401853057
000300 90 94 4a cd f4 a8 c1 3f dc 4a 1f 47 53 99 c0 bf
       0.1379686357878751 -0.1296791169430297
000310 e8 fb 5c 01 5a 1d d5 3f 16 35 ff 01 7d f3 ac 3f
       0.32991647847296557 0.05654516839386241
000320 54 19 2d 07 fd 0b d8 3f e3 39 4d c4 b1 3d cb bf
       0.3757317133025897 -0.2128202637199613
000330 a6 ec 8f 80 d2 b0 cd 3f 0c 38 9f 25 2f eb 8d 3f
       0.2319586875672474 0.014608734450941817
000340 3e 98 25 16 67 d1 a4 3f fa 8a ba 13 7e 32 dc 3f
       0.04066011567447035 0.44058181692723475
000350 b8 c1 61 8b ab 4b c4 bf 97 8b ea 93 2a f6 c3 3f
       -0.15855926805262555 0.15594989988775573
000360 8d e9 89 df 1b 86 d4 bf 20 ba 11 5e 7c 30 c1 3f
       -0.32068535642579193 0.13429216950631062
000370 3d 1e 23 c2 1b 2d dc 3f e5 a5 2b 28 57 fc 91 3f
       0.4402532001372242 0.017564164950192213
000380 ac 42 4d 9f 75 1e cb bf 63 49 f1 e3 94 b1 b1 bf
       -0.21186704901130804 -0.06911593022349431
000390 90 01 34 53 c0 8b bb bf e5 01 94 a9 95 f0 de 3f
       -0.10760118514372707 0.48343411980024903
0003a0 6c 1d f1 f0 8e 48 dd bf 76 f0 68 3a c1 84 a2 3f
       -0.45755361108282133 0.03616908872615536
0003b0 44 0f 83 96 5d 75 d2 bf f8 75 34 9e 73 03 bd bf
       -0.2884134263842848 -0.1133339177362912
0003c0 6c 7b d3 d1 27 25 dc bf c3 19 75 28 c6 72 bc bf
       -0.4397677945216205 -0.11112631309251868
0003d0 a6 84 9d 33 ab 89 d9 bf b2 06 0b f6 da 52 e1 bf
       -0.3990276340537754 -0.5413641744164208
0003e0 b8 f9 62 7d e9 43 cf 3f 03 e7 af e8 b8 11 c3 bf
       0.24426001188653657 -0.14897834169078558
0003f0 47 38 b2 9b b9 fb da bf 63 90 61 20 10 65 d7 bf
       -0.42161407665924283 -0.3655433956357738
000400 0c 86 60 ac c6 94 a3 3f ad 4a 30 11 6e 9f d5 3f
       0.03824444631778698 0.33785583189561913
000410 e2 84 dc e5 58 4f e3 3f 21 d6 c8 91 62 00 dd bf
       0.6034359445076485 -0.453148500793164
000420 49 e5 b0 b4 76 7b be bf 49 6a 86 7a c4 62 94 3f
       -0.1190714064731725 0.01990801809152235
000430 44 65 ef c4 f9 24 c5 3f 2b e8 bd 8b ce 1a d4 3f
       0.16519090763066846 0.3141361584345101
000440 83 ee 8b 8b 2c 2b de bf 30 d1 88 b7 42 c1 c1 bf
       -0.47138513209913685 -0.13871034585611985
000450 b2 d2 f3 fd 62 3b b1 bf e8 1c 32 eb 7b df bc bf
       -0.06731241893778409 -0.11278509609302356
000460 4f 81 83 53 e9 44 c2 3f fc 0a 3c 57 db 8b d1 3f
       0.14272800996605858 0.27416118163107206
000470 fe 87 bc 7a 98 8c a4 bf aa 91 05 ce 0e 87 d7 3f
       -0.040135159475781265 0.3676182758265677
000480 18 0a c4 44 da 41 d9 bf 31 85 12 fc c3 75 d8 3f
       -0.3946443244496165 0.38218783966484
000490 24 bb 1b 3a 56 51 d3 bf 9d df 4e 69 8e 4c d2 3f
       -0.3018394057716469 0.28592262538904284
0004a0 2b 94 9f 2f 11 1e c7 bf 2f 66 93 d8 3f c6 c3 bf
       -0.18060507607802498 -0.15448759150494726
0004b0 33 ef 9b 19 cd 7e da bf 59 00 00 f9 e8 45 aa 3f
       -0.4139893293465661 0.05131462134886595
0004c0 80 41 1e 53 66 83 d2 bf ff 7c 8e 05 83 35 db bf
       -0.2892700015736622 -0.42514110129009447
0004d0 91 ea 0f 4b e2 15 d7 3f 7a f3 8a e5 ec 96 d9 3f
       0.3607106907872231 0.39983675400053864
0004e0 1a 4f 98 be b0 4c a8 bf 23 12 b4 39 24 4d be bf
       -0.04746010138128849 -0.11836458596014458
0004f0 ac e7 4f 51 7b 7c ca 3f cc ef bd 44 d3 b4 c2 3f
       0.2069238802940253 0.1461433492330556
000500 e7 b0 f2 ae 39 62 d3 3f 01 a3 d5 2b 12 0e d2 bf
       0.3028701981045416 -0.28210882454600045
000510 a6 9d 95 36 b1 f3 b4 3f ac 0c c2 c5 ad 25 dd bf
       0.08184344847324229 -0.45542473137192974
000520 fe 72 ab bd c0 a0 d6 3f df 27 47 54 e7 d4 e2 3f
       0.3535615780108826 0.5884892126134637
000530 c0 54 cf e2 46 93 b2 bf 5c 15 f7 f5 4d 79 db 3f
       -0.07255976712561374 0.4292788412097559
000540 ff 60 5f 75 5c f6 b4 3f 72 67 a4 7a 5d 73 c1 bf
       0.08188417306462624 -0.13633316505802956
000550 6e dd 6c 98 4f 85 d9 3f d4 c9 90 45 5a dd a7 3f
       0.3987616528060788 0.046610661498920486
000560 ee 02 54 3c 39 6d e2 bf 31 b2 05 34 1f 62 d9 3f
       -0.5758329561504902 0.3966138847379482
000570 82 58 a2 a5 50 5e d9 bf 78 f3 88 c0 fd 76 d8 3f
       -0.3963815324326633 0.38226264765017204
000580 ef 61 cc bd 57 a7 e2 bf 11 7e d4 61 83 cd ac 3f
       -0.5829275805472757 0.05625544137205563
000590 df 31 91 79 8b 07 ca bf cd 4f 58 fa 53 8a cd bf
       -0.20335524974724614 -0.23078393672824263
0005a0 63 a7 18 de 6c c0 c1 bf e4 ba d0 e8 3d f9 86 3f
       -0.13868485302492237 0.01121757857080525
0005b0 0b dc e2 2a 35 87 c0 3f e9 51 f5 a5 5f 41 c1 bf
       0.12912621110965036 -0.13480754474097914
0005c0 7c 0b 06 a7 b7 a9 8d 3f 3b c0 98 14 1b 65 c9 bf
       0.014483866486221457 -0.1983980036325209
0005d0 5e c2 89 40 fd 69 c5 3f 8a 98 e4 19 f9 80 83 bf
       0.16729703570628635 -0.009523340323152735
0005e0 c2 2a 4d 6b b6 76 be 3f 9f a6 84 33 af 0f ba 3f
       0.11899891013778599 0.10180182464378128
0005f0 57 90 fc 45 fd 9e bc 3f fe 1d 4b 93 e9 91 da bf
       0.11180098494202305 -0.41515578636287376
000600 65 ef 1c a4 d0 11 c4 3f ed da e0 69 ff 6c c7 bf
       0.15679367078143538 -0.1830138461097798
000610 e5 bf c8 41 b4 e7 b3 3f 3f 1b 91 e4 e0 ba d6 3f
       0.0777542744260696 0.3551561576936599
000620 b0 fe 59 21 bc fa c2 3f 94 66 b8 18 0e 74 ca 3f
       0.14827682140820775 0.20666671950384752
000630 e8 d5 86 75 8a 87 c0 bf eb 8c 4f 44 c3 7a c2 3f
       -0.1291363786564681 0.14437142215238138
000640 47 63 a7 7b 9d d0 b2 3f 51 03 9b 16 1a d7 c2 bf
       0.07349571484463722 -0.14718938926491856
000650 77 75 59 7b 3e 45 bf bf df b3 a2 39 e9 45 c0 3f
       -0.12215033065282009 0.12713351549373805
000660 14 c9 3c 90 7b c3 d8 bf b7 a7 39 66 9c e0 d2 3f
       -0.38693131528556646 0.2949591635029906
000670 cd 7b 58 b9 cd c0 ce bf 53 71 ae 7a 07 2a 70 bf
       -0.2402588992126468 -0.0039463321835707275
000680 99 fd 4f be 4e 15 a5 3f 3f 59 77 3b b8 07 c8 3f
       0.04117818902158916 0.18773558524726217
000690 1d 1c ac f0 61 cd d8 bf fc 6c dc ba 04 61 d2 bf
       -0.38753555777697263 -0.2871715378584694
0006a0 c0 a0 da 31 71 4e d6 bf 88 15 15 aa 74 76 d4 bf
       -0.3485377299171084 -0.319729963394217
0006b0 ed d9 fa 26 7d dc bf 3f bc 38 be 06 82 62 c0 bf
       0.12445814325005929 -0.12800622300387043
0006c0 08 9e 1e c6 4d c6 c0 bf 31 95 84 74 1f 27 c7 bf
       -0.13105175184067286 -0.18088143529272707
0006d0 84 d6 15 02 03 74 cd 3f d8 bb 83 b6 4c 9e c2 3f
       0.23010289766141423 0.14545592223973247
0006e0 e8 86 bc 19 3e 5e d2 3f 86 74 60 1b ca 15 d5 bf
       0.2870021106083258 -0.3294549243308399
0006f0 de 39 46 fd 2c 5e c5 3f 8c 01 fd 0e 13 50 cb bf
       0.16693651549253635 -0.2133811782059748
000700 27 0f e7 7e 95 57 d9 3f 9f 91 b9 f5 5b cb d5 3f
       0.39597070114926897 0.3405370616585745
000710 d3 5d 51 c6 2e 10 ba bf ca fa 12 5f ce 81 c8 bf
       -0.10180942861312951 -0.19146136896411853
000720 48 9c 30 a4 47 d5 a2 3f ce ab 06 0b 63 33 cf 3f
       0.03678344611426404 0.24375570333844937
000730 a4 e8 30 25 24 07 da 3f 2b f3 02 68 e9 3f b8 3f
       0.4066858637994619 0.09472521581024
000740 5b 47 d6 01 e7 bf ba 3f 7a 96 e5 e7 98 f9 af bf
       0.10449069781159663 -0.062451151187627965
000750 ce 32 d4 9d 34 65 ce bf 99 a3 86 80 47 1c e3 3f
       -0.2374635477684905 0.5972020635864396
000760 e4 5a e2 2f f3 fd d8 bf 42 db 32 47 65 9d cd 3f
       -0.39049987484160753 0.23136583305832842
000770 e6 40 1e 37 d2 98 a1 bf d9 72 c6 a1 25 4f 75 bf
       -0.03436905787305182 -0.005202433585875987
000780 34 cc e8 a4 17 a9 e1 bf 4f ac cb dd b9 f7 bb 3f
       -0.5518911572347691 0.10924874939853278
000790 6b 51 92 bf fd a8 8e bf 88 16 ff 07 32 54 d8 bf
       -0.014970762642669574 -0.3801388815012179
0007a0 fe 6b 5c ef be 4f c9 3f 0d f8 b3 97 77 3a 9f 3f
       0.19774614989805167 0.030496472009865317
0007b0 50 e6 d5 94 60 41 9a bf 40 ac 03 af fa 9a cf bf
       -0.0256400194971092 -0.24691709085104385
0007c0 ed 5c 36 9e 9f 8a d4 3f 2a 7d b2 e6 c6 e2 d0 3f
       0.32096090746331535 0.2638413670446932
0007d0 5b b3 7a 2e e4 59 d8 3f d5 15 85 8a 77 4d e0 bf
       0.3804865316295058 -0.5094564156976796
0007e0 bb fb 0b fd 58 1a c4 3f 03 05 cd 24 07 38 dd bf
       0.1570540652828337 -0.4565446719535233
0007f0 f0 5d 91 6a ef ea e1 3f 1a c2 b6 b5 28 63 e5 3f
       0.5599286157038801 0.6683543728923411

bias_ih_l0 f8 [120]
000000 10 1c 40 23 ea b3 d5 3f 6f 48 71 8d dd 35 d0 3f
       0.3391061157457793 0.2532876855158354
000010 ac d1 b1 83 f0 3d df 3f dd 20 f6 64 24 12 d2 3f
       0.4881554876403935 0.2823573099090149
000020 9e 2a 85 c2 e9 6f db 3f 6f 41 bc eb d2 c9 e1 3f
       0.42870563503371695 0.5558867077070725
000030 17 cb 43 ca fd f6 d8 3f 1d 72 f5 14 36 82 bb 3f
       0.39007515671180343 0.10745561610878736
000040 73 48 61 9a 76 d2 e2 3f 0b 97 1b c5 27 af b0 3f
       0.588191319964848 0.06517265855981351
000050 37 af 63 e9 b9 4e e3 3f 28 5a 24 fa 4b 64 bb 3f
       0.6033601339708871 0.10699915749533118
000060 57 78 48 7b 45 f2 d4 3f 3e 58 f4 1f 14 94 d8 3f
       0.3272870735107793 0.38403800125650267
000070 7c 39 3e a1 1c 33 d7 3f 5b 35 19 3d 28 99 d4 3f
       0.36249461885827094 0.3218479725517988
000080 fd af 20 e6 1f 87 db 3f a2 fe 24 7e 7a f7 e3 3f
       0.4301223513928106 0.6239597762832612
000090 7b 19 6b ec 8d b5 c3 3f 64 57 26 8e f3 57 d7 3f
       0.15397810024132838 0.36474312669576237
0000a0 82 08 59 bc 22 13 ca 3f 03 92 d6 2f 56 46 db 3f
       0.20370897480649225 0.42616800948806616
0000b0 35 e0 dd b4 3b a5 d0 3f 00 dd 0e b5 4a 6f b7 3f
       0.2600850359226599 0.09154192848551546
0000c0 2b bd 5a f3 57 6a ca 3f b5 e2 f9 80 65 80 c5 3f
       0.2063703478101869 0.16798085019742862
0000d0 28 47 1d c7 c6 01 d7 3f d1 7c 04 a1 3f fd d9 3f
       0.35948342747461703 0.4060820648609936
0000e0 7e 37 c6 e7 21 c2 d0 3f 41 1b 59 7b bc 75 d5 3f
       0.2618489039822335 0.3353110508509652
0000f0 90 fc 20 67 0e 17 d3 3f a0 86 53 0c 6c 9d d5 bf
       0.29828224250008706 -0.33773328021752924
000100 4a 3a 88 a5 25 25 de bf 43 fb c3 02 05 a6 ce 3f
       -0.471017276432495 0.23944151530300858
000110 0a 99 77 3a 39 f9 d2 bf 93 4a ec c9 79 1c df bf
       -0.2964613982170624 -0.48611302107853155
000120 f9 39 41 7a 49 2c d6 bf 6d 02 fc 84 4b 75 a2 3f
       -0.346453065289921 0.03605113981575845
000130 10 b1 25 fe 49 68 c0 bf a9 0e 1c 7a c3 22 a0 3f
       -0.1281826487496649 0.03151522508235633
000140 31 f9 f3 4c 52 c2 d1 bf 3e a2 19 47 c9 00 cd bf
       -0.27748544230407207 -0.22658649417577864
000150 ee 97 e1 18 1c 81 d7 bf a2 77 b7 8e 55 b4 b1 bf
       -0.3672552340489109 -0.06915793165486986
000160 8a 19 38 90 7e 1c c5 bf 67 2c 0d 25 7d 91 c7 3f
       -0.16493207971525364 0.18412746724274884
000170 09 f4 f0 fe ca a8 c9 bf e4 ec 02 89 ac a4 dd bf
       -0.20046365211774766 -0.46317590122244057
000180 a8 64 75 68 c0 16 84 bf 5b 10 a6 0b 03 bb c2 bf
       -0.009809020221540912 -0.14633215016158627
000190 3d b0 f5 12 ad ea d1 3f f7 0a bd 10 05 2e da bf
       0.2799484906343002 -0.4090588248692905
0001a0 75 4e 20 23 c9 6d d4 bf 18 ef 04 51 bd 76 b9 3f
       -0.3192007868794698 0.0994680712510071
0001b0 37 51 87 76 22 6b d5 3f 83 5e 3f b4 e0 62 ab bf
       0.33466397833878453 -0.05348875236785224
0001c0 38 f6 f6 92 7c d3 ce bf 4f c1 ec d9 5d 9a ca bf
       -0.24082905937204813 -0.2078358949743326
0001d0 82 66 32 83 2a b0 bd bf d4 a8 75 0d ce 75 d3 bf
       -0.1159693308167338 -0.3040652400437811
0001e0 66 52 14 bd 80 00 d9 bf 6c 5d c2 c4 5b 4f b1 bf
       -0.39065569367202213 -0.06761716417019209
0001f0 75 b4 ed ae 11 bb c2 bf 92 28 f0 d5 1a 44 ca bf
       -0.14633389512474407 -0.20520339437672824
000200 1e 9c 6a 15 10 1f 93 bf b9 29 ba ee cb ca a2 bf
       -0.018673182780414625 -0.03670346535826092
000210 36 28 5a d3 10 f9 bd 3f be 4f d4 21 30 7b b2 bf
       0.1170816913601421 -0.07219219995414414
000220 16 68 5a 90 d8 ae d6 3f 04 c5 c5 5a d6 cf b5 bf
       0.3544217500399339 -0.08520259586454776
000230 2b 17 0d 15 fb 91 bb 3f 9b 95 04 26 ef 46 ad bf
       0.10769624008125038 -0.05718180979810513
000240 04 fe 2e 4c b6 c0 b6 3f 97 98 fd b4 35 2d b3 bf
       0.08887805328321724 -0.07490859669414572
000250 8b b7 3c 43 5e 04 d7 3f e9 4b d8 79 17 4f c4 3f
       0.3596416145909351 0.15866368722399152
000260 2a 25 b9 c2 59 de 7c 3f 14 ed cf cd b0 b7 ab 3f
       0.0070479875826745895 0.054135823367653796
000270 fb 50 18 c7 02 dd c1 3f 97 67 10 8b 8c 29 b2 3f
       0.13955721589503142 0.07094648738021046
000280 dc c9 2d 28 b7 24 cc 3f 4b 44 e7 9e 85 ef bb bf
       0.2198704668222281 -0.10912356500127023
000290 55 36 90 5d e0 f1 91 bf 38 2b cd 85 90 53 c0 3f
       -0.017524247847225578 0.12755018742822144
0002a0 c1 fe cc 3e 40 64 c1 bf 99 28 18 c0 40 18 c6 3f
       -0.13587191645091504 0.17261514072044262
0002b0 2a 13 b6 97 f5 30 d8 bf ea ef 58 f8 6b 07 b3 3f
       -0.37798824134397313 0.07433199704331597
0002c0 ff ca 2f a1 db 5b d0 bf 08 18 ef d6 eb 46 c1 bf
       -0.2556065630043775 -0.13497684473821914
0002d0 cd 48 4b 91 c1 c4 d1 3f 26 cf 0e b7 e4 aa da 3f
       0.2776340407264229 0.41668050648444177
0002e0 7a e1 a7 90 96 13 c2 3f d1 21 b8 09 78 3d d2 3f
       0.14122278273840633 0.285001763812514
0002f0 b7 2b 21 e4 7b e6 df 3f 26 48 45 8f aa b9 db 3f
       0.49844262388495103 0.43320716849587126
000300 cf 39 d9 2f e2 81 d5 3f ca 8a c8 f4 78 de d5 3f
       0.33605246231755087 0.34170364288926847
000310 9c 3d 68 56 06 ff de 3f 23 dd 89 ac d4 ea c3 3f
       0.48431547582819134 0.155603965995149
000320 19 de a0 ce 46 ce d0 3f 59 ce dd 41 19 a1 bc 3f
       0.2625901239257203 0.11183317049090515
000330 1b f1 c2 40 13 fe d9 3f 52 86 66 bd c3 31 d7 3f
       0.4061325199543419 0.36241239067212405
000340 b2 cf 2c 28 bb da c0 3f d6 18 71 e4 0c 7d cd 3f
       0.13167514287635879 0.2303787341535954
000350 fe f4 11 42 77 76 d7 3f 6d 4c da ab 53 3e d9 3f
       0.3666055817810302 0.39442912847989114
000360 54 bb fc 11 a3 38 d1 3f 4e 40 dc 63 00 8a da 3f
       0.2690818477303101 0.41467294456470405
000370 c9 98 8e ec 58 96 bf 3f dc 20 4c e1 44 4b dd 3f
       0.12338786864583819 0.45771905900666154
000380 9d 5e 73 50 31 1b df 3f 84 dd 4f b2 86 41 d7 3f
       0.48603470665464404 0.36337439931181614
000390 c4 ee c4 f9 45 5a 51 bf a3 e3 41 ec da 04 be 3f
       -0.0010591204982820937 0.11726158397676882
0003a0 11 ad bd 40 57 63 d5 3f 1e d7 6b 5f 7a a7 d6 3f
       0.334188283179814 0.3539720470283657
0003b0 6f 26 b2 8c bc 61 d1 3f 67 89 ed d4 87 17 db 3f
       0.27159036388238794 0.4233111934064681
