TRAINED/xml_train.pt (torch, 363143 bytes, 19 tensors)

weight f8 [122, 20]
00000000: 2cbe 4000 50eb e1bf ea69 83f1 d8da 05c0
00000010: c261 eed1 93a4 e73f 7052 ee61 8ca8 d6bf
00000020: ae73 27ca 6975 0240 f64e a109 2a07 0240
00000030: d29f 0cdd 7be9 debf 91c2 7840 ceb1 12c0
00000040: 18af 52e3 fd7f dc3f 023d 8a4d 6f21 e0bf
00000050: 6b78 6cc8 841b ecbf 9ffc a3dd 5e86 debf
00000060: 6a0b e9f0 224b d5bf c49d 5fad 6054 c13f
00000070: c3ff 8455 0048 fd3f 37a7 6e5a 1c1d c8bf
00000080: 1daf 14ef e157 00c0 a9b6 076e 88ca 02c0
00000090: 69ca 0c5f 8808 eb3f cb59 2e56 5435 0340
000000a0: 87cd bc00 90ac e93f 5ad3 c35b 9de8 03c0
000000b0: 5ab9 8731 7972 e6bf f672 56cc aba0 0740
000000c0: 74f4 1b20 32f7 eb3f 6f9f c707 b6b2 e2bf
000000d0: 3393 a101 e64b f3bf b57e 304b c301 d8bf
000000e0: e548 e0dc 57c9 f03f 0be0 537f 011e 0840
000000f0: a257 56bd 1719 f13f e909 0ed4 b4bf efbf
00000100: 0732 2d61 5510 f0bf 9542 e799 72ae e5bf
00000110: fcdd ed72 ff3d f4bf d28e 6ea4 f65b e4bf
00000120: cc2f 74c2 bbe4 f63f c675 f0be d22d a93f
00000130: 2c2a 97b0 737e d23f 2c63 24a9 c77e db3f
00000140: 0f8d 71db e25c cd3f ddbc 5f3c d618 f93f
00000150: 3f7f 51c4 812e b03f f1ab 2d0c 17fd e23f
00000160: faf2 9cbd 10d1 c73f 392e 6cf6 b100 0340
00000170: 2fb4 647c 65e8 f9bf 4e01 a978 d767 00c0
00000180: adb3 203e b843 d5bf 8a3d 45ad 3407 f33f
00000190: 4c06 38e3 a8e8 f13f 2f1b 2991 d2a6 e73f
000001a0: d7af 0edd 635f c2bf 2880 7584 6643 f7bf
000001b0: 695b 1346 5675 e53f 87fa 90e6 5c40 8fbf
000001c0: 72b8 f135 f7a8 ebbf bb94 3305 5ea3 d4bf
000001d0: 7b19 1f20 b9c4 0040 7829 bc89 b35c 0f40
000001e0: f920 8d85 040b f4bf ca74 8a66 52d6 f9bf
000001f0: e315 3b0d 0f8d 0340 e76b 9731 78ab eabf
00000200: 4d52 0c94 a5e4 d8bf 1a19 7af3 ac5b f23f
00000210: dae3 fa84 2ca9 db3f b017 495a 9700 e83f
00000220: 2c69 286a 71a3 00c0 d16d e64f 66a0 0240
00000230: 3ba0 b7c8 522d dfbf f75e d42e 5a1e e93f
00000240: 3cce 1f51 f022 fcbf 7f6c a180 6a59 e0bf
00000250: c20b 7e5f 4784 debf a77d 6c14 e749 c2bf
00000260: eeb6 11c2 4e04 fabf e62c 7022 2e72 f43f
00000270: a6bd e8e7 8c18 dbbf de7a 69d2 c1eb f83f
00000280: 1be2 85c2 b288 a33f 5b56 05fa 20c7 e13f
00000290: 3a74 4622 af9e e6bf ff6d 736b cfb7 c0bf
000002a0: 8d1c 01c7 8ebb e63f d8b2 39c4 4402 e1bf
000002b0: d287 7fb2 3ebc f23f 9ca0 35b8 7d56 df3f
000002c0: ee33 2f97 e828 d8bf e7e6 5756 425e 0140
000002d0: cde0 abf5 d100 fcbf 19ef b6b1 b6ee b43f
000002e0: 9ad4 9d88 353b edbf 2797 38c4 9466 eabf
000002f0: e963 d95b 921c c53f 0fb2 6731 cb83 e23f
00000300: 9d8f aefe e03a f83f d089 30b2 a0a8 f3bf
00000310: ba69 fca1 d377 de3f d62d abd3 01db d83f
00000320: 0dd1 3453 818c 04c0 0f4b 2099 55fc f9bf
00000330: 37a1 c83f a8d5 bbbf e33b bcfd 5c7d f13f
00000340: 6448 0c3b 2155 86bf 3021 ca5b d96f f33f
00000350: 36b0 07be fab8 f03f c2da b1fa ba4c e23f
00000360: 51a0 21df d0bb e73f e5d7 9f09 3116 f7bf
00000370: 53c7 2af0 a9b9 ca3f 6f95 0e14 8dce e0bf
00000380: 863a ffae 8336 ecbf c185 8b1c 69c7 0ec0
00000390: 7a46 4a09 56e4 e3bf 0951 d261 9d57 e5bf
000003a0: 137d 5d1d 4df7 fc3f 221a b311 f112 fb3f
000003b0: c326 cbe4 dc63 f8bf 49d8 3900 3913 dcbf
000003c0: 8718 cfff 1013 bdbf a85e 1de8 9d1f e6bf
000003d0: 141e 1c78 857a f33f 3848 7e5c 6670 e3bf
000003e0: 1de3 d3ab 2741 b03f dd87 43c6 bee5 0840
000003f0: fd46 a6d0 08b2 f63f 839c 57a5 f425 ff3f
00000400: 8f69 d8f3 7068 f8bf b092 b3ac cd6c e1bf
00000410: c92f 34e6 ed82 f4bf 8b17 8cbb 6ecb 0040
00000420: 7692 17f8 6389 f03f a47a eb65 4195 f13f
00000430: 9a02 126f bac5 0640 c8fc 5a80 529d f0bf
00000440: cb01 9079 d1fb ef3f 3b1c ef91 7ee2 e6bf
00000450: f370 6e61 718b fabf ea87 caf1 9005 f6bf
00000460: 33d5 dd7a e455 d3bf 05df 6a99 f565 f7bf
00000470: 9a19 0714 0d4a dfbf 0679 0603 a633 e03f
00000480: 2bf5 1ea3 0f31 aa3f f154 0bb5 786a da3f
00000490: 6bab cded 803d c73f d155 772a 3736 f23f
000004a0: c1b9 f26b 5406 d53f 3daf ee70 12eb d63f
000004b0: 4060 d2a9 7b32 b7bf e5f8 af9e 210b d8bf
000004c0: 013d 1b57 fcbd cb3f 1f1c 581a 7253 eabf
000004d0: e957 691e 91d9 03c0 8ef3 2fcd 720a c1bf
000004e0: b1f8 e3a2 1b5b c4bf a3df d101 84b2 d13f
000004f0: 5882 bd4d 6365 c5bf 6cc4 e9c4 fd08 ea3f
00000500: b9ba 1bef 2d6b 0640 08fe 7b8a 03a3 0bc0
00000510: a785 e2bb ea80 de3f 36c5 d250 c9a4 e4bf
00000520: e256 2f35 f4d6 ff3f b108 86ca 8730 debf
00000530: 7b30 a253 9ea8 e73f 99cc 04eb f5e0 fc3f
00000540: 714b 0888 29ea f13f 0832 b29d 8b87 e93f
00000550: c24a 7b23 628e e0bf 0523 3a4f 3459 ce3f
00000560: 3ef6 0824 9b74 cdbf 0540 323c 23c8 00c0
00000570: 7344 42d5 9640 f13f bd78 7ca5 e763 f4bf
00000580: 1680 e886 be6e b3bf ed1d 3eb8 0c4e ea3f
00000590: 85c9 9403 5b3a cebf 7161 20d5 0fb1 b8bf
000005a0: 733b 30cb f437 e3bf 6a71 1ac6 492a b23f
000005b0: 312f adef b0b9 fd3f 7368 f528 d8d9 f73f
000005c0: cfb4 8714 1245 f7bf 5fcb ae3e 28f7 cdbf
000005d0: a798 4057 f061 ff3f 1f9c b17e 320c d43f
000005e0: 30ff 6461 ae4c f43f eba0 9243 a938 efbf
000005f0: afdc 2f80 f4ba e9bf adc8 88df 3d14 fcbf
00000600: dff0 883d 42c9 f0bf 6d16 d934 1087 e53f
00000610: 61b6 fd8f f778 e23f c7c8 50b2 3e88 d6bf
00000620: 304f ed08 1c4c f93f 91d4 837f a908 f43f
00000630: 902b ad30 a373 b7bf 4bc2 fac3 931e f33f
00000640: 3650 3938 dd9a 8dbf baf9 48e7 2660 f8bf
00000650: b364 ec91 f1ab f13f 4bb3 4f4a 34e0 f13f
00000660: a0e5 d7d0 b8f8 f13f 3c4d d82e f6e5 f9bf
00000670: bf19 1a87 40d9 e23f 9133 5c4a 7db1 cbbf
00000680: 1449 b2a9 db78 f73f 026d 441c 5e0a b53f
00000690: d2db e7e4 8f9a ba3f 8d7c 2587 c8bd fd3f
000006a0: 3f25 8ae7 6b1b 01c0 878a 8777 d98b d5bf
000006b0: e577 ae95 5b93 d1bf db08 8cd6 a540 01c0
000006c0: 2ec2 6c87 2708 eb3f ab3a 81b8 ba1b fd3f
000006d0: 493f 5b14 3888 dabf 5f58 8d1d ce6d d43f
000006e0: d672 1ac7 8ba2 ea3f bb17 4ef5 0877 b53f
000006f0: 231b 355b d401 f9bf 0241 8560 8439 ccbf
00000700: 09f6 7ca2 b564 b1bf 11dd c3bc 8e7c ed3f
00000710: c81a 7843 d13b f53f 1ce5 fddc ed87 e23f
00000720: 7e5d d101 fa9a cdbf 7e05 ae50 d502 e13f
00000730: b2ce 3cf1 1a4f dfbf 2482 3857 ef20 fbbf
00000740: 1b6a c33c c83e e2bf c502 719a a05a f2bf
00000750: 9db5 d32a c1af aebf 7edc 1efe b49b e43f
00000760: 5cef 3b91 5985 eabf 7736 05f0 f5f1 e13f
00000770: 7022 b2b9 06d9 e83f f642 2a73 ba86 01c0
00000780: 371d ffd3 5a84 01c0 f67b 424a d313 fbbf
00000790: eff9 f916 7ea9 b83f 13b7 b04e 6855 f7bf
000007a0: 044e 2284 d121 fa3f 28e0 b671 51ea f4bf
000007b0: fb86 9917 952a fe3f cf15 9f4c 7e8f c5bf
000007c0: 1714 fbef e55a e13f 99d9 ee35 73fb fa3f
000007d0: 331f 6e5b dd30 e73f 36bc ca77 65c9 f2bf
000007e0: e871 d253 4450 f0bf 1feb c708 3440 e83f
000007f0: c3d0 120b 654e 0240 9e9d 8141 b9e4 b5bf
-0.5599746708812225 -2.731859099219254 0.7388400173395484 -0.3540373760563744 2.3073306840219265 2.253498149142497 -0.4830007227596954 -4.673638350840194
0.4453119964552896 -0.5040813936665531 -0.8783592142606386 -0.47695132870280504 -0.3327109673156686 0.13538750138762456 1.8300784435850665 -0.18838838973652525
-2.04291140348313 -2.348893031702421 0.8447915893978691 2.401039765634072 0.8023147596745027 -2.4885813874374607 -0.7014738051782772 2.9534526790506517
0.8739252688534536 -0.584315314478756 -1.2060298980442894 -0.3751075968047915 1.0491560581181656 3.0146512935134573 1.0686261554705898 -0.9921516553588933
-1.0039876743277334 -0.6775448804783816 -1.2651361932201999 -0.636226006656637 1.430843123994225 0.049177728469867385 0.2889680122868039 0.4296130325106329
0.22939716067330848 1.5685636862142964 0.06320963900497832 0.5933947790011854 0.1860676694722299 2.3753394366993033 -1.6192374095073878 -2.050703947694422
-0.332258282348273 1.189259220922255 1.1193016887413192 0.7391140780608562 -0.1435360745794003 -1.4539551901034518 0.6705733650841071 -0.015259481226278083
-0.8643756917570171 -0.3224711466594489 2.096056223820765 3.92026431661105 -1.2526898590895696 -1.6148246770383587 2.443876365056654 -0.8334313362678331
-0.3889554925711181 1.147381735879725 0.432200555671043 0.7500721705807702 -2.079806165083161 2.3283201448627797 -0.4871413192872784 0.7849551119461172
-1.7585299652972841 -0.5109150421443615 -0.4768236572783132 -0.14288033005958065 -1.6260516720607785 1.2778760285607915 -0.4233734383332951 1.5575578898639644
0.038152300115090486 0.555557716676684 -0.706870619720241 -0.1306094431555351 0.710395229988437 -0.5315269310500197 1.170958230265104 0.4896539973183367
-0.3774968601617833 2.1710249658179808 -1.750200233129408 0.08176748121962553 -0.9134776752749929 -0.825022109264613 0.16493443951438216 0.5785881009047119
1.5143747280608075 -1.2286688766986238 0.47606364077514807 0.3883671347691381 -2.568606042908988 -1.624105070256238 -0.108728900501437 1.0931062613997191
-0.010904559721471148 1.2148068986444507 1.045161001496138 0.5718665024167751 0.7416767461809376 -1.4429178596451433 0.20879101015958187 -0.5252137557733202
-0.8816545885000131 -3.8473684530333405 -0.6216230565498357 -0.6669451628281716 1.8103762766912197 1.6921244326964673 -1.5243805825470396 -0.4386732580381972
-0.11357218022667058 -0.6913594754687056 1.2174124423780812 -0.6074706846723137 0.06349418587695906 3.112180279670595 1.4184654379245665 1.9467665156060157
-1.525498344918194 -0.5445316670489628 -1.2819651596391728 2.099332299435394 1.0335426035973376 1.098939321636558 2.846547000634314 -1.0384087575801448
0.9994895338314164 -0.7151482439302365 -1.659043675033044 -1.3763589329687371 -0.3021174621456623 -1.4623924248571154 -0.4888947196563095 0.5063047465407926
0.05115555635664245 0.41274850540260305 0.18156444179052342 1.138236204036151 0.3285113386326906 0.3580976584296314 -0.09061406036414699 -0.37567940232101044
0.21673540356866997 -0.8226862444433926 -2.481233823385072 -0.13313136118804575 -0.15903039411199907 0.2765207307597796 -0.1671566133109248 0.8135975690803554
2.8023337059342706 -3.454596597584672 0.47661846492891374 -0.6451155260639669 1.9899789884124677 -0.47171206262295146 0.7393333085506265 1.8049220257205774
1.119668513657157 0.7977960662843211 -0.5173807805061517 0.23709730022917355 -0.23012103328248829 -2.097723455699454 1.0782688455986118 -1.2743908371262898
-0.0759085730901464 0.8220275495995658 -0.2361558692442253 -0.09645174935611124 -0.6005805939220025 0.07095776640421084 1.8578347551692327 1.4906846618601122
-1.4543629457432876 -0.23410513935740604 1.9614108475011933 0.31324446079674034 1.268720989653911 -0.9756666488438247 -0.8040716651584229 -1.754941819363505
-1.0491354373653434 0.6727372200190992 0.5772664844823333 -0.3520657292712141 1.581081423636487 1.2521147709897245 -0.09160823763265413 1.194965138955143
-0.014455536154095321 -1.5234746012280156 1.1044784259923233 1.1172373678957281 1.1232231290763153 -1.6186429815177936 0.5890200270376268 -0.21635404711596753
1.4670063618437483 0.08218944730872482 0.10392093027608887 1.8588338164479723 -2.138389405158392 -0.33666073487089715 -0.274619003461224 -2.156566311024205
0.8447454113975874 1.8192698676317984 -0.4145641516488366 0.3192019737811104 0.8323420418488137 0.08384757985012829 -1.5629466593542893 -0.22050528252521678
-0.06794295517917005 0.9214547812288477 1.327103866149331 0.5790929142232559 -0.23129201020013207 0.5315958572174819 -0.48920320089676317 -1.695540753084182
-0.570163839987177 -1.1471258194798548 -0.05993465087690739 0.64400720246239 -0.8287780605892112 0.5607862174890234 0.776492464720901 -2.1907853123924452
-2.189626365874257 -1.6923401737947166 0.09633625088643048 -1.4583514283980932 1.633256450794648 -1.307206577488623 1.8853960916389372 -0.1684415697219905
0.5423459708332555 1.6863891703374974 0.7247149263139135 -1.174169032990688 -1.0195964121149874 0.7578373118879859 2.288278662215903 -0.08552129601741007

weight_ih_l0 f8 [120, 20]
00000000: 8630 93e5 7c71 e13f 958d dbdb 9d61 d1bf
00000010: 1ee2 475e 6300 d63f 5b3a eae1 4232 d43f
00000020: 2d64 7a9b aeeb e03f 34ab 9517 2b09 c3bf
00000030: 85ae 05d1 fded c7bf 07f1 a65e 7d41 e3bf
00000040: 5138 cde7 daff fb3f 4cce c2a0 1cf5 a83f
00000050: 4cf8 b64e b9f9 c13f aa86 1980 45bb d6bf
00000060: 5bf1 2889 cce3 e0bf 23a0 1080 2947 f3bf
00000070: e494 2f72 7406 e4bf d2c6 8bd8 b044 f83f
00000080: e4eb 6590 b195 edbf bb04 3dd8 5091 d6bf
00000090: f147 46fa 531f babf 46ab 7d38 864f ac3f
000000a0: 0d2e 4c08 6c48 cdbf cccd 8059 9439 f3bf
000000b0: e46a 3a6c a2ef 943f 3b4f cfa0 7d32 dbbf
000000c0: 0c0d 946b 0fa7 d83f 6333 0029 7bad e43f
000000d0: dc92 7905 e05a 01c0 5757 9a7d 7051 e8bf
000000e0: d64d a00d 03a6 d7bf 28a6 d8b7 5da0 c3bf
000000f0: d7d6 0878 207c ef3f ee65 d456 6521 ed3f
00000100: 2f74 ecfd b280 e0bf dcc6 c479 e7ee abbf
00000110: 6e6a 1481 686c f0bf b20f 1832 48fc d33f
00000120: eb8f 4cb6 8ec7 e9bf 1fe8 1705 3b13 cc3f
00000130: e024 72c0 c9a7 ecbf c9c8 5bce 1af9 e3bf
00000140: ae85 96fb f4b2 dd3f fad0 b851 7de1 e7bf
00000150: dd4b 2d17 d5ef e13f 4a11 2737 c08f e93f
00000160: 9072 b4e4 f077 f03f 5a93 16f9 b84d f03f
00000170: a55d eedb ed0b 0440 faa3 c835 ea50 d53f
00000180: dd25 ccbb aef4 78bf bc34 0456 2ed0 b73f
00000190: d2c4 8cdb 1a0f 873f e240 22c6 384b c1bf
000001a0: 46c3 280c 93d7 efbf a4cb b815 fecf d53f
000001b0: dc61 594a 678d ce3f 8e76 3352 f25e 92bf
000001c0: 0c01 8a3b 1519 cd3f fc30 6f57 432c e4bf
000001d0: 972b 0003 0782 c13f 03f9 cd23 5f03 f53f
000001e0: 8b0f d11d bb92 d23f 0575 9b50 0a5e ebbf
000001f0: 8394 a60a 31ab eb3f 5ce0 d1b3 5666 7bbf
00000200: f158 51d6 7d87 f93f ade0 1104 eb3d d63f
00000210: 657f 3879 1e4a eabf 8642 8b80 70f0 8b3f
00000220: 856a 894f 23d8 efbf 2fe6 95ea 9b3c cc3f
00000230: c780 84f2 aadc e43f ea5b 58b9 542a ee3f
00000240: c046 549e 71c9 e3bf 1cf5 13f4 cdd1 e0bf
00000250: d36c bd87 3022 e0bf 24e7 db5b 7080 e3bf
00000260: a0da 313e 6e45 e6bf 1c02 2021 ade1 eebf
00000270: c58f 5f10 59f1 b5bf a9f3 1167 6805 babf
00000280: 5920 f08b d44c e1bf 6dd4 519f b2c9 d7bf
00000290: aeb8 60ca 8146 a2bf 07b7 c58a 8deb d5bf
000002a0: 719f a111 2fa9 d53f 9153 c5ff 2d5e d2bf
000002b0: 12ab f7c9 5084 e8bf fde5 3e47 97df d03f
000002c0: 0b02 9e4b 40df d23f 2fe1 b7b8 6361 cf3f
000002d0: ce53 184d 4f44 d03f dad0 6ada fc06 c13f
000002e0: cd57 0dc1 06cd be3f 7779 705a 55d8 aa3f
000002f0: 3039 016c 46b8 e03f 64e0 ae5d 5319 d8bf
00000300: 9c69 ca14 8f7a d1bf 2d50 6848 6a3e df3f
00000310: 95f1 e85c f116 da3f eae6 5384 5a41 ddbf
00000320: 1676 8c73 b132 f2bf f53b 5231 a27e c73f
00000330: 721a 84f2 27d8 e73f b40d af53 3e6b bf3f
00000340: a845 6568 bcfc e5bf 450c 5225 7f84 f0bf
00000350: d94c 3565 296c dcbf ff2c 5084 dda5 fa3f
00000360: 668c 11fa a6ea e83f c682 b888 6f84 0140
00000370: 8e41 7389 29b3 ec3f 525d 9efa bee6 eebf
00000380: 30a0 9e68 ec80 bd3f 6dac 6b0a 55d9 f0bf
00000390: a3c7 b354 3ea9 ecbf f96c 4466 34a6 e7bf
000003a0: 95f2 ce08 1dec f23f 25f0 48d5 f700 a0bf
000003b0: 1e68 6a28 5604 f43f 5c97 666b 9b85 cebf
000003c0: 390a 4783 b875 abbf 091d f4ff f383 ec3f
000003d0: 464a 9e56 86bf f83f 0f9d 2b5d a284 ca3f
000003e0: a8c2 3764 f896 e6bf bc19 bb35 e93e 0340
000003f0: 7b3e e7c2 2d47 dbbf d046 1df3 88a2 c3bf
00000400: 4249 740c b2e6 df3f 4363 3759 1ad6 f5bf
00000410: 1e00 4d66 e567 b43f 0a54 1f1c b430 efbf
00000420: 04a6 581e 1bfb c1bf efbc 766e d1b3 e13f
00000430: 1961 91d7 3a28 f33f 375b 5b6b 911a f23f
00000440: 8f9c 8703 7224 e2bf d1b1 b06a e2d4 cfbf
00000450: 7538 0c7f b1e6 c23f 7e03 8e1c 776f d9bf
00000460: 4c9e f056 2ebc c9bf bc0d 085c eaea e3bf
00000470: 424e 72ba 13fa d53f 5acc 434f 0c22 d6bf
00000480: e4f2 3747 f026 ee3f ef74 f45d cfa1 e13f
00000490: a9aa 8ba6 1478 a43f 2f5a f28f d4da c2bf
000004a0: 9c2c 3497 035f c83f aa27 4947 f694 aebf
000004b0: 6035 7993 e840 e5bf 7cc9 8f42 05e7 d93f
000004c0: 27e4 568d 9a29 c8bf 93d2 d46a dafd e8bf
000004d0: 04bc 5b8f 18f7 ddbf d078 adcb 84f6 f03f
000004e0: 82a3 fbad c361 c0bf 8385 e333 fbe3 f03f
000004f0: 76dd 4912 aa5b e83f 3ee3 3d1c ee34 ecbf
00000500: 6b20 a316 7e7c e5bf 7e0d 25b6 476d 70bf
00000510: cf87 55ec 2e90 c03f 2d30 eaef 0030 d83f
00000520: da42 0726 3477 c4bf 991f d99e c678 aabf
00000530: 5011 0d3e 5c77 c1bf 97ff d1ba e3e2 e33f
00000540: ab01 1598 ed90 dc3f 1df7 d810 8e58 833f
00000550: 1a89 4205 e2f4 da3f aeec ac28 191d bdbf
00000560: 78f5 3bdb b37b f6bf cfb6 9f9f 8881 c53f
00000570: 81a7 ffd8 e17a d83f 66b0 9ac7 331b edbf
00000580: dff7 aadc ae16 d63f 4835 6230 103b b6bf
00000590: 5cd6 f312 a6e2 e9bf e3f5 fdd5 82d5 c5bf
000005a0: b014 c132 ab22 efbf deb2 6480 ca8c a9bf
000005b0: 6f78 3a6b b748 e03f ff3b 9bc0 ae1c f23f
000005c0: eba7 8db9 1253 e73f 4d3e 4641 89b3 da3f
000005d0: d817 a65e 0b1c e4bf c652 f4c2 5833 d0bf
000005e0: 4c65 eee3 1c38 e53f 1c9a 836a 2c9b cb3f
000005f0: 7849 ad50 518d e73f 8e3b 2fbb 7265 f53f
00000600: 2021 48e8 93ee dbbf 6cc6 e0c3 99b5 c4bf
00000610: e798 8cdd 2a25 edbf 5f99 cf5b 7eae d5bf
00000620: 068e 8694 3e7d f5bf 1d32 e9d3 188a d83f
00000630: 03c2 610a d3b5 e4bf 966e 3ff9 2c29 df3f
00000640: 4367 41b2 5a0f d3bf 9ebc b025 6915 dc3f
00000650: 40df ecf4 d29c e0bf 3875 e3f3 9bf1 86bf
00000660: 36bc 7a30 1293 dc3f 0fc6 1418 1865 c8bf
00000670: e75b 5d77 2629 cdbf 0e0d 222b 1b3e d43f
00000680: 0990 0fab ab6c f33f 6cbc 5893 a026 de3f
00000690: b5a8 abd6 acbd f83f 5bdd 370a 7108 fdbf
000006a0: 6d73 e059 e173 dc3f 8ecc 54a7 a9fa cbbf
000006b0: 0f51 7e35 dcf8 9cbf 1af4 f2eb 567c f0bf
000006c0: 6589 1da3 5568 bfbf 665d e61b 978c db3f
000006d0: 337c d5b0 ef51 f73f 3ea0 dc12 f5d4 e63f
000006e0: 5e66 faf3 e939 f0bf aa55 cad0 1335 cc3f
000006f0: 9fe1 c5e2 ccee f63f fc36 6007 11d0 f03f
00000700: f234 5a19 7f91 f63f 7cf4 53b5 fb44 b63f
00000710: 0931 9f2d 0818 ecbf 5646 a110 9107 edbf
00000720: 3417 64ca adfd cebf e179 05fa 6dda c93f
00000730: b083 a7a7 abeb e1bf ad24 4662 e7d5 e0bf
00000740: e9cb 4dcb a21a e13f 40c3 94a6 ecf1 f23f
00000750: aee0 6b90 4b84 d83f 7b05 24de a5fb c03f
00000760: 779f 03cc 6167 e53f 5ce6 ef7d 6031 cebf
00000770: 3823 aa3d 961f e9bf d31a cc7e 4a77 dc3f
00000780: f71e 2d73 ecbe d0bf fee1 3e6d dfa1 e13f
00000790: 8f9a 9929 171c 0140 6164 ea37 2494 f0bf
000007a0: 1c83 df9f de5a 92bf ddab ae56 7560 d83f
000007b0: f18a 201a 5c30 c03f 8a8c d3de 4a30 efbf
000007c0: 1896 a134 85ef ccbf 0650 005b 0609 e4bf
000007d0: 02f9 13dd d424 f1bf be20 08bd 99cf f13f
000007e0: ec41 0e1a a9dd d1bf 56e8 a8f8 7d47 d2bf
000007f0: 8cf6 3cd7 9a24 fabf 659b 2fa4 c1e2 f83f
0.5451035007368012 -0.27158304663154215 0.3437736912451629 0.3155677038384163 0.5287697827035395 -0.14871729518503118 -0.18695042329942538 -0.6017443512605788
1.7499646239043793 0.04874505484022204 0.14043346732609263 -0.3551801444028607 -0.5278074911980569 -1.2048735621010642 -0.6257879476731003 1.5167702158764098
-0.9245231457019796 -0.3526193725302382 -0.10204052791803499 0.055294222255574385 -0.2287726440921322 -1.201557492849008 0.020445382934307768 -0.4249567099006872
0.3851965475625583 0.6461768914028706 -2.1693725993849124 -0.7599413350278422 -0.3695075638836135 -0.15333148457402612 0.9839022011207942 0.9103266425983614
-0.515710349983811 -0.054557069410646725 -1.0264668504884429 0.3122730721663586 -0.8056100426224452 0.219336869704251 -0.8954819449146747 -0.6241582899513328
0.46404766625536353 -0.7462755771762482 0.56052641417261 0.7987977101516119 1.0292824682029824 1.0189752321250212 2.505824773990485 0.33306365253753223
-0.00609272246652767 0.09302033996592035 0.01125927908433014 -0.1351080863428314 -0.995065234898086 0.34081985589289787 0.23869029169396938 -0.01794031740870721
0.2273279705732495 -0.6304032046987511 0.13678062101857044 1.3133231543175163 0.2902057448557051 -0.8552295278892933 0.8646474082967334 -0.006689394646962023
1.5955789920604355 0.34752917668766764 -0.8215477340308835 0.013642195628024167 -0.9951340249493376 0.22059964136478658 0.6519369827911071 0.9426673526785383
-0.6183403103225018 -0.5256109015605577 -0.5041735316439379 -0.6094285768624315 -0.6959754194966372 -0.9650483748410497 -0.08571392678965058 -0.1016450168262525
-0.540628693882364 -0.3716856532913145 -0.035694175676654324 -0.3425020079802014 0.33845116349993193 -0.2869982717286855 -0.7661518044163549 0.26364690740192015
0.2948761690568353 0.24515959281394248 0.2541692974930897 0.1330257479181743 0.12031595433413074 0.05243174294467939 0.5224945172756517 -0.37654575489751196
-0.27310540228213553 0.4881845194915993 0.4076503188441845 -0.4571138660681827 -1.1373762620563688 0.18355204971564346 0.7451362358704741 0.12273015540181725
-0.6871015585876892 -1.0323478181678791 -0.44410166629422815 1.6654944580539561 0.7786440738822307 2.1896658593471754 0.8968703922819701 -0.9656672377485995
0.1152484660548232 -1.0530596167616537 -0.8956596044865716 -0.7390386578948941 1.182644876868982 -0.0312573860032617 1.2510587290512443 -0.2384523653428755
-0.053632513070187966 0.8911075591176153 1.5467589744117887 0.20717267560323946 -0.7059289891604594 2.405718250057559 -0.42621940644765005 -0.15339767332857557
0.49845553604349757 -1.3647712216390608 0.07971032855584823 -0.974695258070484 -0.14047564489128217 0.5532004506584637 1.1973217411633128 1.13148633896135
-0.5669488972606745 -0.24868421754344053 0.147665202174213 -0.3974283007483378 -0.20105532879937227 -0.6224262044419713 0.3433884926573435 -0.3458281301565812
0.9422532454478554 0.551002200608904 0.03997864277865421 -0.14730317143103508 0.19039959795950245 -0.05973024006068724 -0.6641734009114479 0.40472537517702967
-0.18876964475001154 -0.780987938551862 -0.46820653915250454 1.060185237518045 -0.12798353190671824 1.0556594874290972 0.7611894948194464 -0.8814611960980085
-0.6714468423970293 -0.004010467646654246 0.12940012492896222 0.377929910938067 -0.1598878083882685 -0.051702696695939916 -0.13645508794628336 0.6214464806398493
0.44634570934069967 0.009446248902459648 0.42119646562254476 -0.11372525446943157 -1.4052008212887284 0.16801555437216684 0.38250013533853894 -0.9095705889244641
0.34513446378320894 -0.08683873349419458 -0.8089170808950246 -0.17057834099607225 -0.972982024316158 -0.049902275250450975 0.5088765234284106 1.1320025943457492
0.7288907646263828 0.41720801710559813 -0.6284233902558709 -0.2531339553691335 0.6630997134954355 0.2156730194175943 0.7360006881447552 1.3372676193136814
-0.43643663104787045 -0.1617920118747408 -0.9107870413907023 -0.33877524343406223 -1.343077259233611 0.3834287709658229 -0.6471953585406144 0.48688816395381573
-0.2978121510292235 0.4388068073339556 -0.5191435607621102 -0.011203020458590104 0.44647650465316546 -0.1905851476272322 -0.22781830623964014 0.31629065715988325
1.2140309030592127 0.4711076201373945 1.5463074098175131 -1.8145609282635948 0.44457277085330454 -0.21858711882086762 -0.028293076291064752 -1.0303563324698701
-0.1226857684355643 0.43045594906421625 1.4575039775443315 0.7134957664866375 -1.014139130630063 0.22036979384271876 1.4333008631057067 1.0507974899405204
1.410521601708123 0.08699010064079177 -0.8779335871745683 -0.9071736645511901 -0.24211666471836113 0.2019784422690938 -0.5600183748721204 -0.526111308995629
0.5345014544276384 1.1840635783266436 0.38307465652134 0.13267968508447922 0.6688698753978163 -0.23588186406395806 -0.7851058201204983 0.4447809446577768
-0.26165305373841313 0.551009858484633 2.1387160539628165 -1.036167353077211 -0.017924765117530148 0.38088735070294694 0.12647582317102704 -0.9746450759961516
-0.22605958051569597 -0.6261016633384322 -1.071492065034875 1.113183725743553 -0.2791540865373736 -0.28561352999861833 -1.6339367301692702 1.5553604520334485

weight_hh_l0 f8 [120, 30]
00000000: 06d7 4fe8 2b24 ca3f 242e ea85 50af e13f
00000010: 6bec e76a 64c5 d23f f101 ad11 66a8 c03f
00000020: 3dc5 2155 7608 e2bf 95fe 47cd f432 84bf
00000030: 1ac9 cab1 6d1f f33f 62fc 9db6 5bb8 9c3f
00000040: 41eb 0cd0 af53 e23f 2aa3 5a60 3e87 b9bf
00000050: 30c4 0c2c 4d6f c4bf a272 dfbc 65af c33f
00000060: f64c 2194 ecbc e0bf c2ac 0e01 3ce6 9dbf
00000070: bfea e52b 0df8 a2bf 2e72 616c 17d0 ddbf
00000080: 24a1 aa65 df33 df3f 9966 f93b bc90 d8bf
00000090: 8946 8521 d2d5 e63f fe5e f024 bb00 b3bf
000000a0: ede4 cd18 7857 d4bf 2d92 d26d 13a1 ad3f
000000b0: e767 8794 4dbe d7bf 5677 6cb5 a19f e13f
000000c0: 4ff9 34a7 ef00 b13f ff8c b0c9 7583 c2bf
000000d0: 89de 8bd4 4c52 e4bf f6b2 b5c5 f3df a3bf
000000e0: 0883 8992 4d6a e13f ae22 239b 7fd9 dd3f
000000f0: de7f d918 3328 dbbf 33a8 281c b2b2 f03f
00000100: 477f 10df 83fa e83f e0b6 15e2 bebd e33f
00000110: 48a1 af1a f2a3 d53f 3529 2a25 2e3b d13f
00000120: 6c2f 29da 7559 d9bf ea6b 8481 cecd b73f
00000130: 3b14 6f03 ff5a d73f 28d5 5b6e 557b b63f
00000140: 4b6d 74ec 62a7 e0bf c870 21bf 08fb e4bf
00000150: 0c7d b94a 0207 eebf 26e4 e215 ceb9 e13f
00000160: be6b 53f3 a007 f0bf 9fba 28a1 fc10 efbf
00000170: cc75 e5f7 6e6b e6bf ecf3 12b2 8b3c 64bf
00000180: 870f 072d 303a d83f a084 4d59 5596 e73f
00000190: 1e1b 80e1 e98e b23f efde 5b88 f50a de3f
000001a0: 6a9a 4156 89b6 f33f c715 3fc9 c6de 5d3f
000001b0: 1425 2096 3994 dc3f 610c c4ac 1872 dbbf
000001c0: 4ef0 5023 5cd1 f0bf 4afc 1fa6 2fd9 d83f
000001d0: 780b 0019 e3d2 a13f a2fe 835d 1a93 cd3f
000001e0: dc1e f1f0 8f5c cabf 8ab6 f614 0915 e33f
000001f0: e438 a067 4cda e7bf ea4e cb56 8786 f83f
00000200: 7147 05e4 e382 983f f733 e14b d506 b6bf
00000210: b0e8 5ec8 a26e d1bf d341 916c b6d9 ee3f
00000220: c4a0 bb63 fd4a d5bf b893 add7 9af9 d4bf
00000230: abba d3fd 2e5a f53f 5531 fd3e 6fda e0bf
00000240: 1fe7 2c3a 9a5c d73f 94a3 ed8f 6792 abbf
00000250: 16ea cbe0 6091 d2bf 9d27 9864 7928 b5bf
00000260: 76ae 0323 b479 d63f dd12 64f5 f217 f1bf
00000270: e7d3 e71c 6560 ed3f 5981 a31b 09ee ab3f
00000280: 3ade 813f d09f ddbf dde0 01a1 cd20 cd3f
00000290: 2cd2 d04c ca1e efbf 9bab a75d e76b ed3f
000002a0: ac16 e012 31e8 edbf 3da6 bf74 38f7 a8bf
000002b0: df97 143c e207 e43f 0d1d a3ee 615b e63f
000002c0: 0bc6 aa10 240c c7bf 9a4c 5dbe 264a d4bf
000002d0: b80f be84 5dc0 c03f 47a9 2d5b 0f7e d4bf
000002e0: 2d30 4095 e467 ec3f 9ded 7bb4 c812 e53f
000002f0: e717 7545 b19f e13f 2e46 760a 0528 e6bf
00000300: adb5 cd67 9c59 e3bf 66d4 89bb ae57 f73f
00000310: ef82 12cb 48e6 e8bf 6759 7ff3 ea66 e3bf
00000320: 9463 7640 55ae f23f 7adc 5180 0b71 e5bf
00000330: 85ac c88e 177d b43f 2eca a1ba 406d bdbf
00000340: bb62 0c55 7b93 d23f 24c7 0d0c bbb2 d23f
00000350: 2d9b 4d89 c018 dc3f cb97 8f9d 077a ddbf
00000360: d1fa d311 eb66 abbf b50c 3605 7eae e9bf
00000370: bf73 582a 7994 ee3f 532d 2c28 09f4 c5bf
00000380: b4ee 02d7 dbb8 cc3f caa6 2782 243f ff3f
00000390: 4ebe 45f7 e560 ed3f 11e3 5ce7 b904 f4bf
000003a0: 486b 9603 366c e13f 16cc 22de 5a01 ec3f
000003b0: 4ca7 968b edf3 ec3f 119d 7687 fd34 d2bf
000003c0: 32d0 a7bb ffd0 f33f acdd b18f da3e f03f
000003d0: 0127 fa8c 2657 ef3f 4e01 6bd6 c6fd e63f
000003e0: 80b4 f9c5 8ad9 e4bf 5fbd 36c4 b24c bf3f
000003f0: 7ab3 aa93 0160 d43f 2df5 2cb1 93a1 db3f
00000400: 3210 ae4a f62d e73f a086 0e01 f3ea f0bf
00000410: 1e5b 338f f836 e33f 1ace 801c 20b3 eabf
00000420: 7da1 5f75 99fa f3bf 16ea 9234 801d b03f
00000430: e113 345d 72fc dfbf 067f 3e9a 8efb f6bf
00000440: bd7e a59c 4ac1 e63f 4cb3 6985 5aa4 f3bf
00000450: 126c eec9 c647 f33f 6707 5604 0116 d03f
00000460: 0e07 a8a1 269f d7bf 9f5d 42a7 f6dc f13f
00000470: b674 cf47 0c68 b33f d640 f814 3bcc ea3f
00000480: e44b ec04 d8f6 f23f 79a6 9b6b 93ef e2bf
00000490: 0b47 477d 769d e8bf 5404 f2c8 7fe7 f13f
000004a0: 4966 3a40 302b e03f a464 5141 a630 c3bf
000004b0: 2248 7b04 353d e43f 7560 a44f 02a3 d23f
000004c0: de5f 55aa 6467 dc3f 1831 ef6a b3b3 e93f
000004d0: 19d9 9d5c d56e d4bf cf4e 7a22 8816 ed3f
000004e0: e3d8 a9e8 da35 f03f 23d8 029a ca68 b3bf
000004f0: 9ada 95dc b13a f23f e54b 13d8 c99f c13f
00000500: fd03 3ae4 19a0 df3f 74e0 d78b 7d03 dabf
00000510: 2a5a 4ceb a363 e8bf 1198 9584 f464 e13f
00000520: 1b97 8842 2b62 efbf 0d8f 4e6c b3c6 e7bf
00000530: 8b40 cbad 638d b73f 19aa 279d fe71 ebbf
00000540: 1be2 2d1a d231 f33f 599f 59e2 7c7e e13f
00000550: fc7a 34ba 09bd bebf 7ddd 8fd4 b7fa e43f
00000560: 57b2 f5b3 eb56 cfbf f6bd 8556 ff4e d23f
00000570: c127 b82f d81e d63f 1a52 9b44 caa5 b9bf
00000580: 9665 99a0 dce8 f0bf f317 032c ced7 e43f
00000590: 2a98 37c2 0606 b1bf 88e5 0f85 4f31 d83f
000005a0: 11be 8215 b120 e03f f99f e5b5 daee e23f
000005b0: f7c5 f77b 03fe d9bf 11a7 1a7e 8bf8 e23f
000005c0: f8ea d06c e3c0 e8bf c589 fceb 2dc4 e73f
000005d0: d546 9d18 516e 89bf 1b39 bac2 9a04 a03f
000005e0: 9690 6917 a3d6 f6bf 3332 a36f 5bf3 f1bf
000005f0: 2fca 02c2 6b00 fe3f 78f6 f266 9672 e0bf
00000600: d137 449c 5af0 f7bf 01c2 8d8f 96e0 efbf
00000610: 9ff8 5cc8 e3bc d63f b528 c15d 9b60 d3bf
00000620: a829 8cd6 244b ddbf 7d58 38c5 bdd8 ebbf
00000630: ae25 a7d3 3c76 cc3f 7606 8ffe 8669 e63f
00000640: 0bcd f5b3 5814 dfbf 1237 d7b2 a388 e83f
00000650: 4fb2 d25d f667 e23f 4ec9 1683 99a2 f73f
00000660: fa69 37f2 86f5 ac3f e79c fde8 3f88 f7bf
00000670: 9eea c577 a38f e8bf 88ae acf9 6940 d93f
00000680: a7b0 be06 0b5d eb3f 43d7 7bc5 ad2f c9bf
00000690: 021f 100c 83f6 f63f 6eea b3f8 d568 dd3f
000006a0: 1e22 8db8 c5f2 c33f 28bf 540a 89ae c03f
000006b0: c9ed 468f c031 f0bf 6349 189f 341b c83f
000006c0: d197 346e 696a fa3f ac94 6f51 1ec4 e33f
000006d0: 4a84 3c0f 54e5 e73f 8e11 a76d bbb3 ebbf
000006e0: 9226 d459 736b d13f 5d12 dc95 8f43 e0bf
000006f0: 5b31 ba6a 14a1 eebf f4bd 245a 87df ac3f
00000700: d201 b046 60a0 e4bf 1068 19c0 f288 f1bf
00000710: 87a7 608a f327 f83f 6717 0401 362b 00c0
00000720: 37fe 6f9d ab84 ec3f ab2d 03db daab f13f
00000730: 2fd5 8243 1684 cfbf ba5c e06b 4c98 e23f
00000740: eeee 580f 94ba ce3f 477d 13ad 69bc f63f
00000750: 619e 9c58 2ef1 b3bf d369 310d 8ed1 efbf
00000760: 85b6 cb5d 8b76 e7bf 5e1b 49d8 e171 f33f
00000770: 9ccb b22a 663a c73f fde4 520e ea69 e2bf
00000780: d735 8c92 2043 f23f 9537 dfff 1104 e03f
00000790: 9785 7885 c47d e33f df94 5b7a 1e7c b5bf
000007a0: 9add 81d0 7173 f1bf 1ede 38ab 2e38 cd3f
000007b0: 2b4b 83c0 3593 b83f c869 666e 2ca6 f1bf
000007c0: 576e cb1c f2a2 cebf 997b 61bb 7e63 bebf
000007d0: 9319 44ac 3f96 da3f 83da c35e 932f e5bf
000007e0: b011 e99f 3e7b e1bf fa05 91d8 7c8d b63f
000007f0: 4054 a493 518c cdbf 4c43 d448 8ac5 e6bf
0.20422886699059734 0.5526507010958466 0.29329786720308587 0.13013912070347503 -0.5635329878552181 -0.00986281634777634 1.1951729722027893 0.028047020932259754
0.5727156699643744 -0.09971990444558956 -0.15964665079948892 0.1537902042608908 -0.523062028233112 -0.029198587002309713 -0.037048732384354015 -0.46582589706466393
0.48754105499621603 -0.3838339410482177 0.7136011748027197 -0.07422990466909238 -0.31783869192402286 0.0578695365486833 -0.37099017624643554 0.5507362883979379
0.06642053444099826 -0.14463684414031516 -0.635046401147478 -0.03881799496125453 0.5442264425329038 0.46640005254861705 -0.4243285887405345 1.0436268901780863
0.7805804592826256 0.616912309238355 0.33813145261821775 0.26923707608570463 -0.3960852270581572 0.09298411047022595 0.36492896399824176 0.08781942314438551
-0.5204329126603765 -0.6556438191433012 -0.9383555850471637 0.5539312770334888 -1.001862478725101 -0.9708235881460786 -0.7006144372677965 -0.0024702766828270575
0.37855152508949924 0.7371012443728837 0.07249318843251415 0.4694188911084742 1.2320645684609652 0.0018231335898105537 0.4465469327993372 -0.42883889075910103
-1.0511132602250828 0.38825598929537775 0.034812065889147925 0.23105172697249993 -0.20594977631321043 0.5963178071449005 -0.745397760767244 1.532843913116205
0.023936806480669263 -0.08604176619083136 -0.2723776776071061 0.9640762443978538 -0.33270201434653424 -0.3277346712332547 1.3345174708480652 -0.5266643743757792
0.36502700501624646 -0.05385135299622515 -0.2901231951979367 -0.08264883714596612 0.35117820186017157 -1.0683469377119572 0.9180169643938115 0.054550442336906264
-0.4628792400539826 0.2275635753792419 -0.972508573561361 0.919421847267006 -0.9345937126788235 -0.048761142970601835 0.6259623692937984 0.698655096138198
-0.1800580102331398 -0.31702583875921564 0.13087052327693782 -0.32019409088265544 0.8876822390607281 0.6585429692344636 0.5507437092389836 -0.6923852161728001
-0.6046888377583649 1.4589068723410263 -0.7781108824020445 -0.6063132053193784 1.16756177120826 -0.6700494295354382 0.08003375278410559 -0.11494831615872478
0.2902515726614571 0.29215885331278657 0.43901074799070977 -0.460573104732586 -0.05351957886340631 -0.8025503255634222 0.9556241824208128 -0.17150988065291503
0.22439144133192246 1.952915676515135 0.9180784062900302 -1.2511538541422775 0.5444593496389212 0.8751653994171444 0.9047763563478184 -0.2844842741855738
1.2385251360219738 1.0153451550557788 0.9793884995899306 0.7184786022044507 -0.65155543009827 0.12226407328011167 0.3183597509440045 0.43173687269502886
0.7243606051056359 -1.0573606530455564 0.6004603192221543 -0.834365897817807 -1.2486815056709866 0.06295014651815509 -0.4997831258954744 -1.4364152932320748
0.7110951480389854 -1.2276253901902292 1.2050235641424973 0.25134301589434077 -0.36908880030397107 1.116446164471064 0.07580639603789305 0.8374305162015172
1.1852646057420708 -0.5917451001852917 -0.7692215391964238 1.1190183495930528 0.505272031255296 -0.14992216290810234 0.6324715697794583 0.29119928147839086
0.4438106215870884 0.8031861389695534 -0.3192647366007733 0.9090004609483574 1.013148220864928 -0.07581774005925061 1.139329778348531 0.13768885660701283
0.494146798017084 -0.4064630380303307 -0.7621631236714326 0.5435736264742009 -0.9807335185512075 -0.7430054774635849 0.09200118058220334 -0.8576653546745688
1.1996632597566819 0.5466904087925101 -0.12007199092884585 0.6556052352524798 -0.24484010970208445 0.286071619505463 0.3456325975427 -0.10018600630730426
-1.0568510316282747 0.651343427620985 -0.06649820558195133 0.37800968164773296 0.5039906902438266 0.5916570236850013 -0.406128760397308 0.5928399527522022
-0.7735459447206656 0.7426976784811862 -0.012417443813009946 0.031285129805029586 -1.427401629881421 -1.1219133721198318 1.87510276589877 -0.5139877329563225
-1.4961801628264662 -0.9961655429634108 0.35527891699519815 -0.3027714171954686 -0.45771141960053763 -0.8702076770739634 0.22235832533469363 0.7003817531442127
-0.48561685156092044 0.7666796200735198 0.5751907188874358 1.4771971817650242 0.05656072336906344 -1.4707640744398363 -0.7675340022390917 0.39455651647833934
0.8551077968345638 -0.1967675413395061 1.435183570023526 0.4595236710298768 0.1558463240746883 0.1303263950771847 -1.0121465298424133 0.1883302475767535
1.6509794526004848 0.61769023805086 0.7467441842637836 -0.8656899587299891 0.27218326351485544 -0.5082471777864829 -0.9571630558507808 0.05639288878807838
-0.6445771580329682 -1.0959346298100208 1.5097537427304546 -2.0210990981458283 0.8911951136541977 1.1044567637608036 -0.24621847435415975 0.5810911280595044
0.2400689196527916 1.4209992180620519 -0.07789888060926266 -0.9943304307628814 -0.733220751948196 1.2153032730727413 0.1814696987617851 -0.5754289893876884
1.1413884853858371 0.5004968640803208 0.6091024977542244 -0.0839251564717247 -1.0906847138229296 0.2282770477338411 0.09599624586125503 -1.103069716692163
-0.2393477097128762 -0.11870567393041966 0.4154204542432122 -0.6620575762634221 -0.5462945101976882 0.08809643065708164 -0.23084468564107574 -0.7116137907451985

bias_ih_l0 f8 [120]
00000000: 0c0a 6850 bfd7 e13f 4d32 2856 ef63 e03f
00000010: d2c0 04d6 452b 963f 2f49 c28f 7275 ca3f
00000020: 43fd 084c 85f1 fe3f 2487 32cd 3622 ed3f
00000030: 7e99 d863 9028 ea3f 9026 f356 3fd8 fa3f
00000040: b612 ef30 166f f83f 8b9c ceeb a913 f43f
00000050: 992b 63da ca6e f03f aa21 3b18 0dda c43f
00000060: cac2 1c14 0258 c23f 3ad0 935c 070a f33f
00000070: 5f62 98e4 7898 c5bf 1e08 3fc0 4ffe f23f
00000080: 8310 1160 7e72 f73f ea10 3859 28d2 de3f
00000090: a070 ea67 eab4 d83f 76a2 3148 551e f43f
000000a0: 69d9 33a0 7993 f83f 5243 e860 146b f33f
000000b0: 7254 06d5 fc41 f03f b1cd afbe d31f c3bf
000000c0: b97c feb4 aae4 ea3f 23a9 761c a46e d43f
000000d0: 5eb0 c56e 88b7 ea3f ff52 b969 dca8 b23f
000000e0: fdbc f858 84d3 e83f 3921 f3c4 7247 eb3f
000000f0: c63f 14ee beb0 f03f 5c71 1b12 32ca bb3f
00000100: b5cb a0a0 cee8 f6bf 6715 96d8 2e91 f3bf
00000110: a213 7eb3 4d9a d0bf 66f2 7634 c9dc fabf
00000120: 3476 8846 c704 f6bf 7267 9683 8a25 ebbf
00000130: a4bb efcc 7f85 f2bf b54d a200 22be f2bf
00000140: c33e d9fd c7af f1bf 7ef2 16c4 509d c5bf
00000150: 34e8 2028 3045 d5bf ac14 447d 39bc f2bf
00000160: 20bc 65ff 54fb dcbf 6d0f 2901 7c75 ea3f
00000170: ab9e 99a9 26ba f2bf 2478 dbf2 0acb e83f
00000180: 6523 bcf0 c62c eb3f 8350 2dff 18a1 ecbf
00000190: 6dfb 9c6b 2bc3 eabf 1e06 7caf 25d2 f2bf
000001a0: f7b6 8458 b459 eabf 9b81 3308 7b45 b13f
000001b0: b4ba f9ef aeb8 d8bf a9e3 0e2a 0586 dabf
000001c0: 1f97 de1d b4d8 e9bf a48e 4adf 9788 c13f
000001d0: b993 cc2f 6903 e2bf efde 17c8 9408 e4bf
000001e0: ea9e 1ea3 0e08 e43f ef30 e079 8c7e db3f
000001f0: 4372 b560 a24f be3f 68be b402 187f d23f
00000200: 8242 9496 a482 e6bf fc7a 5d71 4e1e 8fbf
00000210: 8657 9306 889f d03f 1d0c 1c05 c148 613f
00000220: 01ed 42b5 3985 d53f 3d0c eaec c6d0 b1bf
00000230: 7e9f bc54 5fc1 c93f cada 1e73 7132 eabf
00000240: e4b3 71a3 4fc7 e5bf 8daf 9b58 6444 d0bf
00000250: a87b 41d9 be4d d53f bcb7 52ea d315 ebbf
00000260: d8df b061 5466 e63f fd7d 775f 24de e1bf
00000270: 550b 598a 5e0c ed3f 8a25 9ecf 67f4 893f
00000280: b6a7 91e8 0b89 d13f adf0 f9c2 abea ac3f
00000290: 0a87 ce6b 0d04 efbf 8cef 0a56 ca7e e03f
000002a0: 5e9d b2e7 a450 eb3f 8eec 6ca9 32f4 b3bf
000002b0: e8d3 742a 164d 45bf 250e cc01 1dcb df3f
000002c0: 8d7a 531a b5ed e6bf 08f7 a5e7 1176 cabf
000002d0: 718e c422 1cbe c9bf 0374 4896 97d5 e03f
000002e0: b0de 0289 1d69 c3bf 1bc1 d80e e7ec e63f
000002f0: c820 6320 08e8 f53f 91a2 14b5 03e4 f83f
00000300: 215e fa02 1826 e53f dcd2 4772 83f0 fa3f
00000310: ec96 be7f cbe9 f23f 667e 94a9 9cf2 f73f
00000320: 85ea 09ab 6d6c f33f 20b2 71af 425d c3bf
00000330: c287 8c68 b2e7 ee3f 92a9 509f 8503 d23f
00000340: 46d7 ecda 9b4b bebf ef1a 1d91 bb1d c83f
00000350: b79f 19cc 0685 fa3f 9b53 14aa aebf aabf
00000360: 9361 ed30 be33 e3bf 8082 b03d 8ca4 f13f
00000370: 81c9 933e 5e30 f73f 933b 2c33 0641 f43f
00000380: 1e25 e957 4595 dd3f 740d 6636 6dd6 b8bf
00000390: 31e6 5d92 ded0 ea3f 792e 5ea0 ddcb e03f
000003a0: 7ead 0444 de8c a73f 5674 48b4 ff2f ca3f
000003b0: 81b5 5207 0a6f dc3f e1c1 3428 d035 ec3f
0.5575863428533139 0.5121990854982613 0.02164944762006444 0.20670921344260182 1.9339650125619563 0.9104265220414374 0.8174516630286204 1.6777947803952067
1.5271207725028666 1.2548007212842858 1.027048924518317 0.16290439303544463 0.1433107946591206 1.1899484268478902 -0.16871558343770496 1.1870877751939655
1.465452552090057 0.4815770026473404 0.3860422148516225 1.2574055500100747 1.536004663268239 1.2136424813690678 1.0161102601316796 -0.14940878687739947
0.8404134306946595 0.3192529943431898 0.8349039233703583 0.07288911420011955 0.7758199441649648 0.8524717184709864 1.0431508350338716 0.10855400983877445
-1.4318376802955133 -1.222945066490263 -0.259417939458496 -1.678902821483598 -1.3761666064450653 -0.8483326501911803 -1.1575925832109784 -1.1714191460385852
-1.1054153362237435 -0.16886338782014215 -0.332347907245665 -1.1709532635880278 -0.45284008923676033 0.826841356531515 -1.1704470276835461 0.7747854941660575
0.849215955911046 -0.8946652397085163 -0.836324415380529 -1.1763054709302945 -0.8234502533793763 0.0674664397261097 -0.38627217707736894 -0.4144299422001106
-0.8077030738247436 0.13698099520580798 -0.5629163678719272 -0.6260475071021271 0.6259835420541695 0.4295989217942084 0.11840262280515738 0.2890071894098356
-0.7034476223944497 -0.015194523653631269 0.2597370208944699 0.0021098871155813674 0.3362564344531194 -0.06959193500556267 0.20121375691928373 -0.8186576126525662
-0.6805799667614534 -0.25417431500567816 0.33287020889650387 -0.8464145256636963 0.6999914081597991 -0.5583669533334042 0.907759924135784 0.012673197768679829
0.27398965560734767 0.05647789721567285 -0.9692446809387729 0.5154773407480078 0.8535942578645679 -0.07794491421093339 -0.000650058577696397 0.4967720525312152
-0.7165170206242962 -0.20672820864631825 -0.20111419389387522 0.5260732588973273 -0.1516453665733386 0.7164187707876722 1.3691483750463238 1.5556675981007724
0.6609001215137519 1.6837191070637152 1.1820788373965412 1.4967314361782882 1.2139717751694274 -0.1512835842762721 0.9657833139392482 0.2814649635135079
-0.11834119887211356 0.18840736947659972 1.657477185502996 -0.05224366975941238 -0.6000662761317009 1.1026728067155602 1.4493086285043264 1.2658750533043743
0.46223577103644853 -0.09702189043132653 0.8379967554785194 0.5248859531579476 0.045996614268314126 0.20458980849153602 0.4442772933496926 0.8815689835810724

bias_hh_l0 f8 [120]
00000000: 0d0a 6848 c4fb e03f 4832 2846 3f78 e13f
00000010: 3740 fb29 c438 91bf 2f93 84df 8479 b23f
00000020: 4efd 0874 4cba fd3f ac43 994a 3aed f13f
00000030: 6399 d8f3 4a87 e83f 8e26 f352 ef40 fa3f
00000040: b712 ef52 b114 f73f 929c cead 50ee f73f
00000050: 2d57 c60c 9562 e53f bc21 3b48 2fc5 c73f
00000060: bfc2 1c34 15e8 cc3f 2dd0 937c 6b5f f03f
00000070: 1a31 4c22 0c9d d4bf 2208 3f02 afc1 f13f
00000080: 6c10 1168 3068 f93f e810 3849 fac1 de3f
00000090: 8c70 eaf7 ae01 d23f 78a2 3104 9144 f43f
000000a0: 6fd9 33b0 af12 f93f 5343 e8d0 c97a f43f
000000b0: 01a9 0c02 0dcf ee3f 329b 5ffd e30b b0bf
000000c0: ab7c febc 1150 ee3f 0fa9 76ec 9e30 dd3f
000000d0: 52b0 c5a6 7610 ed3f 0a53 b929 e4b1 b83f
000000e0: d1bc f828 abb9 e63f 4321 f31c fa7e e53f
000000f0: bf3f 1432 c3e9 f13f fd47 f236 f65a c6bf
00000100: b1cb a07c 3df9 f3bf 6215 96ca ac15 f4bf
00000110: a013 7ea3 aa0e dbbf 62f2 7614 bc92 fbbf
00000120: 2e76 8892 fef4 f4bf 8767 9633 8181 e4bf
00000130: a7bb ef64 4e1c f2bf ba4d a284 997a f5bf
00000140: d23e d949 1a1d f4bf 191b d2d7 5101 b13f
00000150: dccf 41d0 0bf7 c8bf a614 4435 5f2c f2bf
00000160: 6478 cb3e def4 c3bf a887 94f4 48b0 f03f
00000170: 1b3d 33f3 43ff edbf 2278 db12 a4f7 e73f
00000180: c411 5edc 2c8c f03f 8650 2d27 f3fa edbf
00000190: 6cfb 9c0b 856a e6bf 1506 7c79 bf70 f4bf
000001a0: fdb6 8420 35a4 e9bf a9f7 31df 3525 9ebf
000001b0: b1ba f917 812a d5bf c1e3 0e8a 1779 ddbf
000001c0: 2697 dee1 6721 e6bf 3747 a5e7 afae d13f
000001d0: b793 ccdf 3edb e4bf e8de 17d0 a11a e9bf
000001e0: e89e 1e3b 6920 e33f 7a18 f07c 54a4 e13f
000001f0: bb8c 4adf 8786 b0bf 60be b4c2 15a9 d23f
00000200: 6542 946e 3a61 e3bf 4128 ea28 d3b9 c63f
00000210: 8257 93f6 2cb1 d63f d28f ebbb 0ca2 c0bf
00000220: e4d9 852a 0c95 c63f 1206 7546 f038 c2bf
00000230: de81 0dad 1354 a0bf d6da 1ed7 747c e8bf
00000240: e6b3 71b3 2ca5 e9bf 9aaf 9bf8 0b72 d3bf
00000250: a77b 4149 ca14 d83f c65b 293b 67af f0bf
00000260: dddf b041 ee91 e43f fcfb ee7e 7aa3 d9bf
00000270: 5a0b 599a 437b e93f 72d9 0e83 a1fb 57bf
00000280: 479f 46c2 1366 b33f 1c0f 063d 5ae4 abbf
00000290: 2087 ce8b e50d eebf 91ef 0a96 d469 e23f
000002a0: 5a9d b217 b35d eb3f 7426 26ad bfc1 af3f
000002b0: 6c8b d529 6c8e c93f 0f07 e630 b395 e03f
000002c0: 8b7a 53ba a9ba ebbf e3dc 979e c778 aabf
000002d0: 2d8e c462 25de cfbf 0474 48ee 7208 e43f
000002e0: a7de 0249 db23 c4bf 0bc1 d8be 807c e33f
000002f0: cf20 6358 18eb f13f 8fa2 1443 b543 f73f
00000300: 285e fa5a ca87 ee3f ddd2 4782 28c1 f73f
00000310: e096 beab a7d7 f13f 647e 94a1 4b24 f63f
00000320: 84ea 0903 5f77 f23f 7491 8d7b a159 93bf
00000330: af87 8c30 e8c1 e73f 0b53 a17e 7bcf cf3f
00000340: 886b 76ad 5c30 c9bf 81ca c59d 3a9d b2bf
00000350: b69f 19c4 9d32 fc3f 76a6 2854 f0cc 93bf
00000360: 8d61 edb8 2483 e2bf 8682 b059 3644 f53f
00000370: 7cc9 935e a86c f73f 933b 2cdf 1df1 f43f
00000380: 0825 e9b7 a8db d43f 7583 99e5 84b9 d3bf
00000390: 29e6 5db2 bd1d eb3f 792e 5ed0 c490 e03f
000003a0: c995 8050 cc5b d03f 4e74 4874 87c1 ce3f
000003b0: 84b5 52e7 ea42 dc3f e4c1 34d8 7111 eb3f
0.5307332433879438 0.5459286089185946 -0.01681810861811092 0.07216673333148259 1.8579830677625355 1.1204169191371234 0.7665152323359447 1.6408532371737325
1.44255192180678 1.4956824101771287 0.6682839631564313 0.18570509936240664 0.22583260578678296 1.0232958666138174 -0.3220854124963509 1.1097860419981846
1.5879367890456946 0.4805894579915404 0.28135275087857603 1.2667398608993192 1.567062080660971 1.279977623027851 0.9627747573879618 -0.06268143592715772
0.947274083260614 0.4560925778593096 0.9082597024221377 0.09646440523767921 0.7101646232821627 0.671750122587618 1.119570918675876 -0.17465093310289595
-1.2483496540341827 -1.255291739800065 -0.42277017561019115 -1.7233238982581942 -1.309813091654529 -0.6408086783951469 -1.131910700114284 -1.342431562520558
-1.2571051487647549 0.06642638701496785 -0.19503925007631906 -1.1358329849911484 -0.15591028276589036 1.0430383256830087 -0.9374103307726814 0.7489796036059071
1.0342224701026774 -0.9368835225273109 -0.7005028940983329 -1.277526354359343 -0.8012948641896568 -0.02943882155204106 -0.3307192548881331 -0.4605158661102529
-0.691577855254512 0.27628705617563604 -0.6517633791996705 -0.7845009865113441 0.5977064280204702 0.5513098182862131 -0.0645527763504558 0.2915701295305322
-0.605618682837371 0.17754592416560125 0.35456394271511027 -0.12994536567486975 0.17642356945334747 -0.1423626274136472 -0.03189145553074345 -0.7651924325535571
-0.8014129166382389 -0.3038358619512508 0.3762689319027523 -1.0428230582235627 0.6428138049150182 -0.40060293575146466 0.7962968840223354 -0.0014638020768252516
0.0757763242060011 -0.05447656626622985 -0.939196370182092 0.5754187517663799 0.8551879370542494 0.06202506054530668 0.19965889017756966 0.5182739214944564
-0.8665360106641214 -0.051702726468585224 -0.24896685907980168 0.626031365772747 -0.1573442560672806 0.6089481093859218 1.1198962643266446 1.4540302868209982
0.954075982753186 1.4846577729305672 1.115150137783921 1.3838611900063365 1.1541433447552274 -0.018896601835324003 0.7424202869626607 0.2485193603812593
-0.19678839177944618 -0.07271162368651042 1.7623574886474507 -0.019336466919560334 -0.5785087215290773 1.329153395032479 1.464027757113029 1.308866378563583
0.3259069248202455 -0.30819818899003987 0.8473804935194426 0.5176719731984597 0.25560291158248255 0.24028103998071731 0.44158432569641826 0.8458794806265897
