TRAINED/xml_train.pt (torch, 342407 bytes, 19 tensors)

weight f8 [90, 20]
000000 80 6b 28 39 0d 5a f3 bf 04 05 28 df aa a6 fd bf
       -1.2094852669458476 -1.8531902997058873
000010 5b 16 2c 00 a5 0a d6 bf 25 10 1e 3a ae 4c d9 3f
       -0.3443996907884405 0.3953052108338418
000020 c6 7e 9d 9d 44 13 f2 3f f0 06 e0 1d 47 04 e8 3f
       1.1297041088909494 0.7505221923349534
000030 c2 d5 54 78 6e bf c7 3f 97 43 ef 9c 4b 79 02 c0
       0.185529526477394 -2.3092262516515336
000040 58 4a 08 b7 78 68 dc 3f 07 56 dd 1c 8b 32 e8 bf
       0.44387643694168366 -0.7561698497544861
000050 84 82 5a 9e 37 87 d4 bf ad ed 44 40 bc bb cd bf
       -0.3207530065938402 -0.232291728383513
000060 21 d8 7b 65 ea 1a de 3f a6 25 46 e8 0c cc fc 3f
       0.47039279852413257 1.7998169968799203
000070 7f 0b 14 25 6c 20 e6 3f d0 ea 6c 34 de 53 cd 3f
       0.6914578174768023 0.2291219478591615
000080 a9 6d 90 20 00 30 fb bf 4f 3d 74 c6 b9 bc 02 c0
       -1.6992188713109988 -2.342151213095043
000090 38 56 76 3c 53 5c f3 3f 06 5c c0 65 88 bd f2 3f
       1.2100403177077066 1.17127265688555
0000a0 9f 63 e4 a8 c7 2a f0 3f ea d9 68 b8 6c 0d ff bf
       1.0104443166112345 -1.940777511930373
0000b0 0f 3f 4b 32 78 62 b2 3f 2b d6 2a ff 10 ee 02 40
       0.07181502559546636 2.366243356222886
0000c0 22 4e fa bd bb ad f0 3f e7 65 b4 c9 db 8a f1 bf
       1.0424153729444545 -1.0964010123337802
0000d0 07 40 bf ec 19 95 d1 bf b6 b3 63 d6 f7 8a d8 3f
       -0.274725419233619 0.3834819406172828
0000e0 b3 65 d5 c2 d4 ee fa 3f 28 3a 6a 71 51 44 ff 3f
       1.683308373516735 1.9541792326232414
0000f0 75 c0 e1 b4 83 31 f3 3f 8b a0 8f 29 ba 9d f2 bf
       1.1995884957978238 -1.1635076163748035
000100 8b ec 04 8c 7d 71 ea bf 21 cb ce 23 84 5e ce 3f
       -0.8263538107634231 0.2372594046442709
000110 8d 6b bf ea e5 34 eb bf d2 3b b0 c9 1d 29 d5 3f
       -0.8502072892109581 0.3306345433820158
000120 ba b9 a9 7b 60 91 ec 3f db 1e 57 57 9e 85 d0 bf
       0.8927462020199564 -0.2581554272587547
000130 27 1a 73 aa 68 ed ee 3f 3e 86 cd 88 90 e5 e1 3f
       0.9664805726141069 0.5592730209284082
000140 96 49 63 5f 95 70 c1 bf ef 9e e6 6e 7d ac da 3f
       -0.13624827535256817 0.4167779524818646
000150 7c 55 08 7b 0d 1c e2 bf 2a f8 d4 6e 1c e9 c6 3f
       -0.5659243967990473 0.1789889851733631
000160 2b af 25 15 63 b6 e6 3f ca 82 f8 b0 95 01 01 40
       0.7097640431433992 2.125773794731093
000170 44 81 ae b2 fa 25 fc bf b2 29 d6 43 54 78 fd bf
       -1.7592722873451558 -1.841877236353508
000180 4e 8b 0a 03 9a 91 d6 bf e0 10 41 86 b5 47 ef 3f
       -0.3526368169497588 0.9775035497810016
000190 d8 67 4b b9 53 14 f6 3f 13 4d 54 86 b5 d1 b3 bf
       1.3799626577442634 -0.07741865663074447
0001a0 88 58 92 70 c2 9d a6 bf 4b 1d 86 cb 39 b7 d3 bf
       -0.044172359697015884 -0.3080582129991469
0001b0 61 a6 54 16 7a 17 c3 3f d8 7d 8c f6 68 34 e9 bf
       0.14915395822872582 -0.7876477065473706
0001c0 57 2a 93 b8 8a 68 cc bf f4 fc 0b 68 9b fc e5 3f
       -0.22194036495632716 0.6870858223118419
0001d0 b2 71 41 a2 97 61 fa 3f 50 a9 52 9b e4 05 0c 40
       1.648826249896143 3.5028774389840365
0001e0 cb 89 de 52 48 9a fa bf bc 6a 10 1a 66 a4 f1 bf
       -1.6626666295129435 -1.102636434376719
0001f0 cc d0 a6 9f 31 38 ff 3f 87 fd b0 3c 5e db e5 bf
       1.951219199790148 -0.6830283341768543
000200 48 7b af 66 88 6c e6 bf 7b c2 24 c9 c3 d2 f0 3f
       -0.7007486348701173 1.051456247059973
000210 70 b3 59 9b 6b e0 f3 3f c8 15 2a 64 b4 88 f2 3f
       1.242290121877172 1.1583751595184015
000220 f7 01 77 1c 3a c1 f9 bf e1 5c b2 d2 63 7c 03 40
       -1.6096745597752695 2.4357372723276147
000230 9f b2 09 49 6c dd d5 bf 6f 66 b1 01 2b e4 dd 3f
       -0.3416395867596211 0.46705126920060186
000240 f8 d0 47 80 1a f7 f7 bf a0 2c d4 1a bb cc e5 bf
       -1.4978280077894492 -0.6812415622711292
000250 66 2a 55 9c 16 4b d6 bf 4b fe 87 21 a3 32 e4 bf
       -0.3483330275236426 -0.6311813025385588
000260 c6 19 ab 60 7e ef ed bf 74 47 09 ec 6a f1 f3 3f
       -0.9354850662282892 1.2464398594060784
000270 74 bc 09 6c 7a d0 82 bf 11 8f f4 b2 f7 fd ed 3f
       -0.009186703130778386 0.9372519011708126
000280 dd 88 1c 8a 22 9f d8 bf 6f d8 5d c5 78 84 eb 3f
       -0.3847128247017631 0.8599208693328942
000290 ea 85 87 db 99 c8 f5 bf dc e3 56 76 97 4a b8 bf
       -1.3614748549811062 -0.0948881782450281
0002a0 14 53 b6 d4 ce 27 ee 3f 62 62 a0 74 6a b0 b6 bf
       0.942359366849447 -0.08862939212156953
0002b0 e4 75 fe 49 d7 6b f7 3f c7 de d0 e7 96 a4 e5 3f
       1.463828362502107 0.6763414886144908
0002c0 ad ed 29 43 c6 78 70 3f 66 2b c4 35 93 fb 06 40
       0.0040214295028095206 2.8728393745890797
0002d0 8b a8 6e a5 99 db 01 c0 b2 2b 2a aa e6 b5 81 3f
       -2.2322266506572013 0.008647729938521784
0002e0 9d 6e 3d 3a 86 ab e1 bf 96 05 4e 59 38 8a f0 bf
       -0.5521880280970951 -1.0337451446979222
0002f0 19 ea 46 5e 55 67 b7 bf 39 59 33 62 e6 3d e7 3f
       -0.09142049361882022 0.726306144521721
000300 31 7e a6 5d 14 c6 f5 3f ec 3f 87 45 1d d7 f8 bf
       1.360859266111117 -1.5525181499433485
000310 1f c7 c4 81 40 dc e3 3f e4 fc 3a a7 62 51 e7 3f
       0.6206362280410963 0.728684736844937
000320 a3 1a 02 81 96 20 07 c0 32 03 1c e9 80 18 00 c0
       -2.890912063481055 -2.0119646274255496
000330 06 83 35 36 93 e6 bc bf e5 5b 55 fd 12 6d e4 3f
       -0.11289329598868045 0.6383147190016386
000340 50 21 93 87 08 86 ec 3f 18 1e b9 84 11 89 b8 3f
       0.8913614890998733 0.09584149828253208
000350 21 af bb ca 62 d3 c2 3f 91 10 da 43 64 e2 e0 3f
       0.1470759858997264 0.5276357007246749
000360 63 e4 41 14 01 8b ef 3f 43 55 bf a7 fe cd f5 bf
       0.9857182880069896 -1.3627916863091094
000370 9d 16 fa 85 4d 41 ec 3f 3f b3 c7 be 66 20 f5 bf
       0.8829715363251186 -1.3204104854914502
000380 9c 67 44 b2 aa 57 d8 bf 23 18 6e b5 3c 9f 03 c0
       -0.3803507557764705 -2.452752511427222
000390 92 ce 7e b6 e8 c0 d5 bf dd 53 21 70 dd 81 da 3f
       -0.339899233072381 0.41417633009160487
0003a0 4e be 4a 3e a5 00 ea 3f 8b dc 34 3c 20 3c d0 bf
       0.8125787941589324 -0.25366979484119473
0003b0 f3 93 0b fa e4 71 e2 bf e0 b6 ed fd 5f e8 b0 3f
       -0.5764031299300981 0.06604576062610645
0003c0 00 00 00 60 25 ed e3 bf 00 00 00 c0 9f ad dd bf
       -0.6226984858512878 -0.4637221693992615
0003d0 00 00 00 e0 9e bf fe 3f 00 00 00 60 4e c3 d9 bf
       1.921782374382019 -0.4025455415248871
0003e0 00 00 00 a0 12 b8 bf 3f 00 00 00 00 f4 a2 f2 3f
       0.12390247732400894 1.1647834777832031
0003f0 00 00 00 a0 46 8c ed 3f 00 00 00 80 5c 32 f6 3f
       0.9233735203742981 1.3872952461242676
000400 00 00 00 40 9d 44 ec bf 00 00 00 80 7a cf da bf
       -0.8833757638931274 -0.41891348361968994
000410 00 00 00 80 23 c1 e9 bf 00 00 00 60 79 19 e2 3f
       -0.8048264980316162 0.5656096339225769
000420 00 00 00 60 1b 88 e3 3f 00 00 00 80 6b e1 dd 3f
       0.6103646159172058 0.4668835401535034
000430 00 00 00 40 e4 35 ff 3f 00 00 00 a0 73 02 f1 bf
       1.9506571292877197 -1.0630985498428345
000440 00 00 00 e0 9e cb b3 bf 00 00 00 40 4d cc bd 3f
       -0.07732575386762619 0.1163986474275589
000450 00 00 00 00 f9 01 e3 bf 00 00 00 40 21 e7 f3 bf
       -0.5939908027648926 -1.2439281940460205
000460 fb c8 4c 01 14 4d c5 3f f6 65 0e 2c e1 0c f7 bf
       0.16641473830674855 -1.4406444283434872
000470 53 08 d6 b1 41 f8 ee bf b1 d0 c3 55 53 89 d6 bf
       -0.9678047631607661 -0.3521316850231058
000480 7b 1c d3 08 21 e5 e5 3f 48 79 d4 1e 33 ce c2 bf
       0.6842198536259184 -0.14691771512384322
000490 8d ba a6 fe 25 89 d7 3f a1 6f 4b 35 d7 37 f0 3f
       0.36774587505616624 1.0136329728911522
0004a0 cb 81 4a 4e 72 4a f0 3f 36 92 f6 7b e1 50 e4 3f
       1.0181754167789332 0.6348731442599902
0004b0 de 8b e8 8f f2 88 d2 bf ef 08 19 fc 31 79 d1 bf
       -0.28960861257126946 -0.2730221712009912
0004c0 4c 30 a6 79 7a 59 81 3f 5f 55 1c 4e d8 40 f4 bf
       0.008471447789610086 -1.2658312846372934
0004d0 3a d7 b0 9e 92 8d 07 c0 97 e6 c7 37 1a a1 dc bf
       -2.9441273114888675 -0.4473329109892829
0004e0 b6 85 90 98 49 bb dd bf 6a ce 80 7b 0b 4d d3 3f
       -0.46455612086182485 0.3015774446568914
0004f0 fe c1 82 a6 b8 30 c3 bf b4 40 68 a0 23 61 87 3f
       -0.14992435579689806 0.011415747006168743
000500 00 00 00 80 db f2 ee 3f 00 00 00 20 f3 b6 ef bf
       0.9671456813812256 -0.9910827279090881
000510 00 00 00 e0 80 4d d3 3f 00 00 00 40 1f 79 bb bf
       0.3016054332256317 -0.10731692612171173
000520 00 00 00 40 5b f3 ef 3f 00 00 00 60 f1 ea df bf
       0.998456597328186 -0.49871477484703064
000530 00 00 00 40 05 5b e8 3f 00 00 00 e0 1e c9 e3 3f
       0.7611109018325806 0.6183008551597595
000540 00 00 00 20 5f 19 d4 3f 00 00 00 e0 7e 4e cb 3f
       0.31404855847358704 0.21333299577236176
000550 00 00 00 c0 a6 bb be bf 00 00 00 a0 c5 11 d7 3f
       -0.1200508326292038 0.36045971512794495
000560 00 00 00 40 26 19 d4 bf 00 00 00 60 63 42 f1 bf
       -0.31403499841690063 -1.0787080526351929
000570 00 00 00 00 e1 d2 ce 3f 00 00 00 60 f2 56 f6 bf
       0.24081051349639893 -1.396227240562439
000580 00 00 00 00 d1 ee b0 bf 00 00 00 20 4a ef d6 bf
       -0.06614404916763306 -0.3583550751209259
000590 00 00 00 20 28 fc f8 bf 00 00 00 c0 79 b2 d6 bf
       -1.5615617036819458 -0.3546432852745056
0005a0 39 69 8f c7 6c b6 f7 3f aa 36 87 2b 25 6f d1 bf
       1.4820373339958464 -0.27240876436995143
0005b0 9f 49 44 91 f2 31 f4 3f 4e e2 7d e9 06 35 df 3f
       1.2621942209703787 0.48761151124884783
0005c0 ff 9d 4a 9b 91 35 ec bf 94 0a d9 74 48 b0 e9 bf
       -0.881539157203349 -0.8027689249214114
0005d0 5e d1 06 dd 26 95 f9 3f 71 c2 af 60 dd 99 d2 bf
       1.598914016137392 -0.2906411594586081
0005e0 7a 02 c2 cd 94 d8 e7 3f 75 52 c7 66 dd 57 f4 bf
       0.7451881426532758 -1.2714513792790545
0005f0 32 9a a3 cc 98 b2 f2 bf d8 0c 65 7f ae 3c f7 bf
       -1.1686027520860418 -1.4523148514133961
000600 ae 6e 69 ae 81 e8 e5 bf 57 1d 7a db e0 f6 e4 3f
       -0.6846321493607854 0.6551365172062259
000610 65 70 2a 5b 0f 9b c2 3f 5e ad 80 7f 40 f5 a0 3f
       0.14535705520109157 0.03312112385205056
000620 3e 48 d2 39 04 91 e9 3f 7b 56 1c 17 2a 40 e5 3f
       0.7989522103619107 0.6640825702076677
000630 52 d6 2d 27 1f c3 b3 3f e2 e4 28 96 80 d2 f2 3f
       0.07719607073325932 1.1763921609511319
000640 aa 31 fc 56 4f ec be bf a5 d2 18 bf 3d ab f3 bf
       -0.12079330323849172 -1.2293069328999675
000650 41 61 53 4b 3e 3b 99 3f b7 4f 6e 0a c2 dc e1 3f
       0.024640057895198856 0.5581979945877639
000660 6c 4f f8 e3 16 41 e7 3f 7f fd 44 78 8d 52 f2 bf
       0.7266954853571241 -1.145154447367389
000670 73 d6 b6 63 fe 1c e9 3f 9e 42 72 10 f9 95 ea bf
       0.7847892711203727 -0.8308072396485675
000680 89 d5 92 a0 e0 f6 f5 3f 88 3f d0 8d 82 6b d1 3f
       1.3727728149800404 0.27218688820811865
000690 57 0d 47 6d 96 a8 ea 3f 9d 05 20 31 cd a9 e9 3f
       0.8330795416190239 0.8019777259325341
0006a0 10 35 40 b8 24 5b f9 bf 21 5f bb 48 81 47 f7 3f
       -1.5847518155381444 1.4549572793093335
0006b0 c9 6c 01 b0 db 95 e9 bf 88 74 19 a1 57 a5 f2 bf
       -0.7995432317360606 -1.1653667729326873
0006c0 e3 e1 df 7f 48 ea e9 3f f0 c1 97 96 42 a3 ec 3f
       0.8098490235852832 0.8949292126908954
0006d0 7a f6 24 18 ab b0 e4 bf f6 c7 72 37 30 c2 90 3f
       -0.6465659591264761 0.016365769752788105
0006e0 41 49 31 08 cd 45 dc 3f 28 a7 92 18 8f b8 a4 3f
       0.4417603092198484 0.04047057318650921
0006f0 1d f4 ae 07 a9 3f fc bf 60 32 d7 c1 7d c4 d2 bf
       -1.7655420589574142 -0.2932428734755259
000700 52 17 b3 a6 50 a0 ce 3f e9 98 7d 0e db 45 fd 3f
       0.23926742686870256 1.8295546117820385
000710 26 81 15 a1 5b 14 c8 bf 37 ec 71 8e ec e8 cb 3f
       -0.1881212746184328 0.218045777848461
000720 28 d8 13 06 c0 06 b0 3f 14 e4 75 8a 6f 33 e1 3f
       0.06260299824120408 0.5375287727648606
000730 27 c1 3b 47 a8 e5 d2 bf 14 c2 14 af 7b 02 fa bf
       -0.29526717144382747 -1.6256062354187906
000740 7a 3e e8 96 f5 bf cc bf 9b 97 f5 96 13 89 c9 bf
       -0.2246081339694575 -0.1994957434755492
000750 1c f3 20 d3 dc 05 f1 bf 94 96 c8 a1 2c 20 f4 3f
       -1.0639312979903428 1.2578550643606023
000760 33 8a 00 26 9f e0 f4 bf 3c 9f ba 93 c3 46 df 3f
       -1.3048392757851957 0.4886940901437702
000770 75 e3 a4 ed 7a f0 f7 3f bd 99 58 70 37 45 00 c0
       1.4962109835598458 -2.0337971474684466
000780 ec ea 81 cd 77 8a fc bf 5d f5 fb 8e 78 f4 01 c0
       -1.7838056590687144 -2.2443705721513383
000790 e6 49 52 38 31 88 e1 bf 80 b4 70 ea fa a1 f9 bf
       -0.5478750324276092 -1.6020459325621061
0007a0 db 81 2f 7b 1d 82 ff 3f 61 65 73 ef e3 40 c2 bf
       1.969266396707204 -0.14260529701167982
0007b0 72 95 02 50 26 e6 d7 3f 8f 02 c3 66 cd 7f cf bf
       0.37342222035871153 -0.24608771817840533
0007c0 64 35 71 7a 05 5b d2 3f 48 af ae 9c 97 55 f0 3f
       0.28680550534484994 1.0208965416340607
0007d0 64 0a f5 30 c8 ad eb 3f be be d5 71 0e e1 e8 bf
       0.8649636226840127 -0.7774727080668169
0007e0 d9 88 74 f9 7a e6 f3 bf 8b 80 ba 91 b9 41 b1 bf
       -1.243769621309687 -0.06740913207841197
0007f0 9d 8b b6 3b d9 80 f7 3f cd b0 e2 c7 e6 69 dd 3f
       1.4689571697751724 0.4595887138373314

weight_ih_l0 f8 [120, 20]
000000 00 0f d2 65 a7 eb dc 3f bb 1e eb e9 96 37 cd 3f
       0.4518831724492287 0.22825895711706842
000010 92 08 ce 76 14 66 be 3f cc ff 1e 22 5b 7b a2 3f
       0.11874511623867282 0.03609738151089878
000020 0f 72 26 76 79 84 b9 3f de ed 76 30 84 10 ca bf
       0.09967764982724979 -0.2036290394442934
000030 4f 5f 5f e9 2c 22 d2 bf d6 6a 87 e4 cc bb ae 3f
       -0.28333590307510276 0.06002655305538489
000040 d7 45 17 da 42 0c ac bf 4c 2f 0d c4 01 70 c0 bf
       -0.054781045076775996 -0.1284181792528848
000050 69 59 f5 6f bc ad ca 3f f4 dc 5b 97 e0 54 8a bf
       0.20842700449675114 -0.012857203120331985
000060 8a b7 24 20 ef 76 d7 3f 8a 5c 4f ec b7 bd d1 3f
       0.36663416041380315 0.2772044952120686
000070 dd 2c c8 ff 66 42 a2 3f 59 35 12 7e 72 19 91 bf
       0.035662859652882274 -0.016698636002322107
000080 36 b4 dd 76 d3 4b ce 3f ed 09 14 3d ed b0 d3 3f
       0.23668902687077925 0.30767374958682475
000090 10 84 ae b3 3e dc c3 bf 5d de 91 a7 d5 b0 cc bf
       -0.1551588418342651 -0.22414656335944275
0000a0 5d 25 d3 05 9e 27 c0 3f 4d 98 ac 16 a2 ca ca 3f
       0.1262090233270027 0.2093088732446539
0000b0 f8 15 bf ab 60 55 be 3f 01 8b 8a 32 ea bb cf 3f
       0.11849025910404254 0.24792220561820247
0000c0 06 cd 20 e9 e0 da b9 3f d0 1a 50 3a b7 6b d2 bf
       0.10099607173542688 -0.28782444662685425
0000d0 27 c3 7b d7 b7 33 e3 bf c5 9c 96 00 62 31 c8 3f
       -0.6000632485066476 0.1890070441124633
0000e0 7e 45 f0 e7 5a e9 cf 3f 02 30 db e1 a1 b8 c5 bf
       0.24930893254399317 -0.16969703224310712
0000f0 b3 f4 ac 01 ba 1f e1 3f 44 b5 fb 07 e4 f3 ba bf
       0.5351228745199904 -0.10528397745993795
000100 54 c2 14 91 07 f8 db 3f 40 25 fb ea da e7 b0 3f
       0.4370135227973482 0.06603782879678466
000110 03 8f db 13 37 90 b2 3f 07 c6 a6 11 37 9f 5c bf
       0.0725130485039323 -0.0017469442160343866
000120 65 4f 63 f4 1a 4d cc 3f 92 12 15 a3 0a b5 d4 3f
       0.2211030667591515 0.32354989934928213
000130 9f 63 82 88 36 f5 59 bf ea 27 47 c5 c9 87 93 bf
       -0.001584342246166971 -0.01907267824734752
000140 50 cb 81 55 69 c7 d1 3f 40 18 2a 43 20 99 c1 3f
       0.277796109679163 0.13748553542626674
000150 eb 92 6d a4 fb 83 ba bf e6 95 b0 49 35 9a d5 3f
       -0.10357640041690856 0.3375371188761548
000160 c3 c3 e3 85 4d f2 b0 3f 9a 78 d9 24 e4 31 a2 3f
       0.0661972476843991 0.03553688955138164
000170 6e f7 8f ac 07 13 80 bf 0a 59 0c 9a 20 e9 d6 3f
       -0.007848796800313553 0.3579789642693788
000180 ec 5f d8 50 a0 e4 aa 3f 0b f1 14 7d 05 72 9c 3f
       0.0525255297363286 0.027778707274806396
000190 bc 7e af a2 c3 53 c7 3f a1 31 1c d9 84 0c ba bf
       0.1822437805521896 -0.1017535238317522
0001a0 aa 15 aa fa df cf bf bf 19 59 0e 57 c7 21 cb 3f
       -0.12426566953407439 0.21196834326537653
0001b0 81 cd c5 7b 87 77 cf 3f 89 f9 14 20 49 e1 b6 3f
       0.2458352426871038 0.08937508614778812
0001c0 49 5f 0b c4 f0 c4 90 bf cb 58 39 46 a5 f5 cb 3f
       -0.016376268354036303 0.2184340088740043
0001d0 90 a0 09 8b 21 11 b7 bf 88 34 f7 d5 21 01 d6 bf
       -0.09010514873955544 -0.343819102240396
0001e0 33 52 2c 23 5e a7 6b bf a2 a0 53 e1 2a dc d9 bf
       -0.0033757055874821472 -0.4040629578071365
0001f0 36 33 80 38 b6 47 d8 bf 0c bf 4e f9 14 8d c1 3f
       -0.3793769408955997 0.1371179787943152
000200 ed cc 7a 94 53 55 d4 3f 6b 8d c6 6b f2 59 e5 bf
       0.31770791530580206 -0.6672298531524751
000210 bb 95 e6 32 c7 c5 a8 3f 09 e6 09 f6 1c b9 e1 bf
       0.04838392731043536 -0.553846817535658
000220 29 3d fd dd d5 c0 a7 3f e6 4c ef a6 c3 df b9 3f
       0.046393092487614425 0.10107062173419798
000230 ca 89 6b 06 81 e9 c3 3f 54 89 a6 61 5a dd d5 bf
       0.1555634766910557 -0.3416353181475149
000240 57 8e 0e 82 73 a4 c7 bf cb 4b dc 96 a2 a2 bd 3f
       -0.18470615244324293 0.11576286490553327
000250 49 8b 43 6f eb 38 99 3f d7 5e 01 af 4a 50 d8 3f
       0.024631193796163662 0.3799006184612898
000260 8c b0 c0 37 7c f6 e4 3f e3 5e 15 2a 53 c6 d4 3f
       0.655088528530102 0.32460478887285954
000270 28 a6 38 c7 d3 8d d6 bf 93 3f 4a 5b 3e 3d aa bf
       -0.3524064488907208 -0.05124850143795281
000280 80 96 e5 d9 73 72 cd bf e7 63 c9 57 c4 82 be bf
       -0.23005531444066563 -0.11918284552793033
000290 2d a9 d9 5a 6a a8 bb bf 58 be 5f 4c c5 91 d1 3f
       -0.1080385658075655 0.2745221372451616
0002a0 34 a2 03 0a 47 cc d6 3f 35 74 d2 c6 4d db bf bf
       0.35621810892056094 -0.12444006065420939
0002b0 44 ef 57 79 0c 5f bf 3f 5b 2b c0 35 94 f7 c3 3f
       0.12254407846915877 0.15599300980133077
0002c0 93 c8 d4 3d 14 2c c9 3f 5b eb b8 33 44 63 b4 3f
       0.19665768641568046 0.07963968527557823
0002d0 77 de 47 2e 65 07 c2 3f 73 5a 8f 35 96 84 c2 bf
       0.1408506847362678 -0.144671226646739
0002e0 e5 3e d0 f2 f1 eb c4 bf a4 3d d6 aa e9 7b d6 3f
       -0.16345047336698496 0.3513130348519218
0002f0 c8 cf 55 4f e5 64 d4 bf 19 90 94 7a ab 1a ac 3f
       -0.3186581873662786 0.054890974725168636
000300 b2 a9 ad 95 70 aa b9 bf ad f9 b1 f2 ff 86 d2 bf
       -0.10025695471055121 -0.2894897337027043
000310 74 a2 c0 8d bb d1 bf 3f b9 39 49 97 ec 64 c2 3f
       0.12429401598695639 0.14370496165288474
000320 a2 a6 6c ce 50 bd e1 bf 18 9e dd 4b be 91 dd 3f
       -0.5543598205305964 0.46202046784171236
000330 cb e0 15 d0 26 f0 cb 3f 5a 24 d6 c5 eb 54 a6 bf
       0.21826634560034672 -0.043616645717585015
000340 06 56 3b dd 9a d8 85 3f 5c 89 96 c1 89 b4 d1 bf
       0.010667047382791683 -0.27664417176324263
000350 bb 95 af 83 2c a7 dc bf c2 6b f5 f3 c0 05 b6 3f
       -0.44770348415326183 0.08602529483816482
000360 b9 8f aa 58 30 75 c5 3f 28 0f 78 67 58 53 96 3f
       0.16763881997496613 0.02180231219791931
000370 c6 ea 95 0c 89 1e d0 bf 99 93 f1 fc 2a 1d cf bf
       -0.251863729754103 -0.24307763434185573
000380 3f 74 f5 e4 1d b8 c4 3f c0 93 54 89 f5 3d d3 3f
       0.16186879806164886 0.3006566849820125
000390 7d df 3a 27 44 c2 e6 bf ca 50 d3 65 93 53 8f 3f
       -0.7112141386232761 0.015296126885381862
0003a0 d0 67 46 bf 5e 7f cd 3f e9 4e 1a 3a a4 a2 a1 bf
       0.23044952716446554 -0.03444398125898635
0003b0 65 a5 77 fc d1 32 e0 3f b5 04 e1 a5 22 cb d7 3f
       0.5062036448481818 0.3717733974372764
0003c0 01 ac 6c be 89 73 ca 3f ed 4b de eb 73 4b d2 3f
       0.20665094183036106 0.285855274524862
0003d0 b0 ec f7 63 71 ad c3 bf ad c4 1f 53 8a 86 c8 3f
       -0.15373055821678383 0.191605845058381
0003e0 3b cd 27 d4 41 a1 d1 bf f0 6d 55 ba 2c c4 d1 bf
       -0.2754673549490751 -0.27759855457926985
0003f0 93 20 b6 79 30 3c d0 bf 10 15 c8 a7 95 b6 a2 3f
       -0.25367366681940345 0.036549259883068896
000400 c5 9c 44 66 c2 53 b5 3f 0d 6c 0a 30 b1 19 af 3f
       0.08330931660440218 0.06074289046701873
000410 96 b7 a0 0c f2 02 d2 3f f9 4a d6 1c 97 cd b0 bf
       0.281429779369199 -0.06563705877332983
000420 f5 41 8f f1 33 e1 b0 3f 09 dc 21 ed c6 0e 9e 3f
       0.06593632361842323 0.02935324499454953
000430 ca 77 1a 04 b5 b2 e2 3f 1f 37 2c ef b7 32 e4 3f
       0.5843148307937949 0.6311912223188506
000440 56 4a 3a ad e6 81 df 3f 6b f4 c1 80 44 8e d1 3f
       0.4923035327603079 0.27430832456577176
000450 bc f4 f9 a3 c8 46 e2 bf 2f 59 39 8d 0a f2 b3 3f
       -0.5711405947364692 0.07791200588085155
000460 11 82 f0 fa a0 b5 8c bf 20 d3 1b 59 65 4c e1 bf
       -0.014018304498734787 -0.5405756702808482
000470 cd b7 5c a6 98 6d de bf eb 60 f9 84 3d ab c3 bf
       -0.47543922659212684 -0.15366333954694453
000480 5c 75 4e a9 b9 5f c6 3f 0a 9a 6b 33 ff 68 eb 3f
       0.1747963024799145 0.8565670017531499
000490 17 7d 84 e2 0b fd d0 bf bf 66 93 4f 69 a0 e2 3f
       -0.2654447280965128 0.5820814661230641
0004a0 c1 81 88 eb f3 a8 cc 3f cf 11 21 0f 24 2e c3 bf
       0.22390603066106787 -0.14984560717324633
0004b0 48 60 ef 9d fe 63 cb 3f d2 2a e3 8c c7 6d 9b 3f
       0.2139890929381656 0.026785963033755085
0004c0 ea 21 54 26 76 6d e9 bf 4f 28 a9 fa 32 9b dc bf
       -0.794612002239828 -0.44697260359373997
0004d0 1a 29 39 31 ad 2b bc bf 4d 12 e8 f6 66 45 d7 bf
       -0.1100414509939224 -0.36361097442594287
0004e0 7e b8 b9 c3 16 32 e3 bf b8 04 99 6b 52 73 b7 3f
       -0.5998643706095803 0.0916034233751074
0004f0 05 2b ab d2 d9 1f d3 3f ad 6b 73 65 d7 8c b7 3f
       0.29881902287586143 0.09199281908824615
000500 65 69 98 e9 5d d4 e6 3f 57 f4 f7 e9 33 6b da 3f
       0.7134236872109737 0.4127931389664971
000510 26 ce 67 f5 3d ec d1 3f f6 ba e6 ff 04 ee b6 bf
       0.28004406895999734 -0.08956938979711623
000520 32 3b ab b7 d7 f2 db bf ef 6a fc 61 20 cb d9 bf
       -0.4366969388619736 -0.40302285736986126
000530 d8 bf 3e 40 9b b0 d8 3f be 49 5e 5b 84 2e 5c bf
       0.38577920221268647 -0.0017200748966145064
000540 e3 25 81 23 dc ba cc 3f 25 59 a5 da 7b 54 d5 3f
       0.22445251210801506 0.3332814822400841
000550 b1 80 82 06 51 2d e4 3f be 96 18 32 88 a6 c1 bf
       0.6305317999977175 -0.1378946537599201
000560 44 5e 72 c9 eb 2c c9 3f 8c 9b 0b 75 8c 40 df 3f
       0.19668338142649777 0.48831473760804367
000570 29 fa 27 fb 5a 8a b8 bf 2b 65 69 d3 4b 97 b3 3f
       -0.09586113578550538 0.07652734671991783
000580 5a 50 82 88 03 dc b2 bf 72 fc 8a ef b6 cd c6 3f
       -0.07366964419117164 0.17815291115218518
000590 54 5e 68 81 07 c6 d6 bf 73 92 82 1e fa c2 b1 bf
       -0.3558367503878561 -0.06938136334299276
0005a0 f2 a3 ac ba b2 ad b2 3f 5c cd 6e 15 76 a3 bf 3f
       0.07296292359809778 0.12358797095548851
0005b0 96 c3 b5 f2 19 3c d0 bf a8 40 e0 2e b6 e9 bf 3f
       -0.2536682958807942 0.12465990681107775
0005c0 d7 27 6c 69 c7 8f d7 3f 1a b2 46 b9 0c aa b7 bf
       0.3681505708233294 -0.09243850253432875
0005d0 90 da 37 a3 aa b4 b7 bf b9 4d cf 5b 9d d5 bc 3f
       -0.09260050282305543 0.11263450137567234
0005e0 31 f2 ba af 30 85 ca 3f 0d b8 14 7b c4 77 c0 bf
       0.20718964176730162 -0.12865501413165284
0005f0 20 61 13 b0 3d d5 d0 3f 48 b1 ff 01 66 83 c5 3f
       0.26301519579785015 0.16807246301267242
000600 46 91 8d e7 d7 be c4 3f 91 2f 49 ac 65 96 d2 3f
       0.16207407766627052 0.2904295141677205
000610 21 4e 48 e4 e5 f5 c8 bf ae 08 2d 62 40 b9 ca 3f
       -0.195004211870228 0.2087784270643786
000620 d2 ca 78 9e 06 bd e0 bf 7e fa 13 4d 8f fe de 3f
       -0.5230744452622622 0.4842870953288311
000630 b6 e5 58 04 85 9f cd bf c3 d5 9b 89 bc 63 cc 3f
       -0.23143065178173367 0.22179371565986913
000640 3b 34 83 09 bc 02 c7 bf 82 b0 92 30 56 2b b8 3f
       -0.17977095093229586 0.09441126523842239
000650 b2 13 72 ae 91 d3 3f 3f 9c 64 d8 5a 55 b5 b1 bf
       0.00048563296008579803 -0.06917317836668463
000660 b3 af 89 0c 7b 62 a9 bf 31 fb dd 00 c0 ed c8 3f
       -0.04957947280931254 0.19475555460300023
000670 ea 53 9d ba e5 df c7 3f 0a ea 13 cb 4d ba cd 3f
       0.18652030574835915 0.23224804321201048
000680 2c 45 b3 d2 20 9a ca 3f 48 b8 24 fc 27 5c b2 bf
       0.20782861984347656 -0.07171869188161495
000690 70 9d 09 4b f4 7b c4 3f 17 c7 80 bd 06 bc e0 bf
       0.1600327841181115 -0.5229524327498635
0006a0 e9 43 db 2d 65 60 bb 3f 11 4e 3d 39 ed 40 81 3f
       0.10693962449592188 0.008424619015989373
0006b0 72 14 78 2c 20 59 99 bf 52 01 3d 3e bb 81 d9 3f
       -0.02475404998223891 0.3985431773944771
0006c0 7c 95 83 44 69 db d7 bf 1d 85 25 77 1d 07 db 3f
       -0.37276679697819026 0.4223092711964272
0006d0 0d fd f4 60 1b 0c d9 bf 8d 42 0b 42 87 26 be 3f
       -0.3913639494748658 0.11777539598848304
0006e0 85 62 2f eb 18 ef 60 bf 26 09 6b 51 ed 10 d0 bf
       -0.002067135495490926 -0.25103314352976935
0006f0 94 9d 36 31 fb 13 bc bf f4 2a a1 71 e5 83 b7 3f
       -0.1096798892164002 0.09185632728728504
000700 8a 1e dd 2d 7c ab b4 3f 19 40 2e 63 a0 d8 bc bf
       0.08074165458412544 -0.11268045827296226
000710 65 dc 97 de 01 f7 d4 3f df e2 c9 ae 84 09 c0 3f
       0.32757612931840746 0.12529047522163858
000720 7c b1 93 20 34 a8 cf 3f 8e 4a 4f d3 06 a0 ce 3f
       0.24732066717787038 0.23925862615449883
000730 06 b1 ae 43 24 32 cb 3f 89 82 49 5d 76 f0 c1 bf
       0.21246770195774206 -0.14015082888638045
000740 c8 6e 05 e0 5c c5 ba bf 2c 75 b5 89 e1 0d b9 3f
       -0.10457401723163706 0.09786805736571996
000750 56 11 68 73 8e cc cd bf d2 71 de 6a 47 2f d8 3f
       -0.23280506739696233 0.3778856795923079
000760 a8 db 8f 7c 1d 49 c9 bf 7b 57 92 06 f0 b9 c2 3f
       -0.19754379827619784 0.14629936524277895
000770 1e 28 5d eb ee ed 7d bf be a9 c6 fe e6 f0 86 bf
       -0.00730698898207474 -0.011201672220370603
000780 88 7f e0 26 6b 87 c0 3f 7c cc 44 f0 3e 6d 78 3f
       0.12913264654434564 0.005963559964857198
000790 fb df 31 65 be 87 c1 3f 8d 0a 79 c9 ba 82 bf 3f
       0.13695506993440162 0.12308852595109894
0007a0 c0 a4 6c 3a df a4 c2 3f cc e8 82 04 10 60 c8 bf
       0.14565649369004596 -0.1904315969494007
0007b0 5a f4 e0 7a ea 92 ce bf 45 95 fb 84 4a e7 c5 3f
       -0.23885851859987178 0.17112094395921865
0007c0 6e 96 3e 81 e3 61 d0 3f db 3b e5 9a d5 e9 db 3f
       0.2559746515420106 0.43614711882122287
0007d0 d4 66 d9 58 1f 4f d0 3f b7 37 70 cd 09 bf d5 bf
       0.2548292510669914 -0.3397850519403351
0007e0 17 4f 17 aa 38 5c d0 bf f5 45 d0 a1 54 73 cc 3f
       -0.2556287442250648 0.2222696104150114
0007f0 da b4 04 cd c6 10 d3 3f f8 fa c7 3d db ca d8 3f
       0.2978989603169119 0.38738137276952456

weight_hh_l0 f8 [120, 30]
000000 24 6b 2e 23 1f f1 ba bf c6 6d 5d a3 5b 12 78 3f
       -0.10524172409934046 0.005876882516385467
000010 96 57 aa a3 93 1b cf 3f cb 29 de fb 9b 6f a5 3f
       0.24302907458757933 0.04186713647421277
000020 aa f1 01 98 0e 1f 88 3f 2b 9e 7d 8c 1b 88 d2 3f
       0.011777986539748781 0.28955734939379124
000030 82 62 cf 56 b4 28 ad bf 2e f7 3e ec f2 fe 95 3f
       -0.05695117530530515 0.021480365437802344
000040 e4 57 fe 48 72 6d a3 bf 7a a0 e5 f9 fc fd d0 3f
       -0.03794438496622357 0.26550220874788233
000050 a8 0a fe 75 0b 16 ad 3f 84 ac d1 7f ad f6 aa 3f
       0.056808813241351175 0.05266325173655509
000060 75 d2 55 5e 56 d1 b2 bf fd de 32 f5 3e ea ba 3f
       -0.07350673487764843 0.10513680921837572
000070 70 3a 7a 61 1f 6e cc bf 20 87 05 9e 21 c8 c4 3f
       -0.22211067447320287 0.16235752311609364
000080 cc fc 0d f7 12 ff a6 3f 4b 85 e9 17 65 92 91 bf
       0.04491481080821699 -0.017160014709934484
000090 34 c8 62 17 8c ea b6 3f 5f 79 9f 8f a9 45 cb bf
       0.0895164067358401 -0.21306342614020488
0000a0 26 57 b4 21 95 90 95 bf f7 cb ce bb d2 22 ac bf
       -0.02105935114112536 -0.054953179765469366
0000b0 e4 82 d1 6a 31 92 c7 3f ca 17 76 99 5a c5 ac bf
       0.18414895740263326 -0.05619319079691783
0000c0 51 13 55 bc 92 09 b6 bf 7f 63 ca 26 b1 fd ac 3f
       -0.08608357522923639 0.05662301634328681
0000d0 21 3b 7d 1a 30 80 b0 bf f9 bc d2 29 ea 93 c7 bf
       -0.06445599219044286 -0.18420149843357317
0000e0 1f 02 51 85 f2 4f 9c 3f 21 2a 2b 4f 98 6d c5 3f
       0.02764872492503134 0.1674070726933943
0000f0 dc 9d f1 9e af dc a4 3f 4e 63 fc 52 68 ed 9f bf
       0.04074620070678822 -0.031179075303131847
000100 b2 1a 35 f3 b4 f4 bd 3f f8 1e e3 c6 9e 90 cf 3f
       0.11701517999345404 0.24660095893181455
000110 a2 40 77 16 2a 1b c0 3f 5f e7 02 e3 ce f8 b8 bf
       0.12582899186100344 -0.09754651109952082
000120 ab 52 75 fa 88 7f e0 bf 7b 8a 13 2a 25 ee ce bf
       -0.5155682460559395 -0.2416426139307822
000130 4b 2b f9 ef d7 6a d1 bf 7d 24 60 d2 10 33 d5 bf
       -0.2721462100495741 -0.3312418035935208
000140 2d 72 cd 38 6f 6b db 3f a4 6f c1 69 82 0a c9 bf
       0.42843227908250264 -0.19563322223518498
000150 aa c5 4e bd ab 8e bc bf 21 16 d5 ee bd de 85 bf
       -0.11155198451776607 -0.010678752757153966
000160 ba 20 05 f1 a1 f3 be bf bc 27 eb 5c 72 cc a6 3f
       -0.1209050382068452 0.044528554766273015
000170 8d a4 72 a9 5b 00 c3 bf 35 51 f6 cf cd 38 7e bf
       -0.14844842695064067 -0.0073783912224779
000180 8d 75 4a 47 da 63 c3 bf 49 c7 80 c1 9e 77 7b 3f
       -0.15148476105688893 0.006705875530359348
000190 e8 57 af 08 c5 fd c0 bf 8d f0 52 e4 4f b1 c3 bf
       -0.13274443553990456 -0.15384863518363937
0001a0 2e 1a 4c fa d8 51 b2 bf 84 f6 75 73 e4 1e bb 3f
       -0.0715613947942095 0.10594013041369449
0001b0 fa 42 1a 90 21 d3 c3 bf ac 0d e6 54 a1 11 c6 3f
       -0.15488070999392517 0.17241303105775552
0001c0 65 a0 7c 3b 34 f8 c1 bf 9d 01 5a 3e 2e e3 c3 3f
       -0.14038708595876695 0.15537050289641466
0001d0 8f 35 66 ae a6 ab 9a bf 5f 5d 14 e6 e8 d9 c0 bf
       -0.026045421976552737 -0.1316500781474401
0001e0 f9 36 36 ef 65 58 a5 bf 79 7c 59 38 64 c5 d0 bf
       -0.04169004960122708 -0.2620478201187733
0001f0 75 71 13 d8 c7 87 cf 3f 46 ec 9f 7a ea 33 9d 3f
       0.24633119631370062 0.028518356069963134
000200 b2 93 85 e0 ec 44 98 bf b9 a2 aa f2 70 12 c6 3f
       -0.02370042915699217 0.17243778084709563
000210 80 cb 30 c1 26 42 cc bf e4 70 2d 9a e6 bf c3 3f
       -0.22076878007063883 0.15429384735296658
000220 94 a7 83 8f 05 1d 8b 3f 25 41 92 67 4d d1 c0 bf
       0.013238948290069698 -0.13138740117256834
000230 69 4b cb 08 fa 5d bc bf 14 e5 2d 9a 53 f0 a6 bf
       -0.11080897059154683 -0.044802296229088295
000240 2e 2e 87 17 62 9f 81 bf 90 0d ed bc 31 f8 80 3f
       -0.008604780524272018 0.008285893037856679
000250 2e d0 89 c9 08 93 a3 3f 4d f9 d5 a0 b1 17 b4 3f
       0.03823115787682273 0.0784865396180738
000260 84 c1 69 4e de 4f b7 bf 5b f6 6c 99 72 0e ac bf
       -0.09106244482405229 -0.054797726849284266
000270 f0 ea 19 58 e3 7f c5 3f 3f 69 97 9c 04 f8 ae bf
       0.16796533395594038 -0.06048597728268356
000280 9a 0c 86 27 4c 17 b2 bf 89 84 40 99 9c 4f bc 3f
       -0.07066799130375259 0.11058977834228946
000290 e8 b4 ea f6 a3 44 ca 3f ff 5b e7 28 e5 f7 c1 3f
       0.2052197414063024 0.14037765977147384
0002a0 db f5 eb 1e 8b cc ba bf 88 81 fd 56 7c 4d ba bf
       -0.1046835852138978 -0.10274483798776235
0002b0 d4 bb e0 71 6a 26 c5 bf 38 88 93 73 62 1a b7 3f
       -0.16523485718195607 0.09024634668051668
0002c0 87 c4 29 d8 bc 8d 9b 3f e1 c5 76 bb 2c d3 d6 bf
       0.026907873815109198 -0.35663908297564545
0002d0 67 f0 ac be 0d b6 a8 bf e0 87 34 78 52 84 c3 bf
       -0.04826395943243327 -0.15247565144915054
0002e0 e9 27 4a 92 27 b8 b4 3f 59 c3 b4 86 df 0d d0 bf
       0.08093497582936461 -0.2508467498292269
0002f0 ad 5f ba 56 69 82 be 3f 0d dd ec 06 37 6d d0 3f
       0.1191774212587677 0.25666595150274035
000300 e4 c4 d9 86 52 73 b2 bf e9 53 fe b0 5e c2 a5 3f
       -0.07207217972042518 0.042498549562118466
000310 fe 6e 0f 91 5a fe cc bf a5 15 16 07 ad 7f b8 3f
       -0.22651226122876972 0.09569817946438393
000320 c1 cc 47 6b e5 c1 d0 3f 2e 32 c2 9f c9 a5 92 3f
       0.26183448292358596 0.018210554481401235
000330 2b 9e 39 60 f1 17 d3 bf 99 c2 c2 12 22 ab 9d 3f
       -0.29833635708789313 0.028973133463923693
000340 8b 1d 96 c4 d1 29 c5 bf bc b0 89 72 f2 a6 93 3f
       -0.16533872698731175 0.01919153999408317
000350 8c d6 c2 4b 60 fe bc bf f1 6d b5 a2 9f 6e cd bf
       -0.11325647210727591 -0.22993846363793538
000360 b8 59 5d b9 5b df dc 3f 04 c1 a8 3c 4d cb 8a bf
       0.45113270856873156 -0.013083079732581833
000370 df 77 57 85 34 85 d7 3f 07 ff c5 88 a9 01 be bf
       0.36750519773147333 -0.11721286381907357
000380 9e 09 f9 ee e7 c6 d5 3f 76 55 84 d8 b2 67 ae bf
       0.3402652581900386 -0.059384907655991734
000390 cf c7 8d d4 bc 50 b7 3f 1b 5c 61 2d d1 de e0 3f
       0.09107570828726284 0.5271993528684819
0003a0 48 dc 11 fa 95 10 d2 bf 40 be 50 4d 77 51 c2 bf
       -0.2822623197639058 -0.14311114573637163
0003b0 80 75 49 8b 4d 94 da 3f a9 5b 68 a8 48 37 c9 bf
       0.4153016910766709 -0.1969996282866451
0003c0 2e 58 2e 60 5d 9d 6c bf 7b 65 da 23 5f 3e 8c 3f
       -0.0034930061096458886 0.013790839463853946
0003d0 e3 e8 a1 54 ac cb b3 3f 14 92 63 ba 02 97 a4 3f
       0.07732655588361896 0.04021461987739286
0003e0 5b 61 32 99 fe b8 c3 3f 25 2c 99 c5 f8 0b ce 3f
       0.15408308487236408 0.23474034927707624
0003f0 30 88 7a 0c e6 f8 c5 bf e2 7e 5b 78 e5 44 c5 3f
       -0.1716582833224165 0.1661650502855912
000400 11 61 76 1a 72 fe c8 bf 3f dd 08 de b8 6a dc bf
       -0.1952650670252827 -0.4440138023669142
000410 d0 28 47 50 b7 2c d1 bf 7b 92 e7 6e 2d 8f ca bf
       -0.26835425223965803 -0.20749442973387375
000420 2e 4a ef 47 6c 14 30 bf 4d dc ed 5c e8 b8 95 3f
       -0.0002453579290292743 0.021213179275460004
000430 a9 2d 2e 21 df af af 3f 51 7f 3c 03 06 da c6 3f
       0.06188866882356631 0.17852854879401517
000440 31 65 95 af 04 9f c2 bf 30 fb f7 d8 32 95 9b bf
       -0.1454778535215069 -0.026936335079876972
000450 97 85 80 52 15 b8 c6 3f a7 bb ff 8d f4 95 aa bf
       0.17749277618808598 -0.05192531808267314
000460 0a 32 23 ba 31 9b ab bf ed b9 ea 67 ae db ae 3f
       -0.05391841313539565 0.06026978510395851
000470 62 71 79 b7 fb 8d bd bf 81 d4 7c a0 1d 69 40 3f
       -0.11544774274211059 0.0005008120215054397
000480 60 38 aa 3f 7a a2 c3 bf 03 b1 e4 05 28 c7 da bf
       -0.15339592083586506 -0.4184055383255016
000490 f8 4c 36 80 3b 7d ac 3f ef b7 09 41 50 b5 be bf
       0.0556429475792814 -0.11995412433472528
0004a0 5a 25 e3 10 b7 89 c4 3f 35 0d b0 0c f3 44 b3 3f
       0.16045273136686938 0.07527083453901613
0004b0 57 1b 04 e8 93 e8 bb 3f 4f ca 7d ed 48 77 a4 bf
       0.10901760496572642 -0.03997257136406473
0004c0 c6 18 fd fc 6b f1 bc 3f 57 6e 69 89 bc 57 c6 3f
       0.11305880476456584 0.1745525046306848
0004d0 61 1d 3c a6 79 f7 b6 bf 59 c9 22 fc 8b a3 74 3f
       -0.08971367176501623 0.005038782897985727
0004e0 1d 68 95 81 be 0f 58 3f 42 c5 fd 8a 8b f8 9e bf
       0.0014685974513981633 -0.03024499927363889
0004f0 35 6d 5e 66 af f4 d2 bf f4 9f fc a2 61 17 c9 bf
       -0.2961843967147673 -0.19602604349461183
000500 67 ed 83 49 ad 76 d1 bf 6a 04 f6 d1 03 9c c4 bf
       -0.27286846331818143 -0.16101119758608046
000510 81 c3 40 1b 68 9a c2 3f ab 17 37 7b f3 a9 b2 3f
       0.1453371174880225 0.07290574796851838
000520 89 f2 b8 cd 0e 90 c7 bf 73 06 20 82 c1 9d e0 3f
       -0.18408379597703498 0.5192573110109165
000530 b4 9f ce b9 a3 7c bd bf bd 2a 9e b3 2b 83 d6 bf
       -0.11518309866244075 -0.3517560247498002
000540 e5 86 0b 80 d0 b4 b8 3f 4b a8 38 03 d8 c1 d8 bf
       0.09650900961016935 -0.38683128656942206
000550 a4 99 80 8a cf b0 b7 3f d1 32 21 72 50 1f cc 3f
       0.0925416672840585 0.21970563481081354
000560 f2 0f a8 a3 d0 24 c7 3f f1 b3 7a 0b 04 8b 7e 3f
       0.1808110045532199 0.007456794548187582
000570 f6 aa 29 8a 48 1f 99 bf e8 41 a9 11 1c b1 c0 3f
       -0.024533399040971703 0.1304049574123518
000580 f8 48 4a 1e a4 6c cf bf e1 09 65 47 ce 5e bd bf
       -0.24550296286594864 -0.11472787135156849
000590 15 dc 61 5f 2b c8 b7 3f e6 82 dd 73 e3 c5 b6 3f
       0.09289809302013936 0.08895703867666391
0005a0 c4 1b 1f 0a b0 53 d1 3f f7 e0 25 6d 78 81 dc bf
       0.27073288906506954 -0.445402247037705
0005b0 fe 11 52 71 ef 23 c8 3f 8c e3 fe 23 ea a1 cb 3f
       0.18859665902358808 0.21587874181366506
0005c0 b0 bd 9b 96 21 3c c5 3f ee a6 e6 94 84 19 d4 3f
       0.16589755872653944 0.3140574888335398
0005d0 d8 7f 09 07 eb 85 a7 bf 26 b6 6f 5a 95 13 cc 3f
       -0.04594358883764443 0.219347638281236
0005e0 95 94 14 f7 d1 14 c7 bf e0 8c 39 e1 b6 76 c2 bf
       -0.1803228813597896 -0.14424787518792126
0005f0 62 3f 63 66 e5 76 d2 bf 51 e4 4e b1 cf 3a d4 bf
       -0.2885068416480775 -0.31608955683947665
000600 e3 4f 92 5e 8d 9e 90 bf cd 51 68 12 cc ef c7 3f
       -0.01622982873648472 0.18700552843860266
000610 e9 b3 ac b3 b9 e8 d3 bf af 3e 9e 3a 30 e1 d4 3f
       -0.3110794310221637 0.32624440884044764
000620 c6 47 ed aa bb 5c e0 bf a0 30 3d 00 1a fa dc bf
       -0.5113199556747012 -0.45276498816816435
000630 61 29 57 d9 a6 ab cd 3f 80 25 48 89 d7 7b d0 bf
       0.23180089580848587 -0.25755871206691694
000640 58 44 1c 13 f2 70 df 3f 45 23 bb 8b f5 35 da 3f
       0.4912686525941061 0.409543405967771
000650 b2 d0 68 24 0a 44 d2 3f 62 dc f9 9d 53 db c9 3f
       0.28540280871971924 0.2020058175437241
000660 bd 6f 21 0d 3c 5c db bf 01 29 3e 43 a9 dd ab bf
       -0.42750455171858076 -0.054425515611983506
000670 25 3f ea 0b e4 6f da bf b3 eb f7 8d 9f 42 b9 3f
       -0.41307927287651786 0.0986728402712476
000680 88 54 a4 c9 cd e6 d8 3f 7f 02 49 86 7b dd 80 bf
       0.3890871495398831 -0.008234944377478513
000690 f0 03 78 e0 a5 6b 7b 3f bf 5f d7 2b c0 f4 c0 bf
       0.006694457966205811 -0.13246919766129214
0006a0 3e ee 02 1f f1 70 b1 3f 89 21 cf 95 40 b8 9c 3f
       0.06812960631480622 0.02804661669122902
0006b0 8c ac 40 cc 72 ed db 3f 4e 0d ed ed d3 23 e0 3f
       0.4363677019743555 0.5043735167495613
0006c0 66 fe a9 9f 85 c9 c6 3f 4b da e4 c9 f5 03 c5 bf
       0.17802496238799675 -0.16418335302451434
0006d0 3f f4 23 39 92 60 ce bf c4 07 f5 03 4d 8b c4 3f
       -0.2373221186643679 0.16050112431736185
0006e0 41 a7 87 0b b5 72 cd 3f d4 23 91 a3 79 ce d2 bf
       0.23006308615668483 -0.293852243169167
0006f0 92 6d 89 9c 83 77 a7 3f 90 30 e5 32 75 a5 d0 3f
       0.045833695276736766 0.2600987431549209
000700 0b e0 a2 d4 52 3f c8 bf 79 12 36 73 1c 3b b4 3f
       -0.18943248160007928 0.07902696430944357
000710 21 97 86 97 8e 09 d6 bf dc 43 00 43 fd fe d4 bf
       -0.344333312963828 -0.32806331198758953
000720 39 cc 5e d1 10 61 dd 3f 86 bb d0 1f c0 dd b2 bf
       0.4590494198448059 -0.07369614388220044
000730 db c6 cf df 0b 8a cc 3f f3 91 6b b1 66 16 d5 3f
       0.2229628413038459 0.32949225736800186
000740 22 e4 78 85 ac 66 d1 3f 7a 8f ce e1 96 df b4 3f
       0.2718917182388073 0.08153670323241427
000750 f0 c9 1d 97 f6 73 9e 3f dd 1a 11 e8 ef e8 d1 3f
       0.029739239667330553 0.27984235441947
000760 b9 1e 51 64 a8 e9 d3 bf 39 79 d1 4e 79 b6 c2 3f
       -0.3111363391549094 0.14619366024539618
000770 98 ad dc 1f 1b 7c c8 3f 9d c7 f2 39 de 4d bc bf
       0.1912874131752289 -0.11056317248110621
000780 16 9a 47 2f 97 c2 ac bf 09 87 c3 88 a8 34 c3 3f
       -0.05617210819382394 0.15004450490874202
000790 0d 3c 31 e8 4c fb c2 bf 52 38 e8 86 1c d6 b5 bf
       -0.14829408013835668 -0.08529833119993782
0007a0 43 a7 9b fd f1 a0 c2 3f 87 ed f0 d1 38 8f cf 3f
       0.14553666003421925 0.24655828715354408
0007b0 42 91 b3 3a 35 84 cd 3f 14 fd 00 b5 6f b4 be 3f
       0.23059716573983208 0.11994074029006568
0007c0 54 2f 0b a7 b8 7c b0 3f 62 36 ac cd 02 09 c0 3f
       0.06440309599127875 0.1252749923955206
0007d0 0e e0 85 1c c8 e6 b5 bf a8 d8 00 59 ea 54 c4 bf
       -0.0855526990543469 -0.1588414129816489
0007e0 de 78 20 6e 45 d4 d9 3f 0c 88 ec ac 97 6b d9 3f
       0.40358100657057416 0.3971919239721735
0007f0 93 d0 9c 3c ab b7 99 bf 9a a6 67 f5 87 aa d3 bf
       -0.025114703726288722 -0.30728339162178886

bias_ih_l0 f8 [120]
000000 19 76 be b8 9c 2d d0 3f 15 9f 04 63 30 42 54 3f
       0.2527839473858378 0.0012364838149298608
000010 0b e2 49 54 1d c4 ac 3f 7a 6e 6b 76 85 14 c7 3f
       0.056183735407959366 0.180313761541459
000020 54 96 5f 63 e0 c1 7d 3f 68 82 ec 3e 9e 22 ce 3f
       0.007264973179166374 0.23543146202520693
000030 27 cc 3f ae 67 44 ce 3f be 58 76 fe a0 ed e0 3f
       0.23646255501043464 0.5290074319807656
000040 78 bc bc 02 06 f8 aa 3f 38 20 6f ba 38 de dd 3f
       0.05267351897634226 0.46668832975820207
000050 e3 6a 64 8a b1 6a df 3f 51 ed 37 da d0 66 e2 3f
       0.4908870555388331 0.5750507604674714
000060 67 47 ea f7 f2 21 df 3f e5 45 23 8e c6 9a e2 3f
       0.48644708834137024 0.5813935066345804
000070 67 77 07 9f 2a ad c4 3f 5a 5d 68 47 e1 ea c0 3f
       0.16153462185951215 0.13216796862318853
000080 90 56 b2 bc 87 4b cd 3f 17 29 8f 24 e4 0c d3 3f
       0.22886749948218155 0.29766181535946273
000090 56 19 a7 19 d0 64 ca 3f 01 16 fc bb 27 01 d3 3f
       0.20620156529021 0.29694550855523977
0000a0 8f 0a 98 78 1f 80 cb 3f 08 a9 67 c8 4a 75 d8 3f
       0.21484750164389196 0.38215894289773233
0000b0 c1 0c 86 c6 0b 29 e0 3f 45 47 fe 1b 50 b1 d2 3f
       0.5050104978003206 0.29207232221334706
0000c0 30 f3 d9 5a e4 22 dc 3f d5 20 36 a8 d9 84 e6 3f
       0.4396296393604642 0.70371706823155
0000d0 fb 25 a6 d7 02 e9 a6 3f 90 a5 01 64 e4 73 d3 3f
       0.044746483635275745 0.3039484955430334
0000e0 69 d2 4a ce 3d 4c c7 3f 86 d6 d6 d4 d9 08 db 3f
       0.18201420376648805 0.4224152163036269
0000f0 9c f0 02 12 c4 fb cd 3f ca d6 be ec c4 b5 d1 3f
       0.23424578551737774 0.2767193138091498
000100 32 3d 11 d5 9c 57 d1 3f a0 75 6b d3 b1 68 ca 3f
       0.2709724503265135 0.20632002661924975
000110 fc 27 92 a5 fa aa bb 3f 44 59 ce 6d 00 1b b4 3f
       0.10807768385180333 0.0785370128709007
000120 c1 e3 23 7c b7 b7 d8 bf 13 d1 b8 91 ff 8f b2 bf
       -0.3862131798082907 -0.07250973994888836
000130 00 7e e7 a2 17 78 6f 3f 10 94 40 71 7c 0f 9d bf
       0.0038414441726073445 -0.028379387295121516
000140 9c f7 91 35 7a f2 ba bf e6 7a 39 f7 66 0c ba bf
       -0.10526241119256813 -0.1017517427039639
000150 8e ff 35 1b 98 68 d5 bf 53 5b dc f8 0b 82 c3 bf
       -0.3345089212161775 -0.15240621234326088
000160 3f 1a f7 8b 83 00 6e bf c8 66 5b c5 d0 4b a2 3f
       -0.0036623543998957338 0.035734676448283376
000170 96 d1 4e ce 75 03 71 3f 8b 13 b2 f1 6a bd 60 bf
       0.004153690509089 -0.002043446421853228
000180 3c 20 e0 0d 31 d1 d3 bf e0 e8 ba aa ba 6f bf 3f
       -0.3096430430891848 0.1227986018010685
000190 bd c2 5f b3 4b f2 c5 3f 97 98 9c 68 cc d9 c4 bf
       0.17145677813052443 -0.1628966818618138
0001a0 94 21 5d 1f 11 ba b4 3f bc 63 8e 3d c6 44 89 bf
       0.08096415534703844 -0.01233820796351092
0001b0 52 54 85 b4 37 fe c5 bf d1 1a 48 7a 21 c7 86 bf
       -0.17182060541623173 -0.011121999305954063
0001c0 2d c4 2d 18 41 71 b7 bf 11 9c 0a b1 70 51 d8 bf
       -0.09157187309553257 -0.3799707154198027
0001d0 4b ee ca 0a 6c a0 d3 bf f6 4a ac 4e e6 a9 da bf
       -0.3066663842580268 -0.4166198509494018
0001e0 9e 9d ea ac 4c 80 c7 3f db 45 f9 32 c9 dd 90 bf
       0.18360289042651073 -0.016471046196164223
0001f0 a9 b1 bb b5 ea ac c1 3f fb 9a 8d fa f6 dc b8 3f
       0.13808950303736126 0.09712165467281501
000200 f2 0c 5d ec 80 bb 9d 3f 7f 8d fa 6e 7e 18 d2 3f
       0.029035581995469913 0.2827449878479555
000210 71 71 20 c0 74 35 92 bf 5c b4 43 63 0e 0d b4 bf
       -0.01778204367302422 -0.07832422183464999
000220 41 05 8f ec 35 ad c5 bf fa d0 b6 f4 0b 09 b8 3f
       -0.1693484692641878 0.09388804172960255
000230 96 80 90 23 2c 19 94 bf a3 3c 14 89 b2 9e cd bf
       -0.019627275152857303 -0.23140556042969704
000240 b7 cf 81 6b 15 e2 b8 bf 86 ce 87 98 db 84 cc 3f
       -0.09719976305660692 0.2228044981744583
000250 02 73 7f 9a 4c 73 ce bf 3d d6 54 1b 03 b0 8a 3f
       -0.23789365333404794 0.013031029006565048
000260 34 bc 74 44 41 70 c0 bf 3f fc 39 e6 90 cc cb bf
       -0.12842574923112837 -0.2171803592827661
000270 8f 0d 36 b4 80 2d d1 3f 9a 44 85 92 f9 6d ce bf
       0.26840226744408197 -0.23773116735768413
000280 43 f4 ba b8 e5 dc d5 3f f5 b7 9c 17 b2 53 cb 3f
       0.3416075042731032 0.2134916892331941
000290 5e 11 28 24 3b eb d5 3f 7e 51 08 6c cd bc ca 3f
       0.34248236208829563 0.2088867928984079
0002a0 eb 1b 2b cb 2c ea b6 bf 73 bd 74 ed 87 e6 cc 3f
       -0.08951072654882324 0.22578524679691334
0002b0 6e d0 d8 46 ba 5a bf bf e7 8e f5 cb ad 2f bb bf
       -0.12247814397488963 -0.1061962721774382
0002c0 b0 19 2b 92 c8 3e c8 3f e7 33 e9 9d ec 94 c1 3f
       0.18941599976660717 0.1373573084878494
0002d0 3b 7f fa 36 5a ff a7 bf fe 8d 42 4a 8a 52 b5 bf
       -0.046870059214823866 -0.08329071343410274
0002e0 f1 6f 7f 1b 1c 00 b0 3f ef 1d 8b 71 22 b5 a3 3f
       0.06250167533238461 0.03849132190731185
0002f0 e1 0a 82 8b f3 6b b6 3f 85 64 69 4c 66 ad b8 3f
       0.08758470684010035 0.09639586797256257
000300 36 39 2e 34 74 a9 c8 3f a4 f7 51 30 b8 da dd 3f
       0.19267132327917985 0.46647457808273374
000310 9a f7 0f d5 bc ac bc bf a8 a1 a5 cf 68 e8 da 3f
       -0.11201076699941695 0.4204351451685633
000320 c9 5b 81 8b b5 09 d8 3f 6a 3c a0 4b 0a a7 de 3f
       0.37559260009350887 0.47894532571166926
000330 2f e1 f7 69 19 9a d5 3f 10 56 66 d0 21 02 d5 3f
       0.3375304732176287 0.32825513221300273
000340 e3 45 d3 7b 6f c3 c3 3f 16 a4 4b e7 9d 52 dd 3f
       0.15440171762615681 0.4581675299401139
000350 cc 75 3e 39 b1 4a aa bf c7 89 26 ef ab 83 c3 3f
       -0.05135110687045205 0.15245579888603641
000360 eb 2f 47 bb ea 9e d7 3f 56 14 de eb 0e 5e 6b 3f
       0.36907451905130867 0.0033407489235650996
000370 6a 5f c2 9b 3a 78 b5 3f b4 dc 45 42 52 e9 e0 3f
       0.08386579802242769 0.5284816069023663
000380 4e 69 b3 ba 96 46 d8 3f 81 ea 81 fe 86 fd a4 3f
       0.3793083976030588 0.040996759956176916
000390 ac c4 ad 67 cd de de 3f 9d ec 37 dd a0 b8 e5 3f
       0.4823487770546062 0.6787876434967931
0003a0 74 c8 46 6e da 4c c3 bf 3d 25 e3 54 88 07 d9 3f
       -0.15078287491411724 0.39108475007795446
0003b0 5a af b5 3b 3a 88 e1 3f 89 a7 e1 33 4b 25 e3 3f
       0.5478793302731717 0.5983024609861199
