TRAINED/xml_train.pt (torch, 357959 bytes, 19 tensors)

weight f8 [114, 20]
00000000: 8a9d aa9e 06f6 0fc0 aaaf 2e9d b10a fabf
00000010: 0812 492b ce0d dfbf 951f 0835 c69f e1bf
00000020: 6fd7 d6c7 58c7 f83f d29c 2518 e175 f83f
00000030: a231 77b7 96de e4bf 2fb8 7268 54b7 0bc0
00000040: 3082 0fab 3b0b d93f 7f0c ffe6 22a2 e7bf
00000050: 1616 af19 2561 f93f d004 5c0f 1f75 f33f
00000060: f274 d94c ee4d d73f eb20 762c 69cc 0240
00000070: eeb2 e0d3 dd81 0040 4bca 2b40 b086 f2bf
00000080: 4064 e747 64af 01c0 3221 7a00 a28f 02c0
00000090: 2c27 5d7c 7da1 f93f 6131 15c1 b724 0240
000000a0: 323e 48c6 f1c9 fa3f 069d 1a21 830f 04c0
000000b0: 1cba 2f74 950b e6bf 167f 491d 1875 ff3f
000000c0: 46fa 38bf afe3 fb3f db74 2eb9 cb8a dd3f
000000d0: adba 85f9 ac41 eb3f 3651 8b31 111c 0340
000000e0: bc41 02b9 2c79 0740 e116 947c 4e61 0240
000000f0: 9184 3949 af86 e83f e313 df24 e55d 01c0
00000100: f365 5a71 61ce 01c0 8d74 e2af 164e d5bf
00000110: 98ba 2b7a 7795 e3bf 14f0 64f4 4871 e03f
00000120: 96d0 d53f 58e5 ff3f db1f ff44 23ca e33f
00000130: cd24 e9d6 1aee f13f 5336 9c32 4ded e6bf
00000140: 8d2b fc8c 6325 f8bf dd2d 1a53 32e5 e93f
00000150: 74f8 f210 e4a5 e2bf 3bb7 452c ab5e e1bf
00000160: cc65 297b 0b85 c63f 7194 6c5f 76bd 0b40
00000170: 637c d911 e849 f4bf 6d29 bf9e a264 01c0
00000180: 0309 338b 30f9 c3bf 958d af1c 9b4d fe3f
00000190: 6103 bc8c 6d69 0240 0f67 fa25 8745 e73f
000001a0: abac c6ba 610c ebbf b101 cf3d 6663 f5bf
000001b0: bd0b d2a1 e35d f13f 53e8 2fde 65f8 05c0
000001c0: fc28 aa30 2c15 d0bf c720 bd3f 7c41 f13f
000001d0: a142 38e1 0c3e fc3f 059d 57c2 2974 1140
000001e0: 956a ed2d 1a8e f0bf fc79 225b ee68 d0bf
000001f0: df78 32d5 e6f5 0640 4bba e1e5 dcb3 c8bf
00000200: 2920 a66f d92d e2bf 1030 29d7 67a2 fa3f
00000210: ca06 f162 d831 cd3f 1ad2 0d97 0f98 fb3f
00000220: 69fc fd7d 3abe f0bf e84f 9734 542d 0740
00000230: d9a7 cac6 fdd0 a5bf c46f 1046 8ba4 c3bf
00000240: 4a56 039c 98b5 f9bf 6dd2 cf14 e2e5 c4bf
00000250: 79b2 8c30 b54e d7bf 7874 1105 d4b6 e3bf
00000260: 923d 8745 4e5f fdbf b6c2 a6ca 7114 0240
00000270: 95d3 4dfc 6c50 a93f 5501 3681 0c23 e1bf
00000280: 59e9 ed16 7b2e d2bf 7ef4 e606 d416 ec3f
00000290: e9d1 f772 f7b8 e4bf a899 6d87 1887 c83f
000002a0: 3c4f 017b a285 f03f ba0c 0b83 3aca cabf
000002b0: a327 2af8 c32a eb3f 5efc eb77 3490 e13f
000002c0: 3ed1 7db1 f7f2 dbbf e8ac 65d9 25f2 0340
000002d0: 4ef1 1a1d 290e fbbf d965 f129 10c6 cebf
000002e0: e74a e282 2d5b ebbf f4bd f13a e75a f2bf
000002f0: fbbb 5936 beb3 cc3f 8e46 519e 80d3 ec3f
00000300: 7a03 be6d 3748 f73f 6454 3d71 02b6 f2bf
00000310: 1eec 5c44 e9b0 c33f a82e 53ea 1abd e63f
00000320: 4686 75f3 3f99 07c0 1ce4 6860 4d94 fdbf
00000330: 4b32 172a 0519 fbbf 553f 7479 a056 e23f
00000340: ab55 2c29 8faf ccbf c039 927a 5b0e f2bf
00000350: 910e eb7f d2a3 0740 7ef4 6d20 4437 f6bf
00000360: cd2a 4579 e2b3 0540 39b0 d859 906a febf
00000370: 125e 25eb 80f0 0040 68a1 b0f8 25c9 02c0
00000380: 7b60 20a0 c344 fa3f dc77 aa97 4c1e 10c0
00000390: a40a 1f75 7595 e9bf 4b17 04f8 bd3d 01c0
000003a0: c0dd 2cc3 afef 0440 9e49 1ac5 0b4a f23f
000003b0: 12f4 e63f b759 e4bf e70f b1f5 bc44 c23f
000003c0: 57eb 6e58 a1ff dbbf 3ce0 8fd9 e3f5 f1bf
000003d0: 5555 03cd 5af7 0240 1775 ba67 ea5a 00c0
000003e0: 8b92 f4d4 b300 e5bf 60d2 1745 1d29 e83f
000003f0: 7614 4972 eb9c 0040 8c19 5b16 f276 0140
00000400: 3793 9803 6809 fbbf 9977 1fb6 c307 eebf
00000410: 06e0 9646 8731 00c0 422b 8ec2 cbe0 f13f
00000420: 73a1 4c73 9146 c03f a300 4c87 cf7d e13f
00000430: 0ffd db69 acf9 0240 346b f85a 9d98 fabf
00000440: f700 b677 a5ce e23f 16aa 48d7 334c f8bf
00000450: af82 a8a7 2800 f9bf 39e3 f400 f3cb f9bf
00000460: 014d 4aa8 9b19 d9bf 2e21 4107 e5f3 e6bf
00000470: fa75 0c4c 347a bf3f 197d 78a1 0fbd b4bf
00000480: 391b dd8c 3375 edbf f4c5 383b 4d19 c5bf
00000490: b084 2e98 aa31 c73f 1d12 333a 1313 ed3f
000004a0: 3bf3 56b8 4ad6 cc3f 9ea7 8a65 f1d5 dc3f
000004b0: 67e8 f384 0b82 b0bf 6c6d 5e3d 1a13 e03f
000004c0: 7f27 6ad7 b435 b7bf 99d7 29e8 337e e6bf
000004d0: ed74 9f0c 8243 f8bf f738 b275 8a27 e23f
000004e0: fa61 141b 9acb f2bf 240f eb91 d9f3 ee3f
000004f0: f876 e38f 396d e3bf 44bd 5266 0ce2 cbbf
00000500: 95d6 8b47 f388 ed3f aae1 ffd4 ac90 00c0
00000510: d375 16c1 3e7b f1bf 2b9f ecba bade f83f
00000520: e819 f2e6 7477 0540 2894 84df ffb3 e5bf
00000530: dc0c c535 00f1 0440 63fe 18c3 156a ed3f
00000540: d3bb 22d6 ef80 e93f ad89 2cac eb4b dc3f
00000550: f2c6 3c73 070d f7bf 2a3a c399 4d78 ea3f
00000560: c098 caa1 8b81 c4bf 2a9f d8bf b2d4 f7bf
00000570: ab01 b3f2 f8eb e3bf b4fb db96 7b1f 11c0
00000580: d7c4 f60f a066 f1bf 1f15 bc04 bbbf f1bf
00000590: 539b e510 de9d f4bf e191 e4c5 5ef0 f63f
000005a0: 668c 0bdc e2c7 ecbf 1dd3 72ee c9f8 e13f
000005b0: a97e d1d2 f182 ff3f e495 29cc 5113 f13f
000005c0: 0adc 73db bbb9 75bf 6c4c 1e7a a3ba 01c0
000005d0: 9b5b 09ef 4964 ef3f 8558 555a 7370 fe3f
000005e0: c7af 4931 981e d4bf d2ca 7314 914e 07c0
000005f0: ea58 7bb1 c695 e7bf 05ca 43f2 997b fabf
00000600: 5c49 73de eaaa f6bf 4901 5123 8b15 f93f
00000610: 33b6 ceff 67a4 a4bf 535f 635a 9b12 cb3f
00000620: df45 05de 215a e13f 31ea 31a4 9b8d ebbf
00000630: 841c 2856 0734 d5bf 591a 68fd 4ae2 f13f
00000640: 2199 22e7 106b ed3f a547 26a1 6f0d f3bf
00000650: de63 379f c0d2 d0bf 7bde a54f 4029 f33f
00000660: e977 0b03 38a1 f3bf f855 846a 82de 03c0
00000670: ef6d b206 e5ce d73f 587b cd2d 44d1 02c0
00000680: b700 b1e4 44a7 fd3f 07b4 3588 c351 d93f
00000690: 1901 cba2 5269 0340 cead 803f 9111 0140
000006a0: a204 e561 14f4 e1bf 7aaa 1506 217a fa3f
000006b0: 7856 5531 8f3e bc3f 360f d764 8f80 03c0
000006c0: 316e 24b0 77bc d23f 61ae b813 eae5 e23f
000006d0: 3884 d26d e802 c5bf f477 c06f 3274 eb3f
000006e0: 2542 6bb0 8189 d13f 5a6d dad7 d5dc b7bf
000006f0: e40d 10c1 e232 cabf 40b0 64e8 5ff9 d9bf
00000700: b7f9 26b7 798e d53f 4001 301e 2afb fd3f
00000710: 2581 f6c6 3428 bf3f 5bdf 05b0 23d8 973f
00000720: 17b9 e219 e703 bc3f 1521 d3e6 a369 d13f
00000730: e342 4afb 1e13 d33f 9918 68dc 9272 f7bf
00000740: ce76 1eca 35fb cb3f ad35 06ee 88fb af3f
00000750: baec 2b81 10f9 cbbf 054e e4ba ec57 f43f
00000760: 452e e831 5269 f7bf 5b02 3834 bfe8 f23f
00000770: 47a9 6fc0 d852 e63f 754e bb10 3f16 f3bf
00000780: 2359 a7bb 8c49 07c0 e2d4 6e62 f962 0fc0
00000790: ccee 3593 7e73 b93f 3be5 2574 b6f7 f5bf
000007a0: 9fc9 441f e955 0840 2d73 96bc 70cd f03f
000007b0: 4aa0 0ff3 0392 0440 46c1 89ef 448d ec3f
000007c0: 78e3 513c 9717 e2bf f16c aed4 5f48 f73f
000007d0: 4ee2 7fcf c001 cd3f b864 6a48 ae3c d8bf
000007e0: cb23 b121 3f13 f6bf 6520 a318 cfbb e6bf
000007f0: 196c 8033 8a10 0140 85d7 98f8 f3cd db3f
-3.9951298137490925 -1.6276107921539542 -0.4852176115712443 -0.5507536922241224 1.548668652173969 1.5287791198004936 -0.6521714766800424 -3.4645164642343143
0.391310612727497 -0.7385420333524876 1.586217022254805 1.2160940742472128 0.36413152222469514 2.349809977869986 2.0634113839099575 -1.157882929485498
-2.2106404893388856 -2.320133212782957 1.6019263132061026 2.267928608378654 1.6743028397940063 -2.5075743280646092 -0.6889140385881691 1.9660874504115262
1.7430875272399518 0.46159642299774156 0.8517670510753611 2.388704669059872 2.934167333012935 2.2975129826253213 0.7664410047692788 -2.1708472138002306
-2.2257717948639253 -0.3328911512015303 -0.6119954477452039 0.5138287328077262 1.9934923642695472 0.6184250209416818 1.1206310648870386 -0.7164674747925325
-1.5091281420925242 0.809228098210436 -0.5827503520047359 -0.5428062309926881 0.17593520654445027 3.467510934353918 -1.2680435845611775 -2.174138298233791
-0.15604216381877486 1.8939467545068045 2.3014784808041644 0.7272372953186464 -0.8452614448518906 -1.3367674269103242 1.0854221650231317 -2.746288047635099
-0.25129227402125287 1.0784876336856983 1.7651490018508087 4.363440548512931 -1.0346929353751524 -0.25640448474760524 2.870069184878147 -0.19298897957510727
-0.5680968456881647 1.6646498112413646 0.2280836566078988 1.724624242834699 -1.0464425012176213 2.89713326536911 -0.04261010219245493 -0.15345898552993564
-1.606834992814941 -0.1632654763813152 -0.36417894116565425 -0.6160678957927663 -1.8357680049847187 2.2599826652661603 0.04944172458537036 -0.5355284236575623
-0.2840869640273432 0.8777866492088291 -0.6475789304227507 0.19162279713345964 1.0326256565940204 -0.2092965259417719 0.8489703986135634 0.5488531439040221
-0.43670456250335465 2.4932362541345476 -1.6909571778224577 -0.2404194073485957 -0.8548800998999838 -1.1471931746017363 0.2242353215583249 0.9008181659830414
1.4551309859091064 -1.1694359229489004 0.1538364013484576 0.7105841232928087 -2.9498290081253655 -1.8487066045765976 -1.6936084407963274 0.5730745670461866
-0.22410764227303778 -1.1285052097260717 2.9549913400276826 -1.3884927050378617 2.712834308074298 -1.9010165700556299 2.1174333925989766 -2.348216956034026
1.6417881255092925 -4.029589051990083 -0.7994944846653493 -2.155147493004653 2.617034458929737 1.1430776309322037 -0.6359516380395027 0.14272272106802505
-0.43747743259489397 -1.1225317476764891 2.370778657592988 -2.0443924049165036 -0.6563357505115887 0.7550188397859294 2.0766209534218047 2.1830789324332667
-1.6897964611500365 -0.9384478146637206 -2.0241837992471146 1.1173818206613793 0.12715356950617326 0.5466077463643341 2.3719108839283147 -1.6622594407587714
0.587725385485128 -1.518604126884957 -1.5625387715482864 -1.6122922932974701 -0.392187990518508 -0.7172722951591248 0.12295843941361531 -0.08100984279780156
-0.9205568076366496 -0.1648346461457063 0.18120319777248062 0.9085785042485132 0.22528966904601497 0.45055804172681657 -0.06448432918469536 0.5023318480120174
-0.09066324481150721 -0.7029056105081849 -1.5164814465600174 0.567326764941554 -1.1747075135991722 0.9672668313946571 -0.6070831117937976 -0.21783595081567786
0.9229675671947059 -2.070642150935062 -1.0925891439904845 1.5543772985201467 2.6833284418710157 -0.6782225957473473 2.617676181865688 0.9191998301029795
0.7969893629395933 0.44213382543434926 -1.4406809331380228 0.8271854403663543 -0.16020341300936103 -1.4894282812110284 -0.6225552311153043 -4.280744893242559
-1.0875549911109397 -1.1093092141102898 -1.2885418567691047 1.43368413259406 -0.8994001672512126 0.5616197259138037 1.9694689021197667 1.0672166800589986
-0.005304082696276255 -2.2161321201797843 0.9809922856028267 1.9024537590644581 -0.3143673402144 -2.9133626554333683 -0.7370332209054855 -1.6551761115521242
-1.4167278947321256 1.567759645418919 -0.040316820122239604 0.2115053359364035 0.5422524772968095 -0.861036129659004 -0.3313005772947195 1.1177472971627564
0.9193195833547955 -1.1907802863029044 -0.2628633074614849 1.1975710974928961 -1.2268600577294768 -2.483647186435288 0.3720028462791722 -2.352180822213466
1.8533371861704333 0.39561546613441617 2.4264271467401497 2.133577819933385 -0.5610448753360695 1.6548166501694639 0.11032957987239367 -2.4377735021716047
0.29275314523121937 0.5905657181915097 -0.16415124285143334 0.8579342062619149 0.27401773670593094 -0.09321342964033388 -0.20467791010751946 -0.4058456201044045
0.3368210114093943 1.873819463653561 0.12170724732869027 0.023285443895900353 0.10943455106710008 0.27207276860691937 0.2980420545582502 -1.4654720887788584
0.21860382432071507 0.0624659338528589 -0.21853834445196246 1.271465997739939 -1.4632131528368444 1.1818229713245703 0.697613120891483 -1.1929312375622463
-2.9109129581876387 -3.923327225692092 0.09941855520258541 -1.3729767357857117 3.041948551451426 1.0501563421923479 2.5712965954917637 0.8922447851637478
-0.5653797319529152 1.4551695163598277 0.22661600238622487 -0.3787036616500461 -1.379698878869237 -0.7104258996196334 2.133076097828518 0.4344453742700057

weight_ih_l0 f8 [120, 20]
00000000: e36b e628 882e f33f 7ead d4e7 cb9d fb3f
00000010: b83e 6893 e1e4 e7bf 91c4 5a34 f058 edbf
00000020: 504a 1fd0 7237 f33f 18b2 08ca 7290 fcbf
00000030: 0d6f 8517 d401 f0bf c0ff 9759 0771 d93f
00000040: c7ea 0265 6a0c f1bf 9854 d316 4b13 f63f
00000050: 4bbd 07b2 9797 e8bf 8478 d7b9 8855 e23f
00000060: 55ce f025 5b0a e43f 6691 a438 f50e ec3f
00000070: 7a18 191f 5054 f0bf 36f5 91a2 eecd ff3f
00000080: 9c46 9fe0 e6e7 bf3f 93b3 e93c 2563 d5bf
00000090: d59a a686 b2aa f13f 50c7 ac16 ae7e d5bf
000000a0: 9b10 8796 d3c5 d23f 7c23 1f82 014d dc3f
000000b0: 43b2 03b4 4fe5 d73f dce9 a97c 59fe e9bf
000000c0: 7bbc 2fb8 1c80 e6bf 4517 c48a 871f f93f
000000d0: f0bc ad55 6f9a edbf 6a1d 13df f3b2 cbbf
000000e0: a1ba 3bba 98bd ddbf a350 9c6b fa2c e3bf
000000f0: cb59 afba e984 bebf 38cf 07c7 46f2 d33f
00000100: 0096 d2f7 0898 b03f 6eda 767a 443f e83f
00000110: 8782 9209 ba7f e83f f76e 99fe 9e3e e3bf
00000120: ae15 dd57 ce3d e2bf ef06 61b1 4f8e e13f
00000130: 33d4 5028 460f e7bf 29f5 8295 776c 00c0
00000140: bb24 dddf c62d da3f cabb e4ea e2c6 e03f
00000150: c784 e058 ce1a d83f 3ae7 9a23 c45c edbf
00000160: e9b2 e2de 420e ffbf 13b0 4fa7 ffc6 eabf
00000170: ba70 f22c 9433 d6bf 8762 1806 7b18 e63f
00000180: 1e99 d07d 0424 03c0 ec47 b5fd 2d9c ee3f
00000190: 948a fd57 8d62 f1bf 07a0 caf1 a536 c3bf
000001a0: 7560 844d 4333 d03f 4bb8 9dbd dfe9 e93f
000001b0: 132f 802a de3f e8bf 96c1 8de1 c3ce db3f
000001c0: 0755 1f29 a6e9 c73f bad2 8182 ef6a d4bf
000001d0: cd6a 488c 6a3d e6bf 9756 629a 97d3 e6bf
000001e0: 15e0 73de 8f77 e4bf 0326 8ad0 a7da f8bf
000001f0: fea5 bb88 8b47 f2bf b4f1 a505 66c1 e8bf
00000200: f708 8e67 139c e3bf 25eb 8f9e 6b0a aebf
00000210: 3165 57c8 a497 ac3f 4576 40ac 2e39 f0bf
00000220: f376 7b7a 18d0 e7bf f22e e7b7 12fa e8bf
00000230: 314e 1a3c a055 e13f ddb4 67cb bc25 c33f
00000240: 4e0f 1a61 599a ff3f 7666 139b 1806 ea3f
00000250: 2015 3c32 d029 d9bf 1b05 ab53 2ed7 e73f
00000260: 9b73 f9fd 04f8 b2bf 067f adae cdc0 e9bf
00000270: 6d91 2f8f 81e6 b13f feba 1899 1c99 dc3f
00000280: 8e56 1979 8fbe af3f 6f4e 1661 1ec3 c6bf
00000290: df68 02aa 4a1a ea3f 283b af12 305a f3bf
000002a0: df35 cf0e 8089 c0bf a9eb e982 bc21 e23f
000002b0: 4d94 0608 727b ee3f afd4 4097 d1f4 aebf
000002c0: fdff c8eb 33f4 c53f e45b 626d 4cbd f3bf
000002d0: 1ba9 68c9 aa45 d1bf 883e 1d17 eac4 9fbf
000002e0: 5f70 e422 bc33 c63f 5cfc ca3f 5e26 ddbf
000002f0: 9e6c c8c7 ba4c e3bf 0715 2a10 aafd ea3f
00000300: 9731 10c9 a1d5 d6bf c451 7d96 0b29 d23f
00000310: 1936 9cf2 5ef5 f3bf cf87 b128 5b46 e4bf
00000320: 55cb 9ff1 0e6a a03f 2c2a bd32 fbbf f1bf
00000330: c874 0396 aa84 d0bf 0750 80f0 37b9 893f
00000340: f646 d538 3bfc cebf 35db 1051 6d4f e63f
00000350: 505d fb97 cbfe d1bf 590d 0914 6ef0 fcbf
00000360: af78 9bbf bbe3 cabf a7aa da94 e3ec d2bf
00000370: 7b28 9982 f0b8 d13f 4e40 b9f5 dcfa e73f
00000380: 7a46 0cfc d004 fb3f e833 0a0f 03a4 f73f
00000390: e5cb a704 cb21 fc3f 03d3 fbce 27f5 d6bf
000003a0: e718 fd17 8ea5 b13f 63e4 711f cc84 d2bf
000003b0: 63ca ce73 6560 d83f d37a 2afa d9ff f13f
000003c0: b20d bea5 1b7a f3bf 1961 7325 011c dcbf
000003d0: 3e3c 5295 b81a dfbf d3f9 9f22 6103 fa3f
000003e0: 8502 3284 71a1 debf cd5c 1f3b 0726 f8bf
000003f0: 2392 b2fa 7d6c e33f 03da 19eb 021e df3f
00000400: 9c2c 7f85 758e a5bf 5ee7 0b85 a195 d13f
00000410: b793 35a0 9e41 d93f 6111 747c 5acb 06c0
00000420: 84cc e471 a2af e53f 9086 2ee8 4d7f bb3f
00000430: e558 aea9 4f6e 0340 d8a4 5102 9f36 fdbf
00000440: 9b9f d8cb b8d7 fd3f f3fc a7c7 abe2 c13f
00000450: 30e5 8295 fadf ec3f c4c9 bcea 9dbf e53f
00000460: 4634 99cb 095a b23f 365a cbfe bbfb c83f
00000470: 5929 417d a42e ddbf eef0 35f1 cf70 b6bf
00000480: a40f cc5c 994e dfbf 9541 db78 3fbb d53f
00000490: 5b35 3898 cf6d 0440 2f25 fee0 44b0 ffbf
000004a0: d5be 16c5 c2dc ddbf 7dfa ccdb e7e5 abbf
000004b0: 087e e386 b918 e13f 384b fe37 1e8e de3f
000004c0: 5f13 7f69 10cd dc3f 4901 d293 4137 e0bf
000004d0: e9c4 ca2a a356 e03f 066c d15e be04 0240
000004e0: c0ca 82c6 8d88 cabf 67a7 85ac b06e ef3f
000004f0: 79fe ee99 11aa c7bf d068 f58f 07ce e7bf
00000500: b93b 72e8 b3a7 843f fbaa 1020 e50f d3bf
00000510: f932 9dd5 873a cfbf 416e a981 8d32 ce3f
00000520: d36e 96c7 3b34 e03f 423e 2508 4760 dcbf
00000530: f39a 7c0a 2b76 fc3f 8f5b 9c9c 9d97 d73f
00000540: da5a 1baa 291b e13f 3dd2 7fdb 4d64 d43f
00000550: 4761 7e97 2a42 f1bf a694 18ee b719 f03f
00000560: dd32 7902 f3b6 f13f 6e1b 3b7c 63f1 e13f
00000570: 37da 70d4 e2a3 02c0 bcec 0683 b470 eabf
00000580: 8298 7402 5930 c5bf 8e0e ecd1 7328 a03f
00000590: 5dc6 ca44 23e6 c7bf 8a58 1c8c 6404 ecbf
000005a0: 6cd9 573c 0f39 de3f edf6 e5a0 ed92 e1bf
000005b0: 7d3f 849d cd07 93bf c5fb 0272 d39f cabf
000005c0: 8bed 3271 76ec d43f 9c9e 90e4 1d56 e1bf
000005d0: 9151 2735 259c fb3f b95a 1061 41fc d4bf
000005e0: 834d a66a 34bd 62bf ff3b 1705 2554 ecbf
000005f0: 0904 ecd4 89b9 c13f 8551 7b76 8fa4 f43f
00000600: e0f2 9fca be1a f23f 7fa7 d2f7 46af d1bf
00000610: 2fae c7b2 7b5d e0bf 1e21 cb25 2e0d f23f
00000620: fcb7 19af 5802 ecbf ab6a 0f0c db53 f1bf
00000630: df8a 2e49 d2b7 a6bf 5783 a9ce 4cfa fdbf
00000640: 2212 dad0 4456 edbf 7414 9280 911b e83f
00000650: 6630 9718 f0af 993f 62f0 edb0 3f06 c4bf
00000660: d352 130f dbb0 d43f 0183 8f54 8944 e6bf
00000670: bb5a 8c3d 6548 80bf 6835 f657 cd80 813f
00000680: c045 d750 3033 d73f 3c89 3487 b7f7 f6bf
00000690: 0a00 6bd8 7006 f4bf 5fc2 0c57 0bc4 8abf
000006a0: e710 308c a57e eabf cf30 1abd 7cbb e7bf
000006b0: dc05 5041 acea dcbf f4af e38f f8db f03f
000006c0: c209 3186 b28b c93f c354 a6ef 5519 e6bf
000006d0: fb0f 5da3 0f5e 01c0 e700 b781 a807 98bf
000006e0: 63ae 6c6f f752 f8bf b85f 51d0 6f4c ecbf
000006f0: 0367 66e5 0acf e13f 0b3b 864b 51d8 f23f
00000700: 9c76 83d9 42ca c83f 2e28 1b72 ed93 fcbf
00000710: 2631 9382 4dc7 f0bf c54e 7cdd 9a45 bbbf
00000720: 4aed 05b9 2e17 f33f cec4 94e7 86c3 e53f
00000730: ea03 f0cd 0673 f83f 8bb2 deab 60a7 dfbf
00000740: 42c1 a21c 5e61 e43f 8d70 ce8b 3972 d9bf
00000750: 4419 973e d07f c93f f843 8a73 43f1 d2bf
00000760: 9e48 79be 3d70 acbf 367e 588e 3114 efbf
00000770: 210a d4f2 ec27 d23f 0e3a 3700 3670 0540
00000780: ee61 5230 ecb6 d83f 91f3 9280 6774 d4bf
00000790: 21b6 ac4e 8386 e93f d493 1c1d 2806 01c0
000007a0: a44f 70f9 cde8 b53f 0e5c 6a60 f499 debf
000007b0: 4750 aaae 92be 0640 4b54 9b60 826a e63f
000007c0: 2df5 2070 273f edbf 4054 d7fb 6d2e c83f
000007d0: 88b5 efef e010 b4bf 9691 c271 f460 fc3f
000007e0: 86dd 32df d7e1 f33f 4230 fc42 a822 fa3f
000007f0: d66a e837 9761 e7bf f962 b67c 1bea e8bf
1.1988603208217163 1.7260245376481573 -0.7466895941779148 -0.9171067259359394 1.201037228562786 -1.7852657215072494 -1.0004464072034722 0.3975237250269821
-1.0655311532743086 1.3797102824803797 -0.768504951205537 0.5729411725731244 0.6262641659763611 0.8768259149842776 -1.020584222294501 1.9877764082332994
0.12463229164066053 -0.3341763586857322 1.1041741618916394 -0.33585693563792507 0.29332437229118974 0.4422000666350454 0.37337105350050964 -0.8122985300863621
-0.7031386945144641 1.5701976223512741 -0.9251019166385088 -0.2163987006408477 -0.4646970575985652 -0.599240503479923 -0.11921559150446297 0.31166238247464007
0.06481987047535398 0.7577230827217372 0.7655916392287317 -0.6013941738742393 -0.5700446811758206 0.5486219849046544 -0.7206145083824879 -2.052962463435183
0.40904399739936154 0.5242781245959744 0.3766361110629756 -0.9175739951526574 -1.9409817415682318 -0.8367918269918867 -0.3468981207786431 0.6904883498237532
-2.39258669178811 0.9565648989903344 -1.086560577118381 -0.15010523134446904 0.253128839206972 0.8097990706862758 -0.7577963667003779 0.4344949438737101
0.18681790359429604 -0.31902683014713384 -0.6949970950984948 -0.7133291259112465 -0.6395949692514501 -1.553382696731547 -1.1424670544751048 -0.7736082182232651
-0.612802221541897 -0.058673251252875404 0.05584444947789747 -1.0139605263315314 -0.7441522972328286 -0.7805265037399904 0.5417023824579187 0.1495891564549429
1.9751828949965389 0.8132441548179503 -0.3931770792554108 0.7450172075406586 -0.07409697723910684 -0.8047855769800385 0.06992349382159598 0.44684519720878757
0.06200073579081532 -0.17782954922278146 0.8157094307419149 -1.2095185022223607 -0.1291961738883591 0.5666182095441076 0.9525690228225671 -0.06046156855919926
0.1715149785322864 -1.2337154648610005 -0.2698771445162877 -0.031024606381207437 0.17345382407882234 -0.4554668066957157 -0.6031164075860891 0.8434648814879048
-0.3567890609272352 0.2837552041649156 -1.2474050023041683 -0.6335883898539069 0.03205916118158451 -1.109370420645642 -0.25809731149440696 0.012560307528509907
-0.24207248950056454 0.6971956809346468 -0.2811764702032251 -1.8086987288123366 -0.21007487159562774 -0.2957085565237016 0.2769128108381051 0.7493729399957461
1.6886758657095968 1.4775419795507734 1.7582502538541516 -0.35871310437441667 0.06893241964016604 -0.2893553073004737 0.38088356313088506 1.124963738642397
-1.2173115228950846 -0.43920925767226177 -0.48600592214728866 1.625825057271517 -0.47860372457220307 -1.509284239718727 0.6069936653553366 0.48620675047951084
-0.04210250143622682 0.27475774758169347 0.394630104498272 -2.8492936823769672 0.6776897644507618 0.10741125982760935 2.4288628822642857 -1.8258352366049646
1.8651664698354355 0.1397299504169279 0.9023411674635664 0.6796407303539174 0.07168637486138704 0.1951823228943838 -0.4559718344868507 -0.0876588786977128
-0.48917230665414935 0.3395537071455917 2.5536186115411232 -1.9805344380168426 -0.4665991711326403 -0.054488416272296704 0.534268153623942 0.4774241968927302
0.45001611997968455 -0.5067451369396078 0.5105758510382233 2.252316227689792 -0.2072922915736708 0.9822619790622696 -0.18487758652007694 -0.7439000903789523
0.010085492640682025 -0.2978451550613241 -0.24397371225713707 0.23591774779457533 0.5063761614032621 -0.44337631030518676 1.7788496408117538 0.3686288861658164
0.5345657656096947 0.31862207828024564 -1.078653899929195 1.006278925001689 1.1071653458231403 0.5607163835892217 -2.3300224873485393 -0.8262579497453753
-0.165537954520179 0.031558627486473076 -0.18671074732769713 -0.8755362259423844 0.4722326363838849 -0.5491855757279304 -0.01858445428757659 -0.20800250117278388
0.32693253569205954 -0.5417623008879278 1.725621421462254 -0.32789644698042825 -0.002287485481426267 -0.8852715587071315 0.13847468277529654 1.2901758793060207
1.1315296092063178 -0.27632307244731885 -0.5114115230366617 1.128217837935217 -0.8752864284449511 -1.0829725714781187 -0.04437119620640372 -1.8736084053745878
-0.916780860818623 0.7533652793068897 0.025085212231531172 -0.15644069804318678 0.32329441520896046 -0.6958662654470517 -0.007950583401492897 0.008546451804046298
0.3624993123495095 -1.435477760453593 -1.2515724614931991 -0.013069237321901626 -0.8279597986261508 -0.7416366284756125 -0.4518232953851944 1.053703844135268
0.19957572510072735 -0.690592735353356 -2.1709282648826025 -0.023466713826338383 -1.520255503894895 -0.8843306606968246 0.5565237503498967 1.1778119039697141
0.19367251988199008 -1.786115117766268 -1.0486579037270274 -0.10653083712923735 1.1931597926585078 0.6801180384701639 1.5280826610980918 -0.49459091934367255
0.6368856963436331 -0.39759672787636974 0.1992130570999483 -0.29597555430615285 -0.05554383230323022 -0.9712150364102345 0.2836868640298765 2.6797904984334826
0.3861647102253575 -0.3196047549825432 0.7976700340856874 -2.128006198343863 0.08558356609165557 -0.4781466428334519 2.843053211758192 0.7005016218996699
-0.9139592351927256 0.1889169196789755 -0.07838254792996768 1.773670620322354 1.2426375120829518 1.6334612480741417 -0.7306629268599305 -0.7785775600233072

weight_hh_l0 f8 [120, 30]
00000000: 1354 becd ccfd e0bf fd47 1544 31ad d9bf
00000010: f708 3515 dc79 f0bf 52c0 0e06 12a4 e7bf
00000020: 4e0d 5297 d01e f3bf fb42 47c2 2a49 dbbf
00000030: 6e6b c9ce 607a c03f 2d1b 7aa3 0b91 dc3f
00000040: 7ea5 e269 1de0 efbf 362c c468 531a f1bf
00000050: 72d1 1062 19cb ec3f b75b df15 695d f23f
00000060: 03fa 3ea7 ab0e d7bf 05b3 4f9b ef86 f33f
00000070: c768 d685 bacf d0bf bee9 8e85 1cf9 f83f
00000080: 5c16 4c9f 721e d9bf e13a 2d16 83b1 f5bf
00000090: 45e2 e2eb 7e50 f93f 8aa9 0877 9d57 d6bf
000000a0: 9484 5121 7cf9 da3f 8f65 f1f0 1618 edbf
000000b0: 7790 c64a ae10 0540 f851 7f32 cda8 f4bf
000000c0: 0e43 5338 fe31 f83f 5fdd 6f08 aaf1 d8bf
000000d0: d409 4c70 6ba3 e1bf c266 31f8 3c89 bc3f
000000e0: fe71 b3d2 681a ed3f 6fc3 5aba 6502 e83f
000000f0: dc61 56d9 7da6 f6bf de58 71b8 af57 eebf
00000100: 53d6 27c1 23f0 b7bf ac02 9957 95bd f63f
00000110: 9e18 c30f a5ea ad3f f703 b3b1 4e6a cebf
00000120: 3fc4 3db3 5866 e53f 0d5e 19b2 1cc7 d0bf
00000130: ee1a 587e ee9b eabf d87d 0530 da0a c33f
00000140: 6325 c771 0efe eb3f 312f 1601 bcc3 d5bf
00000150: 160b 170a 8daa e2bf 843f fae2 0c78 ee3f
00000160: 3386 59d1 f97d bf3f e370 92a6 28da e6bf
00000170: 47a5 ad0c 60ee ab3f 368e 1eb6 a3a2 c73f
00000180: ce24 3f91 013b f4bf e6fb 9a61 3c71 da3f
00000190: a410 d18a 5523 f3bf 9c6c 6ee3 b8d3 f1bf
000001a0: 02d7 f0ef 5cff d13f 7854 1795 e3c9 f43f
000001b0: c9cd cd8c 282a d7bf 7c3a 0ad1 363c f6bf
000001c0: 1f3e 8499 1e3c d53f 23fd a468 984e d93f
000001d0: be53 4cc8 c821 bfbf ae1b ca27 755c d3bf
000001e0: 4fcc 100f 8db7 e2bf 58f4 687e 1fbf f63f
000001f0: f2eb 3d93 3fb8 f4bf 2623 32b7 7b6d 02c0
00000200: 2a7b c57b bb15 dabf a045 9fff 6263 ebbf
00000210: c0bc 52bd adbc 92bf 3a80 4de8 c9fc ca3f
00000220: 9d1f ff70 d2eb e23f 9cf2 d8dd 2e1d f1bf
00000230: 9a39 ee63 7b05 e23f ebe4 cb5b b97a e3bf
00000240: 9467 ef27 de87 e63f 1c2c 2ad8 d16f db3f
00000250: c391 d664 7676 ea3f f4b3 c8b0 eace ccbf
00000260: bb39 3e4d aad2 f8bf ce51 f97c 6a86 ef3f
00000270: bdb1 108f c478 f2bf fac1 e506 c8e2 cf3f
00000280: d7e7 5909 18d5 c03f 71c6 2f4a b6ef d3bf
00000290: 19e5 d57a 50a7 d83f 3418 84e1 b895 aa3f
000002a0: e79e 68bb 3f2b de3f 8f2a 175e f113 00c0
000002b0: 04f9 513c dcb0 fd3f 49b7 a260 2347 d93f
000002c0: 253f 624e 8015 ecbf f1e3 0d7d fefa e73f
000002d0: ddb9 8046 0e9c d13f 5160 6cbb 6279 eb3f
000002e0: abbe 2ea6 6a9a f13f fc93 58e8 b26b be3f
000002f0: e446 0aca 0b14 dc3f f883 9b78 7a47 a53f
00000300: c34d 211e 627e f4bf f2ef e290 0f21 d6bf
00000310: c944 da7e df57 cebf 0c89 7c07 5d62 ca3f
00000320: 012d 1ef4 b883 dd3f 2a47 b8a5 3bf8 c1bf
00000330: 9567 6c1d c4c3 b6bf 5063 0ec7 b015 d0bf
00000340: 0c3c ff40 1174 ef3f 272f 7a3d 84f2 89bf
00000350: 406f 3785 65b7 e13f bc69 10e5 8059 e1bf
00000360: 5343 2d47 2fff ed3f bfaa 4fba 8bb8 f9bf
00000370: 37f3 d838 0080 e83f efd5 1989 ac26 c7bf
00000380: 10b7 bba8 b921 c0bf 21df 9df0 8e75 853f
00000390: 1b39 5633 9ff2 94bf d3bf e6da 33ab d0bf
000003a0: a7e1 878d f1db cdbf f6e0 90cf 5cc5 c5bf
000003b0: 7af7 5dbc e7c1 f43f 25f3 fb37 80e1 d03f
000003c0: e6a7 a462 d411 ee3f d2cd a295 4693 a7bf
000003d0: 2b37 d5fa 30ba e33f 9d03 dcb6 13f3 d93f
000003e0: 7c7e ce71 54a8 f33f 1109 5904 caf1 e23f
000003f0: f886 6386 80d8 e1bf 382a 3bd3 711c c63f
00000400: 8999 8a9e 28ee d0bf c634 e295 8537 e13f
00000410: bb67 b10c 32bd b43f 3347 9491 44e3 d6bf
00000420: 6e86 25ea 1a38 a23f d49c 163b 400a e0bf
00000430: cce3 76c6 d93d dd3f 591e 6ad8 4351 cebf
00000440: 9c91 cc8b 9470 c23f b724 e91a dbcc e3bf
00000450: 01af ae28 612e b5bf 2af4 d1f6 a94c e43f
00000460: 08ae 0d98 2aae c03f 2875 a77b d5c0 d33f
00000470: e406 0dbe cdce e7bf 7569 00b8 3352 f83f
00000480: e95f d33a 1369 f5bf a647 19b0 28d9 bcbf
00000490: 7cc8 956e 0239 ccbf 6aeb 4fca 5867 a9bf
000004a0: ff72 66f8 6bac d4bf da90 9317 1769 b8bf
000004b0: 7873 f47f d13f ba3f f6ac 0e7b a35c ea3f
000004c0: fe0b 5ce7 450d df3f 0e88 fd6c a354 e1bf
000004d0: 7c59 d8b4 b911 d5bf e1d3 537d 1624 e33f
000004e0: 6f91 7d06 5a37 dc3f 59ad 5467 f328 ea3f
000004f0: cd78 197a 39fe ed3f 4e45 fe08 21f8 c3bf
00000500: 3bc6 52fd 424f f2bf d130 8a1d d271 dabf
00000510: 7324 7d94 223c c3bf 7acf 5a4d 8e8d e03f
00000520: 069a 05a7 d091 d3bf a9bd e27a b0cc d3bf
00000530: 0a92 b03e ac56 e3bf 75a8 f334 b7cc ee3f
00000540: 22fc 9618 747c f8bf 7903 3679 072f e43f
00000550: 8967 84cf 13a3 cabf 41ac acce c199 c23f
00000560: 1c81 38b9 6170 d0bf 9621 0ca9 e31c f43f
00000570: 32e7 714c f785 f2bf 6382 3c4e 7f64 d9bf
00000580: 33a0 552e a8bd fc3f 1cf5 9422 dcd5 c23f
00000590: f3ad b248 ae4e e0bf 1a31 c8aa a505 f6bf
000005a0: 6454 3e61 9ae2 e33f 3e7c d438 a06d e33f
000005b0: 58e7 99b3 5811 f93f 6e8b ec39 9c54 eb3f
000005c0: 3556 7a33 2692 da3f e4ee dc4c a0cd d6bf
000005d0: 9743 9df1 d44f bc3f 23ad 568d ac58 e2bf
000005e0: 638b 69f2 fc03 8fbf 6014 0268 0dac b53f
000005f0: 7f8d f94c 3f50 e3bf 112b 9eba 938e e23f
00000600: 8bad 4811 f362 bb3f 4ba0 2e26 9980 ef3f
00000610: 4eda 3924 0cbf e43f 743c 93d7 75a3 e4bf
00000620: a4d5 ea3a 5cb0 f5bf e868 7dd9 2384 c1bf
00000630: 64d4 41d0 56fd a6bf 958a 5fdf 08e5 f83f
00000640: 05ca 92ef 3471 873f 08de 712c 7ddc e43f
00000650: 88fa e47d aef4 efbf 6f31 dbf4 755f 833f
00000660: dfe3 6198 8d8c e03f 3818 baff 8d39 e3bf
00000670: 383d 4c7d 4ce5 e53f a6fe 579b 14d2 d03f
00000680: ccb4 09cd 3504 573f 7f3e 129c 3e3a c9bf
00000690: 3ece c793 302f e03f 82b2 d672 0ba8 b33f
000006a0: e52d 20ea 2748 83bf bb08 ea33 47f5 ea3f
000006b0: 9582 29ce 43b2 e63f 674e 33c6 6f9d e23f
000006c0: 9151 f569 0087 e3bf ba77 dc65 fa2e e73f
000006d0: 2af4 ff8a af6b e1bf 3c15 0911 0de1 e23f
000006e0: 9794 45e6 1772 de3f c8ce 83bd 9ed9 c3bf
000006f0: 2919 2dbe 1111 b5bf dddd db3b c78c a4bf
00000700: dd9b 8990 b031 f03f a82f a057 09c7 eabf
00000710: 25ae 0f8c 9711 e13f 45e2 77fc 71eb 7a3f
00000720: 42b8 cf12 c5be da3f cc6b a7dd 5d4e dc3f
00000730: 871c 1c29 fe02 e03f 5bef c1d4 daf3 e0bf
00000740: f08b e248 8b67 51bf 85ab b009 9ae1 f53f
00000750: 5220 c4e1 3349 e3bf 439f 8a61 ebf3 eb3f
00000760: 7484 a8eb e37d d1bf 2838 5bea 692e c53f
00000770: b61d d431 a537 d93f b58c 38a9 d177 dfbf
00000780: 4cf2 19b8 5ad2 ac3f f8c6 2f5c 89b6 d3bf
00000790: abb0 a68e 4ca9 debf cd3d 0287 986b ee3f
000007a0: 967a 9531 8c6d e6bf 7745 7fa9 e7d6 a93f
000007b0: d75d f4bc 4151 e63f e21e 24db c2a2 d8bf
000007c0: ec59 871f bd4d 87bf fc71 3790 1dec a03f
000007d0: b98d 396b 9ae2 e33f 7a44 bbf6 b056 d7bf
000007e0: e062 6369 dce3 dcbf 88c9 2560 c8bb edbf
000007f0: e533 793a 80db f0bf e2c4 397b 9fe5 d3bf
-0.5309814470698505 -0.4011958279489816 -1.0297509029774667 -0.738778125602048 -1.195023146720661 -0.4263407609224001 0.12873468491565226 0.4463528725104194
-0.9961077755043986 -1.0689272015031412 0.8997923770280478 1.1478052954096094 -0.3602704175245039 1.2204433504913947 -0.26267874784538175 1.5608182160491277
-0.3924833827626111 -1.3558379045750188 1.582152291708682 -0.34909760116956845 0.4214773488402639 -0.9091906267087085 2.6331449357840557 -1.2912113163521308
1.5122053337292445 -0.3897500116722394 -0.5511986916829366 0.11146908816717896 0.9094738116505707 0.750292648290367 -1.415647362684573 -0.948203907241602
-0.09350799051011309 1.4212850019249954 0.05843082253845576 -0.2376192443535101 0.6687434674078147 -0.26215283768166914 -0.8315346210154908 0.14876868576810298
0.8747627470230949 -0.34007167917364983 -0.5833192059584202 0.9521545823244968 0.1230159889323879 -0.7141307118759211 0.054553033397335464 0.18465086357638122
-1.2644057916352724 0.41316136867311426 -1.196126501324252 -1.114189995197001 0.28121112281529304 1.2992893051025742 -0.36194814443953455 -1.389700714647602
0.33179440490582296 0.395422079269297 -0.12160925760356542 -0.30251816640560036 -0.584906129288706 1.4216608941926747 -1.2949825050006862 -2.3034586250472726
-0.40757643782665076 -0.8558821671123731 -0.018297877006884233 0.21083949892909165 0.5912868697132471 -1.069624773589715 0.5631691886681438 -0.6087309639835018
0.7040854244216797 0.4286999331458803 0.8269607514853806 -0.22506459838896797 -1.5514319436366424 0.9851581993958065 -1.1544843281254622 0.24910831772605474
0.13150310951806318 -0.31150586361682203 0.3852120589795774 0.05192353966599264 0.4713897066271628 -2.0097377157993104 1.8556787830598873 0.3949669307429429
-0.8776246577199102 0.7493889276948932 0.2751498878959902 0.8585675869571877 1.100199364805955 0.11883085415372813 0.4387235138939174 0.04156096193560893
-1.2808552910763502 -0.3457678713709803 -0.23705667203879546 0.2061268126063357 0.4611647018397918 -0.1403879698923956 -0.08892465322824557 -0.25132388533670724
0.9829183835480548 -0.01266959488500381 0.553637275875623 -0.5421757196339096 0.9374004736110727 -1.607555129793283 0.7656251058866478 -0.18086773580914392
-0.12602921236923992 0.010478131025351058 -0.020456779011106634 -0.26044937493406656 -0.23327464495356517 -0.17008552680068306 1.2973401411140615 0.2637634798737046
0.9396764685272927 -0.04604549957857852 0.616478433521228 0.4054612432228682 1.2285961576052662 0.5920152745168555 -0.5576784729748558 0.17274306119937122
-0.2645360515838538 0.5380275657095346 0.08101189432036808 -0.3576213285133349 0.035584298212381835 -0.5012513307637172 0.4569000661973035 -0.23685501162639147
0.1440606768238809 -0.618756821212762 -0.08273894541951778 0.6343583889680577 0.13031513618931023 0.30864464831923266 -0.7439945899897933 1.5200688540995462
-1.338153104579755 -0.11268858241353871 -0.22048979186689965 -0.049616598793327096 -0.3230237890036704 -0.09535354924770748 0.10253629087351424 0.8238084224189197
0.4851851233835872 -0.5415818337171474 -0.3292068735185223 0.5981552551080506 0.4408783973106187 0.817498876398001 0.9372832665210581 -0.15600979746936122
-1.1443509955828535 -0.4131970680689508 -0.1502726769488479 0.5172797690233744 -0.3057748442719518 -0.3093682479911544 -0.6043301796349294 0.9624897035803445
-1.5303841553247897 0.6307408683206709 -0.2081017268436052 0.1453172930863236 -0.2568592366024107 1.2570530513204168 -1.1577065454607234 -0.39675886764783835
1.796302968019529 0.14715148628776198 -0.5096045894510425 -1.376378695599732 0.6214115046774507 0.607132063861975 1.5667349830314006 0.854078400738542
0.41517024066101565 -0.3563004255881721 0.1105931367758458 -0.5733244667548302 -0.015144325397334851 0.0846565607954104 -0.6035458091177331 0.5799044270400789
0.10697859928102653 0.9844480272049706 0.648321219209558 -0.6449536524250008 -1.355556707521239 -0.1368450939142527 -0.04490157406045439 1.5559166646495772
0.011446393548202325 0.6519151561796557 -0.9986183604122099 0.00945942071430103 0.5171573616236137 -0.6007757181803361 0.6842405745718798 0.262822295859204
0.0014048123740864503 -0.19708998318354884 0.505760468133708 0.07678290895155196 -0.009414970238160467 0.8424411786984572 0.709260847721526 0.5817183371641023
-0.6102296895501685 0.7244846333958244 -0.5443952288475249 0.5899720509266113 0.4757137058971436 -0.1550787377706142 -0.08229170697186262 -0.04013655286501792
1.0121312757489627 -0.8367964469375595 0.5333974586077984 0.006572194346056441 0.4178936656670694 0.4422831215467198 0.5003653338361723 -0.5297674327298226
-0.0010622844888892279 1.367578542568226 -0.6026858720297332 0.8735253243548659 -0.2733087350225738 0.1654789346998211 0.39402131906578164 -0.4916881706760237
0.0562923764927957 -0.3080161476383263 -0.4790831940724824 0.9506342541589504 -0.7008725136218625 0.050467719498224754 0.697419041683072 -0.38493415260789565
-0.011378743672065782 0.03305141816574417 0.6214115232691518 -0.3646662148940504 -0.4514075307065877 -0.9291726949580132 -1.053589085018069 -0.3108900740981665

bias_ih_l0 f8 [120]
00000000: dad8 bd36 1959 e83f 7788 42ec 9279 d43f
00000010: f5f0 867e 6850 e6bf 5171 28ac 3493 ee3f
00000020: f56c da7d 27c4 e63f b804 1e49 c387 eabf
00000030: 2992 3144 b6a1 833f d103 22bb 159a dc3f
00000040: 4943 11e5 8be9 db3f f683 a155 b41b edbf
00000050: a8b3 ea07 8982 e1bf a4b0 f848 07ab cb3f
00000060: d335 eaa6 1f7f f53f 5b28 9cdf b6ab d3bf
00000070: 66b8 e9ce 9318 0240 92fb 3a8d 74b5 f63f
00000080: 1c32 4745 034b ecbf 61b0 f475 1802 da3f
00000090: 7614 05a6 02ba d03f 9ac6 1f99 c042 a43f
000000a0: 9d14 90b7 c85d f63f d12e 4d06 2fc7 ca3f
000000b0: 5bea 37c4 7487 eb3f dedb d461 ccb4 ec3f
000000c0: 04f1 5b96 6186 f43f 4ce1 7a92 e132 e4bf
000000d0: 02ba 4621 ec47 f03f 5d35 d002 0afa fb3f
000000e0: e9b1 9212 4967 dcbf fff8 79cc 515f d33f
000000f0: 2687 603a 8f01 e4bf 8ad3 e8e3 5b3f d43f
00000100: 8648 3526 ee9c efbf ebba 6780 3253 d03f
00000110: da6a 0923 b010 cdbf 7d67 55e7 9ede e23f
00000120: 93b3 4dfa 271f e5bf e8a9 eb89 6848 e6bf
00000130: 9f38 1646 1b3b e33f e134 1d29 80f7 e5bf
00000140: 7079 420b 559e d6bf ac0a 0960 dfcb febf
00000150: 70e0 7577 43c7 f6bf ff53 15bd ec2e ba3f
00000160: 09c7 1d0d c3d1 e8bf 0511 60d5 d4a0 e2bf
00000170: b999 9b62 ad4e c3bf d6da ddb0 3249 e7bf
00000180: 36e6 bafb d6cf de3f 8da5 8cfc 53d4 fabf
00000190: a24c 0c99 d6eb 823f 058c 848c d8de fdbf
000001a0: 5736 a0a8 f7d3 a03f 5174 2ec3 d7a5 fbbf
000001b0: 6adf 1993 ecbe d73f 4f5a c28b 0046 dbbf
000001c0: f2e4 ee35 7df2 95bf 57a2 74ab 67ce fabf
000001d0: 399b 6f26 1b4b ef3f bb0a 65a2 0abf f0bf
000001e0: 13eb 7fd2 97c0 d93f d6fa e8f6 a893 acbf
000001f0: 5d84 a615 b392 e53f ac84 611c 6543 cd3f
00000200: 48f6 6338 5213 d03f e15e 9fc6 9a80 d9bf
00000210: e76b 8cf3 ba09 dfbf 514c e216 a375 e4bf
00000220: ea0f 44e0 57fe dcbf 8390 d892 36da e13f
00000230: dbb6 43bc d98c ea3f 97d3 4bc4 999d d3bf
00000240: e335 c54e 5845 c73f 70ba f674 3ecf edbf
00000250: 24c0 003d 9715 f33f d6da a0c1 b97b e6bf
00000260: 4332 cd67 ccd1 a0bf f663 9973 0690 ddbf
00000270: ff6f 1840 9c05 a5bf 1768 1fc4 04b8 d9bf
00000280: 84fd f1ad 280d bdbf 20b6 6ec9 9101 f5bf
00000290: bc9d de36 438a d6bf 4ebf 1c6a 6e94 e9bf
000002a0: a48c 8cfa 8002 b83f 3f2e b1ae 09f6 ef3f
000002b0: 4a29 6286 9e76 f3bf e15b d539 970c d5bf
000002c0: e7c7 97ad d90c d33f 9c56 53ae 3a1d c63f
000002d0: b7fe 9ea1 201f b3bf 49a1 935e 92f3 d1bf
000002e0: 8286 52ac 1571 f6bf 4085 6c81 e3bd dc3f
000002f0: c7ec 2ead 79b8 f2bf ac43 1dab 5a12 efbf
00000300: 86dc cc09 0ccf adbf 9e32 fed2 9eff da3f
00000310: e849 d26f dc81 c43f 678b ed72 464f f9bf
00000320: e1cd f63b ebcc d6bf 2e10 c3f6 eb3c e2bf
00000330: c5d2 8c1b 1f78 f33f 34fd 96fb fad7 f3bf
00000340: b688 f5f6 189f ddbf 692f 8f19 59d1 a8bf
00000350: a6da 8833 2b29 c3bf e2ee b40d 27e0 d1bf
00000360: b71b 64b7 d573 edbf 9901 fc0a e02c cb3f
00000370: de4a 4a0d 13f4 f2bf 9655 3d6c 188d ff3f
00000380: cde1 a08e b154 f23f 3fdc 2b8d ab62 d83f
00000390: 0114 3a21 410f c13f 09c9 9588 c88a e2bf
000003a0: c9e5 9375 7515 d53f af53 1587 509f ec3f
000003b0: 5e5e d5d6 f444 e3bf 1167 7ed4 81e9 dfbf
0.7608762807056124 0.3199202830529723 -0.6973154517395687 0.9554694521389512 0.7114446123190691 -0.8290726116248583 0.009585784870247487 0.4469045951337281
0.4361295449244165 -0.909631888625994 -0.5471844820618701 0.21615687430437902 1.3435360450852059 -0.3073556121531788 2.2620006718707826 1.4193006054699464
-0.8841568329895071 0.406377902213313 0.26135317051768625 0.03957177991095513 1.3978964968130534 0.20920360381784645 0.8602851707831393 0.8970701132556049
1.2828079102901606 -0.6312110768258576 1.017559175477459 1.7485447034735764 -0.4438040429475039 0.30269284218219633 -0.6251903667618748 0.3163671231916899
-0.987906527161855 0.2550779584843627 -0.22707177840023612 0.5896753805384233 -0.6600532425633098 -0.6963389104615176 0.6009651535876123 -0.6864624789247068
-0.3534138307531043 -1.924773574007001 -1.4236483255790766 0.10227851501743145 -0.7756057029893962 -0.5821327369199315 -0.15083854021868406 -0.7276853041101627
0.4814355333615795 -1.6768379082880955 0.009238888307243013 -1.8669057358717975 0.03286718305035368 -1.7279889702106355 0.3710280834707108 -0.4261475910983891
-0.02143283502275479 -1.675391835926481 0.9779182196333301 -1.0466410010855458 0.4023799472485489 -0.05581405653037101 0.6741576598034374 0.22861923108852034
0.2511792708099603 -0.39847440144283836 -0.48496888908419894 -0.6393599936440159 -0.45302388096774726 0.5578873508534489 0.8296936680833044 -0.30649418038893245
0.18180373998840968 -0.9315483364533304 1.1927711852004075 -0.7026032239726543 -0.03285063521488898 -0.461915600671602 -0.04105842859664221 -0.4018566050777976
-0.11348203894339376 -1.3128831737952922 -0.35218887670859167 -0.7993690559869522 0.09378820530814608 0.9987839137988387 -1.2164597749093269 -0.32889347694202625
0.29765932037764603 0.17276700508107445 -0.07469371743990903 -0.2804914401626957 -1.4026085597364788 0.4490898860841135 -1.1700379147503541 -0.9709904996944849
-0.05822026843673549 0.42185183148175465 0.16021304569274197 -1.5818542947169705 -0.35625725608698927 -0.569936735112156 1.2168265415358956 -1.2402295901991467
-0.4628355418882494 -0.04847219883921989 -0.14969387070023749 -0.27930618609000935 -0.920389993844643 0.21230698143336893 -1.184588481821883 1.9719471195324778
1.145677144186368 0.38102234636557236 0.1332780277481618 -0.5794413249662124 0.32943474275779444 0.8944475782724249 -0.6021675296751245 -0.4986271453031899

bias_hh_l0 f8 [120]
00000000: edd8 bd86 059a e93f 4344 21ee c805 e03f
00000010: eff0 86be 79e7 e8bf 6b71 28dc e092 e93f
00000020: 46da b4cb 347d dc3f bd04 1e79 e069 edbf
00000030: f831 86a8 626e b33f 1c08 4416 f5c8 cc3f
00000040: 5743 1115 fb11 d93f ec83 a105 0c5f ebbf
00000050: a5b3 ea3f 51ec e1bf e261 f1d1 ada1 bd3f
00000060: c235 eae0 cf39 f23f 5f28 9c1f 2a48 d9bf
00000070: 67b8 e908 85c6 0140 8ffb 3a13 1867 f63f
00000080: 0a99 a372 1394 f0bf 1db0 f445 44bf dc3f
00000090: 7714 050e 3247 d13f 3607 dcec f69c d1bf
000000a0: 9a14 9057 ad80 f73f cf2e 4d86 010c ca3f
000000b0: 78ea 37a4 8b20 e53f d3db d4f9 2555 ee3f
000000c0: 02f1 5be6 6cb1 f43f 4ce1 7a1a aab4 e8bf
000000d0: 1274 8dd2 b7b0 ea3f 6035 d00c ffb2 fc3f
000000e0: edb1 9262 a353 dcbf fbf8 79ec fe3f d73f
000000f0: a887 60c2 4f8a ebbf b5d3 e853 a8a1 da3f
00000100: 8948 3546 382f efbf e7ba 67b0 7e65 dd3f
00000110: 50b5 84f1 ba5f d6bf 7767 5507 3a67 e23f
00000120: a7b3 4d62 e9f4 e9bf dba9 ebd9 42e4 ebbf
00000130: 0d71 2c7c c0d0 d53f ad34 1d79 0944 e3bf
00000140: 7879 42db 9d8d d7bf ad0a 0988 6d5f fdbf
00000150: 70e0 7509 0485 f9bf e8a2 aae8 4980 803f
00000160: 0dc7 1ddd 58be e8bf 0e11 603d e179 e4bf
00000170: c799 9b02 36ca c0bf f2da dd20 550c e2bf
00000180: 19e6 ba7b 3cdc df3f 8fa5 8c7e 500e febf
00000190: 3bc5 9049 240b c03f 1646 4209 e457 00c0
000001a0: 1a94 bfae 7b9e 96bf 6e74 2e03 452a f8bf
000001b0: 68df 1903 300c d63f 375a c2db fbb7 d8bf
000001c0: 08e5 ee35 ebce 9bbf 5ea2 745b 1fce fbbf
000001d0: 499b 6fee eb61 ec3f c40a 657a e836 f4bf
000001e0: 08eb 7fd2 884f d83f e582 8b84 1700 bc3f
000001f0: 6184 a6bd 5fe9 e53f 9b09 c338 7f73 b43f
00000200: b538 81f3 7017 8dbf f25e 9f56 739d ddbf
00000210: 0d6c 8c03 d949 d0bf 4b4c e246 612d e6bf
00000220: 481f 88c0 568a c0bf 8c90 d852 580a e53f
00000230: 9db6 43fc 2c00 e43f 83d3 4b24 9a0b d0bf
00000240: ef93 7522 2956 b8bf 3e5d 7b32 04b5 f2bf
00000250: 21c0 00f9 d9eb f73f ddda a041 f5eb eabf
00000260: 304d f379 4c72 c1bf 0fb2 cc69 996d e2bf
00000270: e3e3 f9ff d8a4 c13f 0a68 1fc4 5e99 dcbf
00000280: 5901 0729 280b c43f 1fb6 6edf 9052 f3bf
00000290: a49d de16 2d81 d4bf 5abf 1cfe c350 e3bf
000002a0: 66e6 e60a c943 a6bf 4f2e b1f6 3112 ea3f
000002b0: 3429 624a 43af f5bf 20df aa4e 3d11 a6bf
000002c0: be8f 2fbb 936a c23f 8756 538e 6bf3 ca3f
000002d0: fe84 4098 1f89 5e3f 1243 273d d6de cfbf
000002e0: 7286 527a 2cfe f8bf 6942 b638 59d3 e43f
000002f0: a0ec 2ed5 0e85 f6bf ada1 8ee5 a523 f1bf
00000300: 4fdc cc09 55a3 a6bf ba64 fc15 d413 c13f
00000310: ff49 d26f 9c93 c13f 598b ed52 da06 f7bf
00000320: eecd f65b a7cc d8bf 6320 86bd e1bf ddbf
00000330: b6d2 8c03 c60a f63f 3efd 965b 877f f3bf
00000340: b288 f5a6 6c5a d8bf e597 c72c 13de b4bf
00000350: 9a2b b9e3 b780 9a3f dddd 69fb 3414 c3bf
00000360: 961b 649f 9c3e e7bf d900 7e25 2480 d13f
00000370: 6c95 94ca 1fca eebf a155 3ddc a834 fb3f
00000380: c8e1 a0a2 07d3 f23f 20ee 95f6 d6d6 e63f
00000390: 0c0a 9d60 a559 d13f 1992 2b41 e31d ddbf
000003a0: d2e5 93e5 b07d db3f 9253 1517 4476 e43f
000003b0: 745e d526 03d0 e4bf 4567 7e34 df9c d2bf
0.8000514632865624 0.5007061625457329 -0.778256294368047 0.7991794872246322 0.44514198201378397 -0.919174419934414 0.07590309728966094 0.22488273226923716
0.39172246034018116 -0.8553524122218028 -0.5600973366141387 0.11574827552374914 1.139114264081727 -0.3950295742694205 2.2219334312749655 1.40016944419742
-1.0361513593757672 0.4491739924585561 0.26997043007970184 -0.2752053559380444 1.468915311853641 0.20349139268579683 0.6602228362456364 0.9478940848847465
1.2933167456058645 -0.7720537678897386 0.8340720283846415 1.7937002659339996 -0.44260487200042925 0.36328099339870307 -0.8606337353160045 0.4161167926243324
-0.9745141383412071 0.4593197558123578 -0.3495929106309932 0.5751009124025889 -0.8111464424124407 -0.8716139084111164 0.34086620451286437 -0.6020552983769868
-0.36801859294964556 -1.835797816646543 -1.5949745530652102 0.008057191288871349 -0.77323573290616 -0.6398779104934265 -0.13117098929724433 -0.5640054361273015
0.4978171547223567 -1.8784947341285692 0.12534001915040868 -2.0429154132223273 -0.022088940182488505 -1.5103197216297093 0.34449386885488886 -0.38622948132379825
-0.027156520048923688 -1.7378228733524774 0.886953321166268 -1.263405302147178 0.3798543983136118 0.10937640176735959 0.6847380355940339 0.07988734374797561
-0.014204866820503129 -0.462735018341376 -0.2545073065427353 -0.693039549298541 -0.12922176743472336 0.6575128191075392 0.6250214507142179 -0.2507081369833985
-0.09506470767298912 -1.1691934558819663 1.4950809218098657 -0.8413034707835682 -0.1363006205998345 -0.5758788172148018 0.13784325121721883 -0.446860972906166
0.1565904808358123 -1.2076576927023621 -0.3203842852912777 -0.6036090815668829 -0.043485910969548056 0.8147210901456193 -1.3552887826541111 -0.0431002768067954
0.14387747421198854 0.21055359315385067 0.001863747457726383 -0.24898794160846954 -1.5620541361062377 0.6507993800788202 -1.407484848735102 -1.0712031333042475
-0.04421487564689441 0.13341761659174783 0.13731723270446136 -1.439173053681506 -0.3874910734259335 -0.46483653553196386 1.377630246989765 -1.2186349466063144
-0.3805190687618377 -0.08151359408620314 0.025881646417740357 -0.14905416751911008 -0.7263930428606382 0.2734461179861803 -0.962173362412313 1.7003563502415562
1.1765209534333838 0.7137255493284478 0.27109655795007437 -0.45494920124318267 0.4295465700120903 0.6394367647977666 -0.6503921278444538 -0.2908247006067664
