TRAINED/xml_train.pt (torch, 363719 bytes, 19 tensors)

weight f8 [123, 20]
000000 d2 ca 54 a4 d5 39 02 c0 99 a4 0d 53 3f 59 02 c0
       -2.2782395208717867 -2.293577813009119
000010 30 7b eb 14 66 04 ca 3f b8 1f 5c 55 dd 00 d4 bf
       0.20325923940159774 -0.3125527700035451
000020 da b1 db e3 d6 56 06 40 9b 16 c9 2b 10 95 f0 3f
       2.7924020577831756 1.0363923750277653
000030 b6 97 e3 ae 47 7a e2 bf 55 97 37 f0 a6 3a 08 c0
       -0.5774267593194427 -3.0286387221303053
000040 4e a0 5c 11 4b 12 f8 3f b5 9a 35 d4 75 4c 00 c0
       1.504466121501554 -2.0373341158732168
000050 5e 48 53 eb 93 2b e8 3f b5 74 2c 0f f1 3b a8 bf
       0.7553195568273272 -0.04733231840348521
000060 81 0f f3 25 d5 23 b3 bf 99 01 7c dc a3 d1 e3 3f
       -0.07476551224232077 0.6193408304534841
000070 2e 94 73 05 6d 59 eb 3f d0 3e 0f fc c4 e2 cb bf
       0.8546662432169165 -0.2178579550513775
000080 a8 3b e7 ac c9 67 ff bf 91 65 e7 14 44 2b 01 c0
       -1.9628388170274125 -2.146125949203175
000090 62 6e db 13 22 7f e3 3f e9 1d 7d 27 f4 aa f5 3f
       0.6092691791377087 1.3542367498902144
0000a0 af e3 81 74 56 54 eb 3f a8 e6 3b 48 aa fa 03 c0
       0.8540451312575125 -2.4973950999527297
0000b0 6a 93 2c 77 32 cb b6 bf a9 61 5c 03 c5 bd 03 40
       -0.08903804215931435 2.467660928971061
0000c0 a6 c8 46 5c 31 22 eb 3f 0e e2 bb 80 f1 24 03 c0
       0.8479239275241255 -2.39303875516294
0000d0 9f 0e 4e c4 bd 58 c5 3f 0e 52 8f 87 40 e3 c3 bf
       0.16677066884232247 -0.15537268275387855
0000e0 83 9c d2 eb 8c 20 06 40 ac e8 c8 d7 71 a2 04 40
       2.7658937858246317 2.579318700617554
0000f0 d6 96 4e 99 ba c0 f5 3f f9 28 ac 51 48 11 02 c0
       1.3595529545358906 -2.2584387188591077
000100 b9 77 d0 97 b1 80 ff bf f1 7d 39 9e 67 f1 e2 bf
       -1.9689193659064428 -0.5919683542560376
000110 de 89 f1 5f 0d 63 fb bf cb a3 71 8c c8 8a cc bf
       -1.71168267705854 -0.22298533303845
000120 7f fd f4 ec a7 d5 ed 3f 6e 4b 19 a3 5b 16 c4 bf
       0.9323310497347136 -0.15693231071289965
000130 1d a2 6a a5 3e 77 d3 3f 01 30 84 18 d3 cb e0 bf
       0.30415311960180863 -0.5248809317431552
000140 f0 c1 16 a8 9d 79 d6 bf 4b 26 26 5b f2 4e e4 3f
       -0.35117284216815303 0.6346370487455685
000150 f2 05 33 f5 1a 8c ec 3f 2e 4e 0f 35 3b bc d9 3f
       0.8921026982354177 0.40211372548694413
000160 f5 d8 31 bc 9a 6e f4 3f cc d7 c1 a0 6f ac 0f 40
       1.277003035674679 3.9591972884327102
000170 2b 7d 1b 84 0c 94 fb bf d8 bf cc c3 e1 25 f6 bf
       -1.723644748730133 -1.3842485092572954
000180 b5 2c 0b 31 3d 8b f0 bf f4 1c ad 2d 28 01 cf 3f
       -1.0339939037101378 0.24222280721935585
000190 fe 55 96 c2 95 d2 f2 3f 48 c8 3b a3 70 6d c9 bf
       1.1764123536171378 -0.19865234346758798
0001a0 97 aa 2c 47 fa 77 f2 bf 9d b0 08 b5 b0 76 e5 bf
       -1.154291418099694 -0.6707385574168431
0001b0 f7 74 c0 96 00 9b e8 3f ee 88 27 66 40 f2 da bf
       0.7689211792345806 -0.42103586174029217
0001c0 ad 61 3e 2f 1a 03 ba 3f 93 95 f9 37 68 c9 cd 3f
       0.1016098370877276 0.23270895703460023
0001d0 ca b4 60 9c 45 91 fd 3f 69 e3 95 19 b9 4d 11 40
       1.8479667767053791 4.325901412747819
0001e0 08 9e f1 40 87 60 f6 bf 3b 85 a3 f2 23 fd e3 bf
       -1.3985664879672886 -0.624650930312931
0001f0 ba aa 8c a9 2c 1c f1 3f 88 66 9a 66 b3 76 f6 bf
       1.0693785307909551 -1.4039796836790703
000200 aa 87 00 b1 f4 da e0 bf 4d 8e ee 45 92 f5 fa 3f
       -0.5267280060836488 1.6849539500916706
000210 70 06 4b ab d7 1e f2 3f 8c 8e 12 83 7e cf fb 3f
       1.132529896844428 1.7381577606219336
000220 8f 79 41 1b c0 71 fe bf 3a 51 89 76 2d 93 0b 40
       -1.9027710976293724 3.446864057603446
000230 83 ca 1f 8d 6a 1b 9a bf 05 fa 97 72 4d cd a5 3f
       -0.025495209563767062 0.042581958998187765
000240 4d 4b 74 bb 80 d3 f6 bf b4 7b 5f 56 50 3b 58 3f
       -1.4266364405090883 0.001478985266196037
000250 1c 4b 2d 9e ad 38 bd bf 2d 61 64 c9 28 e7 f0 bf
       -0.11414609061948194 -1.0564353815917216
000260 4d bb d5 98 44 e7 e3 bf 0c 6b 6b 29 37 99 f6 3f
       -0.6219809517914229 1.4124061220124444
000270 96 44 d4 9d 4f ce de bf b4 f2 bc 52 24 74 db 3f
       -0.4813422242451194 0.4289637382496878
000280 c6 a6 0e c4 8c 83 a3 3f c4 68 f7 23 12 c7 e1 3f
       0.03811302083279382 0.555550642249067
000290 c2 8c 1f d6 3b 9e e6 bf 36 bd 27 b8 94 b7 c0 bf
       -0.7068156416029512 -0.1306024455256904
0002a0 1b 6b 6d 67 99 bb e6 3f 2f 7e 62 78 55 02 e1 bf
       0.710400297171279 -0.5315348960174954
0002b0 7c 47 cb 97 43 bc f2 3f 9f bf 0a b6 f0 02 cd 3f
       1.1709628991561365 0.22665223015564792
0002c0 47 83 a0 68 20 50 bd bf 70 a5 90 bf 3d 5e 01 40
       -0.1145038848340053 2.1710162130372552
0002d0 b5 01 4a df 01 1b 00 c0 de d6 44 29 c4 ee b4 3f
       -2.0131871647319834 0.08176828391591637
0002e0 35 91 73 46 db d2 f2 bf 1f 31 3f f1 6e 68 f1 bf
       -1.1764786483773382 -1.0879964278893295
0002f0 d8 90 72 8f 9d 13 b9 bf fb 75 9d 21 c9 83 e2 3f
       -0.09795555832039626 0.5785871178192673
000300 87 20 9d 14 da 3a f8 3f 99 7e 6a 5d a8 a8 f3 bf
       1.5143681340432822 -1.2286761902868533
000310 b4 f9 bd ee 21 46 cb 3f ae 45 be 49 db d7 e4 3f
       0.2130777755482548 0.6513496818826547
000320 31 cf 07 2e 07 2a 03 c0 5e f8 89 7a f5 ea 05 c0
       -2.395521506894419 -2.7397260259013327
000330 20 d1 eb fc 47 45 ec 3f ff 42 73 54 c9 15 c3 3f
       0.8834571781031038 0.14910236953303266
000340 a0 ac b7 b2 3b f2 35 3f c9 c5 2e ca 70 f1 c0 3f
       0.0003348727938987193 0.13236818191721358
000350 e2 1f 44 b8 a8 5c e0 3f c3 70 f3 8f e8 ed f0 3f
       0.5113109206149569 1.058083116825444
000360 a2 0e 56 6a a6 7d ec 3f be bd 7a e2 62 f9 04 c0
       0.8903381420972958 -2.621770638819469
000370 c2 75 d4 94 ca 5a ff 3f 79 e6 ad f4 e8 0c e8 bf
       1.959665852896578 -0.7515759257214106
000380 b1 2f 6a 87 80 a7 e9 bf c7 49 8b 12 57 e8 0a c0
       -0.8016970295734521 -3.3634473274953254
000390 dd a5 48 e1 07 e1 d5 3f 95 12 25 fc 05 93 bf 3f
       0.34185978889817453 0.1233371487224509
0003a0 ab a4 3f b8 68 b1 02 40 24 71 6f b7 ab 74 bd 3f
       2.3366255182669042 0.11506150463487025
0003b0 56 a4 6b dc 64 7d bb bf b2 8b 85 8f a2 b1 e7 bf
       -0.10738211041793141 -0.740433960262058
0003c0 17 13 a7 d3 bf 7d e1 3f 25 cd df 0c e8 a9 b6 bf
       0.5466002591934708 -0.08853006662666425
0003d0 cd bb 05 a5 3b db 01 40 d9 ff df 27 d4 68 02 c0
       2.232047356832004 -2.3011859050020402
0003e0 5e 4d 70 a6 ab 9b a2 bf e9 33 55 e7 22 bd fc 3f
       -0.036343921725484604 1.7961758648336803
0003f0 57 93 21 11 10 d9 e5 3f 02 a6 86 5f 82 a6 02 40
       0.682746919116293 2.3313033545462085
000400 65 6b 46 0f 71 29 04 c0 d1 5a 41 48 fd e3 f1 bf
       -2.5202351754536942 -1.118161470648989
000410 20 0c 4c 59 d9 0d 02 c0 0f c3 0d e6 c5 ee f2 3f
       -2.256762216218263 1.1832941996073634
000420 b1 4b 86 59 ac ca e3 3f 8a 7e 81 70 cf 10 87 bf
       0.6184903858687588 -0.011262531872659371
000430 03 ad d5 6e 0d 00 f5 3f 24 0d 4f ad 3f 3e fb bf
       1.3125128106574386 -1.7026974458575035
000440 90 68 4d 2a 1b 67 ec bf 6a 21 d1 6f 29 9c c2 3f
       -0.8875861955850883 0.14539068183718068
000450 76 08 e4 41 db 08 e6 3f 0e fc a5 37 22 47 f8 bf
       0.68858111256874 -1.517366616608118
000460 49 ec 60 d2 14 46 b5 bf 7a ad 32 2a d0 ee f7 bf
       -0.08310060630985662 -1.4958039902074618
000470 07 aa d1 c7 f3 c6 d9 bf aa 37 33 cc 3c 41 e0 3f
       -0.40276808274816783 0.5079635608942585
000480 d9 d6 6c 3b 7f 36 d9 bf 38 85 01 16 4d ba c1 3f
       -0.3939512329410327 0.1384979588938593
000490 78 68 49 0a 9b d7 d6 3f 3b 5e d1 65 38 ee e7 3f
       0.35690952305379353 0.7478296269063728
0004a0 27 d9 01 2c 42 38 eb 3f 5a 47 89 81 be 13 e3 3f
       0.8506174907222758 0.596160176277617
0004b0 b2 a1 c9 ba de 2a 9a bf 14 08 5a 76 dd 42 81 3f
       -0.025554161215411937 0.008428316282564942
0004c0 38 ef 7f ad ce fb e5 3f 92 42 2b a2 2c 76 e4 bf
       0.6869882000605463 -0.6394255797732333
0004d0 38 d7 43 cb 71 aa ff bf e1 43 38 30 f3 44 b3 3f
       -1.9791124286688966 0.07527084281197417
0004e0 92 15 64 d8 f0 ea e0 bf d3 2b e9 0b 6f 6e e2 3f
       -0.5286792971025298 0.5759806854852009
0004f0 2f 9c 10 c5 fd e9 d2 3f 32 65 af 0f 7d ef ec 3f
       0.29553169483773706 0.9042344385481214
000500 17 89 7e 52 f3 b4 e7 3f 1b 91 9e c2 f1 4a d2 bf
       0.7408386813370126 -0.2858242416935057
000510 e6 63 aa c1 10 78 d0 3f e3 b7 33 7a 5a 66 ac 3f
       0.25732821381239857 0.05546839467739042
000520 62 3b 19 9b 5c 19 00 40 7c b4 84 1c 3a 53 e9 bf
       2.012383662898558 -0.791409545612296
000530 51 70 80 74 dd cc e0 3f 93 f9 10 1e 68 05 e8 3f
       0.525007941763315 0.7506599986298162
000540 d7 96 68 2a 71 b8 f2 3f 27 58 ce 16 fa 00 f8 3f
       1.1700297981819199 1.5002385035381935
000550 8e 7a e8 ee 33 21 f0 bf 81 f7 65 52 fa 0b e2 bf
       -1.0081061680172385 -0.5639621362058592
000560 2e 6b 2a ac 1b 1a e6 bf cb b5 33 52 83 1e 00 c0
       -0.6906870234118736 -2.01489891262347
000570 37 76 87 0c 50 01 ec 3f af 70 9f 2f 3f ce 05 c0
       0.8751602406225122 -2.725706455281475
000580 73 62 fd 14 f5 b6 f6 bf ee 2a 9e 4e d7 a9 f7 bf
       -1.4196673221505562 -1.4789650984773135
000590 fd 67 99 df e4 18 e2 bf bf 41 e9 87 01 b8 e9 3f
       -0.5655388228581156 0.8037116674914201
0005a0 f5 fb 43 db 85 f1 b1 3f 7d 72 4c e2 ae 27 ee bf
       0.07009159663355986 -0.9423441333670578
0005b0 8f cb 29 d7 4d e1 00 40 dd 63 a4 ab d9 99 ff 3f
       2.110011750185954 1.9750611023684919
0005c0 33 09 ef 02 62 e0 f5 bf 64 35 aa 22 3a ad dd bf
       -1.367280971012019 -0.46369794259302055
0005d0 b8 77 8f 06 c2 bf f8 3f 31 8b 70 c6 69 f6 d9 3f
       1.5468158966318537 0.4056648671996071
0005e0 50 97 c5 52 5b 11 f9 3f b7 73 2a 11 a6 67 f4 bf
       1.5667374833369259 -1.2753048582592166
0005f0 18 eb 33 59 c2 3d f1 bf 32 50 2c a4 2a c9 f4 bf
       -1.0775779232487306 -1.2991129315387409
000600 38 2b 4f 3d a3 85 e9 bf e4 77 1f 52 58 46 e4 3f
       -0.7975631902166702 0.6335870365107863
000610 df 94 a4 fa b7 03 d4 3f 13 a5 08 88 f6 8b eb 3f
       0.31272696949811335 0.8608353287610576
000620 ac 44 39 dd 2b 02 e3 3f 7c 07 06 d5 5f 63 bd 3f
       0.5940150566840621 0.11479758215685182
000630 ed 10 df 35 d6 d3 e4 bf 11 6c 77 22 36 1f f2 3f
       -0.650858979432568 1.1326199861857769
000640 a3 0c de 59 ca 6d f1 3f 12 d4 c3 b1 19 44 e0 bf
       1.0893043051189941 -0.5083130332919856
000650 a2 5d c6 c7 db 8f cf bf b8 59 cd ab c3 9a dd bf
       -0.246577713533708 -0.4625710656886457
000660 71 fc 01 2b cb da db bf 17 7f c2 b6 c7 ab f9 bf
       -0.4352291030881537 -1.604438508897095
000670 71 5f 94 7f 2a 8c fe 3f e5 6f 9e ce f6 0f f3 bf
       1.9092202170922656 -1.1913974829722005
000680 06 b4 50 69 3f f7 d7 3f bd 4a 44 29 8b 07 e0 bf
       0.3744658020467003 -0.5009208494178307
000690 d9 05 38 fe 16 82 fa 3f 1e e5 41 b4 48 4e f3 3f
       1.6567602091239364 1.2066123048119333
0006a0 5c 90 fb a3 86 d0 fe bf 92 5f b0 13 5c fe fb 3f
       -1.9259096532414537 1.7495995301341947
0006b0 34 fc a6 5b d5 2d e8 bf a8 e7 74 be 22 40 01 c0
       -0.7555949010928829 -2.1563162688662096
0006c0 77 db f5 4d aa 29 e5 3f db fc 3f 4d ab 93 f6 3f
       0.6613360903419182 1.4110520379616023
0006d0 06 6c 25 50 8d a5 e4 3f 53 14 76 64 97 f0 c4 3f
       0.6452089848856992 0.16359226613363606
0006e0 05 92 48 10 4f 5f e7 3f 05 45 de 10 35 94 d2 3f
       0.7303843801533395 0.2902958550194657
0006f0 f8 76 6c 21 23 18 f8 bf 07 c3 9c 82 1a 9c e4 bf
       -1.5058928781140235 -0.6440556098005751
000700 c3 fd 47 7f 5c e5 d5 bf 1b ee 67 51 4d 21 f7 3f
       -0.342124103830397 1.4456303768082595
000710 03 91 6f 50 33 30 c8 3f a1 f3 0f 03 cd 40 b7 bf
       0.18897096087960827 -0.09083253216517885
000720 3f e2 72 1e 54 b2 d5 3f 06 20 46 75 e0 29 c3 bf
       0.3390093133307665 -0.1497154781939118
000730 16 cb 6d 83 68 14 cb bf f3 b3 c2 42 45 b3 f2 bf
       -0.21156031052995478 -1.1687672241052922
000740 6b 4f 67 36 7d f2 c8 3f be 12 f6 88 ad 8e 9c 3f
       0.19490018040107357 0.02788802288479774
000750 ad 37 33 21 33 4a d7 3f ce 1a 0d b9 80 91 ce 3f
       0.36390379183000726 0.23881539378836297
000760 8d 78 38 c5 09 a0 b6 3f 92 b9 39 f1 06 a0 ea 3f
       0.08837948861079976 0.832034560340434
000770 df fe c0 e2 12 91 e6 3f 34 00 77 20 54 a1 02 c0
       0.7052092007433791 -2.3287737404171143
000780 1c ac b1 ec 85 a8 e5 bf f1 dd f9 5f 00 20 ff bf
       -0.6768216727190324 -1.9453128575386212
000790 d1 d5 ac cc d1 96 d2 3f c8 4a 00 df 8f 4d f0 bf
       0.2904552935391083 -1.0189360342962335
0007a0 a7 db c9 70 9d b4 04 40 d2 36 22 5d b1 26 e2 bf
       2.58819091907522 -0.5672232455269415
0007b0 9c 6b 21 9a 38 98 fa 3f 76 28 23 46 b0 d5 d9 bf
       1.6621633549427548 -0.40366751527165634
0007c0 ee 81 e3 5e 76 d6 a1 3f e7 e1 2e 64 a1 53 00 40
       0.03483934315022795 2.040835173302401
0007d0 31 ff cd b0 df d4 00 40 7a 53 f6 30 7b e2 e7 bf
       2.1039422810425994 -0.7463966327946843
0007e0 b5 31 a7 96 95 db e4 bf 93 b2 73 77 62 08 f5 3f
       -0.6518047277873423 1.3145470300761743
0007f0 05 e2 f9 c5 26 17 01 40 fb 02 2d fd 33 29 bd 3f
       2.1363044230349737 0.11390995913553674

weight_ih_l0 f8 [120, 20]
000000 e6 7f 83 51 e9 fd db bf 9c 22 db b2 6f 57 ec bf
       -0.437372521975702 -0.8856733792573155
000010 03 f8 73 59 47 f7 dc bf 96 6c 31 ac 0a 7a d2 3f
       -0.4525926946224674 0.2886988336155779
000020 4e 2e 9d fe c9 a4 d0 bf 62 b4 df 7c 14 77 da bf
       -0.26005792488715407 -0.41351806826316395
000030 a4 fd be c4 1c 8e 83 3f af 2f b1 96 99 fe ec bf
       0.009548401598179997 -0.9060790961461772
000040 9f fe 8c 01 08 bc 8b bf cc 61 31 2c d7 18 ba bf
       -0.013542234942746588 -0.10194153622558771
000050 7f 19 14 ee 22 56 fa 3f 20 d5 8a 9b df e3 b7 3f
       1.6460294055883364 0.09332082316798962
000060 9b 33 bb f8 3f db 00 c0 23 79 42 ca 4e 63 c3 3f
       -2.1070556099061384 0.15146813274345403
000070 82 8a 82 b0 0f de d2 bf 33 19 a8 9e e9 86 ea 3f
       -0.2948035453538652 0.828968820453872
000080 a1 31 17 c0 52 fe e6 3f 5e 48 e4 19 4a 1e dd 3f
       0.7185453178185989 0.45497372177590545
000090 44 e9 1d dc 77 fa e1 bf 71 31 2f 7e f6 83 f3 3f
       -0.5618247317463916 1.219717495830164
0000a0 c1 f3 dc da 28 89 d5 bf b2 6e 61 90 91 08 04 40
       -0.3364965569815546 2.50418389127102
0000b0 47 17 71 35 37 58 ea bf 75 ac 0f 94 6e 14 d3 bf
       -0.8232685130867389 -0.29812206706146266
0000c0 57 5b fb a7 f6 4c f0 3f e9 a7 99 6e 65 2f b8 3f
       1.0187899171630386 0.09447320890617984
0000d0 c9 da 84 48 6f ba c0 bf f1 ff b6 52 46 f5 d9 3f
       -0.130689535531664 0.4055953796159875
0000e0 94 d5 2d c1 72 e2 f6 bf 86 82 b9 33 8b 12 d0 bf
       -1.4302852197700746 -0.25113182116732735
0000f0 70 72 b2 a6 56 a8 d8 3f 78 49 1d f0 10 19 e0 3f
       0.3852745654965366 0.5030598344549579
000100 c7 8b 81 a8 bd 73 b6 bf 50 40 c7 c6 92 83 7b bf
       -0.08770356525341959 -0.00671727499543813
000110 70 7c 2c a7 3b c1 c0 3f 77 9c b1 ce cb aa e3 3f
       0.1308970037725632 0.6145991360653075
000120 42 8f df 22 78 01 bc bf 1c 6a 45 29 19 57 d5 3f
       -0.1093974194660037 0.33344105749498154
000130 c4 eb 16 26 59 92 dc bf a3 bb 62 a3 19 8a c1 3f
       -0.44643238753968384 0.1370269820958728
000140 be 26 08 08 f8 00 d4 3f 93 0b d2 fd 70 ef db bf
       0.3125591352878522 -0.4364893416133608
000150 d0 06 2f 77 45 ad b5 3f b7 d1 fb 98 01 41 9f 3f
       0.08467516097791905 0.030521416628248334
000160 53 ef 09 75 05 29 e0 3f 43 d1 dc c5 91 15 b5 3f
       0.5050074850000591 0.08236037331227401
000170 10 d7 e7 81 84 81 cc 3f 78 06 82 43 66 de ce 3f
       0.22270256369636643 0.24116209312710502
000180 f5 4f d9 6e 74 8a 7d bf 53 0f ec b8 a6 73 ba 3f
       -0.007212118927402135 0.10332719816875384
000190 3f 27 fb bd ef 6f d1 3f 81 08 fa 2c 41 59 d3 bf
       0.2724570613178123 -0.30232266800170043
0001a0 69 e2 34 a7 5a 84 84 3f 33 a5 9e 67 39 fb dc bf
       0.010018070438136921 -0.45283351058113225
0001b0 7d b4 29 86 70 54 b7 bf 56 8b d6 f1 b1 57 de bf
       -0.0911321952387016 -0.474102483911499
0001c0 e2 89 1b 20 b8 bb ea bf 84 c7 2b 84 b4 33 b1 3f
       -0.8354149462796239 0.06719520785170913
0001d0 3a 35 eb 4c f9 4e d0 3f dc 69 b0 0a b9 f8 cb bf
       0.2548201800498934 -0.21852791807107408
0001e0 f6 80 5b 43 b3 af c1 bf b3 a3 33 91 d9 22 ca bf
       -0.1381744460004552 -0.2041885336869008
0001f0 ff 79 ae 73 68 a6 ca 3f 96 8c 9d fb eb 70 c0 3f
       0.2082033696032823 0.1284461001006078
000200 e7 d8 33 10 c8 38 c8 3f 72 98 98 e1 47 cf db 3f
       0.1892328337778004 0.43452641516558466
000210 53 1f f7 77 96 e3 d2 bf 40 a3 df 2c de 56 e7 bf
       -0.2951408549820275 -0.729353988307686
000220 4a 28 36 88 8e 59 eb bf 40 0b c7 92 45 eb e3 bf
       -0.8546822224027519 -0.6224696985958431
000230 08 93 96 03 81 91 de 3f 16 32 89 1d 67 fc ec 3f
       0.4776308569947081 0.905810887992234
000240 d9 32 16 41 34 8e c8 bf be cd 7d 9c 50 5d e4 3f
       -0.19183972528516938 0.6363909775231418
000250 52 a3 e4 7b 8d 2c ef 3f dc 77 ba 05 a2 e7 86 3f
       0.9741885585582202 0.011183992194954522
000260 6b 41 5c bb e5 c3 da bf c3 a6 44 b6 0d 63 db bf
       -0.4182066278163094 -0.4279207496607393
000270 01 a7 7c f5 76 4a d6 3f 5f 88 38 88 e8 00 d7 bf
       0.3482949635823474 -0.3594304399758865
000280 dd c1 92 24 40 a8 f2 bf e9 dd 94 db ae 95 e8 3f
       -1.1660767964023002 0.7682718552304638
000290 fd f5 4e ce bb d3 c0 3f e5 ac 67 63 3f 99 e2 3f
       0.1314615971913752 0.5812069837096742
0002a0 17 71 81 10 e1 7a f9 bf 99 78 70 7b bf 44 fa bf
       -1.5924997944594617 -1.64178417414181
0002b0 a7 93 00 c9 95 95 c5 3f b5 e2 79 ce da f5 f2 3f
       0.16862747492373595 1.1850231233094466
0002c0 de ab 71 e0 0e 5b dc 3f 6c 4f 14 0a 77 f6 d5 bf
       0.4430577461086481 -0.34316802963552706
0002d0 83 c3 d0 3d 39 e1 f2 3f 12 f6 94 e5 0d 72 d5 3f
       1.1799862303416553 0.33508632106881564
0002e0 17 c9 41 a1 1c 95 ba 3f 7b ca ff 01 50 b5 f6 bf
       0.10383776604593141 -1.4192657545178509
0002f0 27 96 ae 9b bd 36 ea 3f 79 e8 0d f8 9a 8e b9 bf
       0.8191822090781827 -0.09983223491681938
000300 68 f8 e2 34 62 8d f6 3f cd 99 36 12 87 11 e3 3f
       1.4095174852259564 0.5958896022537431
000310 27 fe 52 2a 58 34 d6 bf 8c 84 69 db 91 14 e4 bf
       -0.34694484837743506 -0.6275109563249699
000320 18 50 cf 4a ff aa e0 bf 0d 9e 61 d7 18 86 e6 3f
       -0.5208736859444825 0.7038692671457639
000330 26 c9 b1 a3 37 7b f9 3f de 59 9f d2 07 3e e9 bf
       1.592582358771844 -0.7888220895500202
000340 4e d8 97 25 5e f7 e4 bf 08 4f d6 5b fe a4 c5 3f
       -0.655196259903059 0.16909770473704833
000350 6f 09 62 42 d3 ec 24 3f 15 6b 5f 72 4e 83 e8 3f
       0.00015964583252887516 0.7660286172716463
000360 5d dd 5b 6e 66 d9 e5 bf 4b 8e 78 38 e1 07 e2 3f
       -0.6827881007620068 0.5634618857333832
000370 f0 d7 53 7b c6 1a f9 bf 9d d0 37 3a 05 7d d4 bf
       -1.5690369431954387 -0.32013064084390824
000380 b0 17 3d 94 19 4e ee 3f dc e2 06 ca 39 3a e9 3f
       0.9470336814199438 0.7883576341474412
000390 49 89 fa 24 94 7a f0 bf fe b1 4b 1b 70 1e e0 bf
       -1.0299264378050614 -0.5037155659788934
0003a0 4d b4 91 1d e7 35 cb bf b0 e5 f8 22 13 4e e9 bf
       -0.21258248275572314 -0.7907806094219065
0003b0 3b c5 e2 ae 58 aa e7 3f dd 02 e8 4d 9f 39 e6 bf
       0.7395442405451499 -0.6945339700324343
0003c0 f5 27 8a 33 4f 5f e4 bf 91 b4 76 4c 46 17 f2 3f
       -0.6366344458231185 1.1306822764266011
0003d0 5b 51 25 a4 92 df ab bf b1 e8 22 6e 76 e6 d1 3f
       -0.0544401002286203 0.2796913219023152
0003e0 1b 93 c0 04 5a 54 d9 bf 3c 95 e7 0a e2 32 e6 bf
       -0.39577341522299186 -0.6937113011341931
0003f0 0a 7e d1 7b c7 72 c2 3f 68 62 7d 89 9a 2a d2 bf
       0.1441277842122733 -0.28385032107102015
000400 19 2a c3 16 54 6b eb 3f 35 fd 59 a9 ef d5 ec 3f
       0.8568516201569906 0.9011152560850976
000410 3c 7c 57 ed 93 ff 9f bf 92 0c d6 b2 24 90 e5 bf
       -0.03124838958853736 -0.6738456242459441
000420 d8 ac 04 9a 4b 23 fe bf 1a 2c 50 9b 2a 96 f9 bf
       -1.8836170212114691 -1.5991617266579454
000430 4c ab de 56 f0 20 ca bf ff 29 cc e7 75 fd f4 3f
       -0.20413021318139568 1.3118800215330564
000440 b0 2f d4 85 cc 88 d1 bf 9c a1 6e 08 01 1e ec 3f
       -0.27397454327796833 0.878662601918268
000450 e4 c1 5c 49 7f 01 e3 bf f5 cf 17 b8 7d 04 cc bf
       -0.5939327652795865 -0.2188870571986851
000460 1e f5 d8 c2 f3 ac de 3f 29 c4 0b ef 9c a2 e9 bf
       0.4793061640555879 -0.8011002224794811
000470 07 49 96 39 c1 a5 ba 3f 81 54 67 1f 52 5b 93 3f
       0.10409171729978449 0.018903048674321802
000480 b1 9e d0 69 99 0d ef 3f aa 4c c5 39 9f 34 e0 bf
       0.9704100672433552 -0.5064235809644704
000490 e8 33 45 ff 7a 62 f7 bf 67 ec 7f 97 8c 54 f7 bf
       -1.4615430804726603 -1.458141891284663
0004a0 e2 36 7c 2c 6a 72 e6 3f de 31 57 c7 00 a8 d4 bf
       0.7014666432239347 -0.32275409190040516
0004b0 9a 21 f7 1f 08 a0 db 3f 95 e9 e7 f5 6d 72 b9 3f
       0.4316425621186909 0.09940230611383634
0004c0 85 cf df a1 57 5e f4 bf 52 87 9e b0 ec 25 fd bf
       -1.2730327914441386 -1.821758928221659
0004d0 86 59 cd b0 27 c0 f1 3f 3a 93 9f 95 7d e8 f1 bf
       1.1094128519376638 -1.1192603916799286
0004e0 76 03 28 39 1c 7d b5 bf ff 07 7b e5 5f 46 f0 bf
       -0.08394028087060498 -1.017181297691877
0004f0 13 a9 79 67 2a 59 dd bf 04 7e 54 26 01 23 e8 3f
       -0.4585672388553956 0.7542730091699359
000500 b2 da de cb ba 07 e1 3f 6f 9a 51 e4 8a 8f f0 bf
       0.5321935636373694 -1.0350445669843358
000510 29 ec c0 85 98 ea b5 3f 49 6a e4 e1 08 f1 c6 bf
       0.08561089768856846 -0.17923079519171584
000520 cf 90 d4 d2 70 24 dc 3f 9e 75 80 9e 4b b5 d8 3f
       0.4397241648569094 0.38606539229098213
000530 83 ad 05 85 a6 b7 a1 bf c5 db e1 7d 43 de e3 bf
       -0.034604266870554866 -0.62088179193858
000540 6e 79 40 7c f5 6c ba bf 53 98 d0 a3 3c 7b d5 bf
       -0.10322508128635885 -0.33564678189794
000550 03 79 56 7b 5a c1 d6 bf 9b 5e 1c c1 c9 ab d1 bf
       -0.3555513576956317 -0.27611011370161415
000560 b6 9c 5f 68 13 b0 68 3f e3 6d 3f 91 ec cf e9 bf
       0.003013646989518638 -0.8066313588018911
000570 26 6c 97 ac 22 88 9a 3f 85 0b b5 cc 17 4f d8 bf
       0.025909940513752748 -0.3798274516195124
000580 0e e2 39 f3 37 82 e6 3f e0 13 13 81 f4 e5 ea 3f
       0.7033958197126269 0.8405706902491339
000590 8b bd 47 bd 78 d6 d8 bf a3 43 57 fe 13 bd c6 bf
       -0.38809030994794885 -0.1776452056788261
0005a0 22 bb d7 79 6c 49 a8 bf fe 99 23 8c 99 6a ae 3f
       -0.04743517863595616 0.059407041889972576
0005b0 f9 e3 9d 94 58 27 91 3f f1 e8 42 01 4a be cb bf
       0.016751655646178396 -0.2167446619185465
0005c0 86 97 85 95 3d 10 eb 3f b3 83 84 f7 94 06 d9 3f
       0.8457324905727865 0.3910267274059677
0005d0 ce 97 7c 5f c3 02 e6 bf 52 0c 41 71 ee 7d c1 bf
       -0.6878373017286721 -0.1366556218145854
0005e0 dc 61 3f 71 46 37 de bf a2 4d d0 6c 70 5b e1 3f
       -0.47212372836432137 0.5424120068805005
0005f0 5e b4 7c e8 ee 1c f2 bf f4 70 27 39 2f 61 e2 bf
       -1.132063778069344 -0.5743633381166817
000600 63 4a 7f 14 87 4d c6 bf 75 df 06 c7 2c 6d fc bf
       -0.1742409563144803 -1.7766540312277048
000610 bc 96 54 d1 ac 0f f6 bf 73 c4 46 91 af 8a c2 bf
       -1.3788269211740234 -0.14485735505653316
000620 7a ec c5 17 7f f0 e4 bf e5 6e a4 b7 c5 4a ac bf
       -0.654357477600015 -0.055257967631602324
000630 bf b9 c0 52 17 13 e4 bf fb e1 59 40 84 4d b5 bf
       -0.627330457331304 -0.08321405955383192
000640 90 2c 34 ab da f9 f2 3f eb 1f 7e ed da f1 c8 bf
       1.1859995544098503 -0.19488083454439162
000650 e7 11 c5 be b4 26 f2 3f be f3 b5 23 7c c7 9c bf
       1.1344497157998548 -0.028104724578486666
000660 3c db 01 c8 cd b3 c6 3f 4d 33 06 4b b8 76 e1 bf
       0.17736217752436712 -0.5457421746556094
000670 a1 40 ac 51 ac 4e d3 bf 26 43 b8 d8 2f ee e4 3f
       -0.3016768262468848 0.6540755493934725
000680 89 06 42 49 3d f7 e3 3f 19 11 86 f9 59 9e e9 bf
       0.6239305907076452 -0.8005800126561865
000690 50 e4 1f 5b 7b da c1 3f d4 5d 84 10 43 e7 e3 bf
       0.13948003720705282 -0.6219802210425152
0006a0 de fa aa 46 a7 01 de 3f ce 31 89 09 c3 27 ee bf
       0.4688509168735616 -0.9423537431953777
0006b0 ba 84 7f 7c 1a fe be 3f a5 67 00 dd d5 f8 f5 bf
       0.12106481112961634 -1.373250830924442
0006c0 23 07 a5 de cf 43 f6 bf 64 e6 46 74 c2 a0 e6 3f
       -1.391555661874414 0.7071239729913938
0006d0 5e 68 49 1b e7 af e8 3f 66 69 f3 32 06 7d d0 3f
       0.7714725048965752 0.25763087249438
0006e0 96 a1 68 61 34 6a e9 bf a6 15 89 8d 91 7a ed bf
       -0.7942144300950982 -0.921211983143327
0006f0 a6 3f a7 9b 52 a5 d9 3f bf 87 43 8f d9 d4 be bf
       0.40071549606818235 -0.12043533084536671
000700 60 76 c5 80 27 3f d2 bf 71 d3 84 91 c0 7d df bf
       -0.28510463309598855 -0.4920503064234288
000710 15 36 30 c2 8c e1 a9 bf 26 f4 90 2f 2e 76 d6 3f
       -0.050548933701161904 0.3509631599916382
000720 64 b4 ab 11 6f 69 ed 3f 2b 4f 41 90 39 0a d6 bf
       0.9191203446513438 -0.3443740757695532
000730 71 e8 85 d3 dc ae b3 bf e1 35 c1 24 00 51 e2 3f
       -0.07688694156777999 0.5723877637735165
000740 6a aa dd 38 c8 b0 99 bf e5 c8 79 9e 7e 5b d2 bf
       -0.02508843276101872 -0.2868343875517339
000750 d1 a7 a5 6e 22 8b e2 bf 14 ff 25 54 02 da c7 3f
       -0.579484191997148 0.18634060963449228
000760 0a d3 a1 8e f4 09 d2 bf cc 31 40 5e 7e ef e0 bf
       -0.28185762337607 -0.5292350617251542
000770 2d 03 b6 9c 9c 6a d7 3f 50 b3 67 20 af 63 e6 bf
       0.36588206580931876 -0.6996684677993503
000780 03 dc 53 f4 5b 4e e6 bf 4b c4 76 c5 87 e8 d1 bf
       -0.6970653316519705 -0.2798175266607969
000790 12 f3 d1 7d ab 6a cc 3f c1 42 2e 15 7d a4 e2 3f
       0.22200530665932 0.5825791753469148
0007a0 a5 47 fe 85 8b 7f ed bf 50 fd 6e 28 c5 f3 e9 bf
       -0.9218194596344246 -0.8110070981710269
0007b0 cf 0f 2c 06 82 2d d5 3f 12 bc 3a ef 88 57 c5 bf
       0.33090258219476437 -0.16673385316013928
0007c0 f5 4a 13 c1 67 f4 c2 3f e9 f6 2e 31 dc 5b d1 3f
       0.14808365752704558 0.27123169711181433
0007d0 c1 78 74 83 e8 d0 f2 3f 82 4a 25 5f a9 d1 b1 3f
       1.1760029921493216 0.0696054322518567
0007e0 52 6a 7a b1 ef 6f f4 bf 9c 13 3a aa d5 40 f3 bf
       -1.2773281986943812 -1.203328766773871
0007f0 e5 4c d9 f9 8d 83 be bf ca d1 a3 07 6a 85 e6 3f
       -0.11919486379456463 0.7037859105317292

weight_hh_l0 f8 [120, 30]
000000 a9 e8 4a fa 79 db ec 3f 95 78 33 01 00 47 de bf
       0.9017915619399633 -0.47308349721232307
000010 84 81 6b 61 4d b9 eb 3f d3 ee fe 59 8a 4f c7 3f
       0.8663699057324696 0.18211488146140783
000020 4d 03 cf 09 2f f2 d2 3f cf 34 91 82 f9 ae f5 bf
       0.29603172262072946 -1.3552184200555535
000030 48 f4 83 1d ca 74 e3 3f b4 a2 2c 2b 13 cd d7 bf
       0.6080065323327597 -0.37189177719350686
000040 78 22 44 44 3e 40 e6 3f 1f 9c b9 af 6a ea dd 3f
       0.6953421910594235 0.46743266258858
000050 7b 72 39 51 4d e4 ea 3f 71 79 1d ca 83 f3 c9 3f
       0.840368899003422 0.20274398201849977
000060 e7 bf ac d2 d5 fa ed 3f 4d 28 68 40 67 64 e6 bf
       0.9368695368520975 -0.6997562654444295
000070 d6 ac 16 72 86 23 df bf 62 79 94 1c 42 2a eb bf
       -0.4865432848116148 -0.8489084776117972
000080 c8 01 6c 65 8a e9 c6 bf 8d 93 d6 01 ec 14 d9 bf
       -0.17900209381333654 -0.39190197162161483
000090 0e b6 7e b4 2c 48 de bf e8 e8 d4 d9 29 f7 d7 3f
       -0.4731551897665164 0.37446066162705316
0000a0 46 54 5e bf fd c5 d7 bf fe 32 9e 03 ab d0 d0 bf
       -0.37145942390754205 -0.2627360854465194
0000b0 ce 3b f1 b0 83 a1 f5 bf 2d 47 47 ea e4 38 ef 3f
       -1.3519322311219528 0.9756950927496512
0000c0 77 05 23 ef 3a 09 da 3f d3 c5 c1 3e 9a c1 e4 bf
       0.40681336739734014 -0.6486331201287449
0000d0 e6 ca 94 40 76 5a d4 bf 45 48 33 e7 98 50 f2 bf
       -0.318021357600783 -1.1446770697844084
0000e0 2f 79 79 74 8b 39 ce 3f ee ff 9a ce 42 4e ec bf
       0.23613112628204067 -0.8845533404601136
0000f0 b4 9b 97 80 fa a7 ea 3f ff e0 67 ab 9c ea e8 bf
       0.8330051909987248 -0.7786391589898186
000100 0c 47 f9 ee 9b 81 df bf 1f 83 ef 66 5e a4 ea 3f
       -0.49228571259764986 0.8325645456753569
000110 61 0c ef 2b a6 bc eb 3f 5c 57 2e 06 71 14 f1 bf
       0.8667784555513088 -1.0674906007238496
000120 b9 6a d1 1d 29 5e ef bf c6 24 5e ab 59 5c ea 3f
       -0.980244215238904 0.8237732264543858
000130 cb b6 e5 fe 58 e1 e1 bf a5 6c 27 04 4e 6b b1 bf
       -0.5587582567656794 -0.06804359055915883
000140 55 63 7f 1d 54 b7 d5 bf 27 30 b6 06 af 1b e1 bf
       -0.3393144882261841 -0.5346293574416493
000150 48 d7 5c 56 0f 2c f2 3f 3a 54 69 e0 07 68 f1 bf
       1.1357568143407253 -1.0878981367179805
000160 21 48 93 55 d7 b4 e6 bf 15 db 30 58 14 59 f4 bf
       -0.7095753356354672 -1.2717479176478197
000170 57 02 65 1d cc b1 f1 bf 9a db 8b fa 21 9f c5 3f
       -1.105907549688842 0.1689188454981519
000180 b5 d8 66 d6 fe 0e e8 bf 85 b9 41 f2 d8 6f e7 3f
       -0.7518305003675524 0.732403252752008
000190 08 67 af 07 95 c9 dc 3f 7b 77 6f fd 4a 49 ee 3f
       0.4498035979319046 0.9464468908224569
0001a0 f0 e7 be 86 f0 c8 e3 bf 74 16 0c cf 86 d9 ec 3f
       -0.6182787544014428 0.9015535396471948
0001b0 02 71 f4 4d 20 0e ad bf 94 34 43 eb a6 f5 f1 bf
       -0.05674839927289278 -1.1224736394827106
0001c0 f0 9d 76 18 02 bc f3 3f e1 d4 cf bc 0e ec e8 bf
       1.2334004359817037 -0.7788156211596765
0001d0 aa 98 6c 18 93 57 d1 bf e2 34 98 79 0b 16 e2 bf
       -0.2709701288716909 -0.5651910185712519
0001e0 2b 29 f4 9e 8c 9f e4 3f bd 8d cd 3e a5 a0 c1 bf
       0.6444762329640857 -0.13771501127767563
0001f0 78 34 41 e1 82 5c ba 3f ca df 1f 09 15 c6 e2 3f
       0.10297410964376918 0.5866799524510438
000200 f7 57 0f 3a 80 5b df 3f fc 63 6f 37 b6 40 f6 bf
       0.48995977086940407 -1.3907987752374984
000210 16 b8 a5 97 8c 67 dd bf 1b 90 da bc 6d 48 de 3f
       -0.4594451409274155 0.47317069475889334
000220 f1 29 06 c1 ed 1e dd bf 31 79 f5 f9 f2 1b cf bf
       -0.45501273965842787 -0.24304043965362035
000230 28 45 f6 b1 84 b5 bb bf 4e 5e 11 5f 07 6b e2 3f
       -0.10823850006842817 0.5755650383752682
000240 55 ba f0 53 46 8c c8 3f aa ae 72 a2 11 c5 ee bf
       0.19178084467553683 -0.961556260377127
000250 7b 8f e3 e3 b8 8e e6 bf 22 bf 3a ba 66 6d dc bf
       -0.7049221468882786 -0.44417732416603617
000260 7f 01 7a a3 f2 39 ef bf 1b 64 a3 7b e9 79 eb bf
       -0.9758237069036538 -0.8586318411645409
000270 32 f5 76 b6 d5 d1 e5 bf e3 e4 18 ec 8c 5c f2 3f
       -0.6818646014941463 1.147595331435064
000280 4f a6 b4 32 3a 03 ee 3f 12 36 31 68 31 33 b6 3f
       0.9378939619393324 0.08671864312892577
000290 28 40 f2 f4 e4 cf e7 3f af 09 53 14 b7 ed df 3f
       0.7441277298075919 0.49888398155976693
0002a0 7a 44 77 ed b8 57 d8 bf 3a 76 3a c5 8d 68 ed bf
       -0.38035414876964746 -0.9190129139057668
0002b0 6b 79 ca 14 de 87 f1 3f c6 a2 ee 48 63 b8 ee bf
       1.0956707775254368 -0.9600082802254171
0002c0 7e 8f 9a ff 37 69 e8 bf f2 10 76 de c1 20 ef bf
       -0.76284408495529 -0.972748693937801
0002d0 c8 a0 16 a2 3e c3 60 3f 49 f4 31 20 fd 92 e7 3f
       0.002046224909197123 0.7366929653941351
0002e0 a5 09 26 08 42 08 de 3f 1b a9 bb 41 cc fa da 3f
       0.46925402446518155 0.42155748767130924
0002f0 0a 86 f0 a6 f2 29 c0 3f 16 57 4d 18 91 4b c5 3f
       0.12628014708847984 0.16636861502291173
000300 aa 19 d2 fb 3f 51 ce 3f 6f 3a a9 ef b1 81 d1 bf
       0.23685455127651994 -0.2735409584464951
000310 48 1b ec e0 aa c4 b5 3f 93 9e 3f 98 29 52 d9 bf
       0.08503215781466367 -0.39563979976672065
000320 ca 54 cd 9f 05 e9 f1 bf 4d 14 5b 4a 2e 6a ef 3f
       -1.1193901293057018 0.9817115261327075
000330 fc 50 14 3e 21 f5 d2 bf 78 73 8a 15 2d 86 ba bf
       -0.2962115389102704 -0.1036098649587539
000340 22 39 8d 8c 23 cd be bf 79 28 d7 a3 c0 f6 c2 bf
       -0.12031767064511148 -0.14815528869650388
000350 92 67 d5 f2 77 bd a8 3f 56 9d 41 14 65 65 d8 bf
       0.04832053031232343 -0.38118864992289525
000360 54 23 ba 81 be 22 c8 bf a2 d1 a7 8b 9b 0e c0 3f
       -0.18856030783015376 0.12544578856581007
000370 1c 90 2a a5 7a ec 8e bf 8e 97 8f 5e 16 bc d6 3f
       -0.015099485555147445 0.35522994265044694
000380 33 f0 2e 77 47 8f c5 3f 82 8a d8 b1 cb 67 ae bf
       0.16843503303050653 -0.05938564821214688
000390 e6 7f 74 4f 72 04 ea bf ed d7 22 cd 52 1c d0 bf
       -0.8130427886826481 -0.2517287257463739
0003a0 e0 86 20 33 7e 37 d3 3f 7d 8c 92 92 c8 68 a6 bf
       0.3002620219505001 -0.043768184559007196
0003b0 be 46 0e 4c 84 cb d8 bf c2 9f 41 b8 ca c4 e0 bf
       -0.3874216788036441 -0.5240224455601423
0003c0 bb 97 c1 d4 f6 53 c7 3f a7 86 10 90 c5 b1 cf bf
       0.18224988354194047 -0.24761266264345247
0003d0 05 6a fd 01 94 c6 e4 3f 83 63 59 c3 c7 d5 d0 3f
       0.6492404974808897 0.2630481155115875
0003e0 79 5c 2f fd 2c 74 d4 3f 54 4e ad 3e 0b 43 ea bf
       0.31959080433939097 -0.8206840728912064
0003f0 ab f0 cf d4 d7 50 96 3f eb 43 54 00 dd 0e f5 3f
       0.021792766918210898 1.3161287320001473
000400 02 f5 ae cb 20 b9 da bf 4a a7 d0 67 c0 62 e0 3f
       -0.417549322995754 0.5120546367299792
000410 54 a3 e2 d4 2a 92 db 3f 02 3e b7 54 ee df dc bf
       0.4307963446577123 -0.45116766236330375
000420 e8 3e 91 3b 5f 3d e0 bf f1 53 7d ee ae 60 7d bf
       -0.5074916995453949 -0.007172282530366823
000430 46 66 fb 0b f7 c8 b3 3f 53 bb 51 bd e3 4f c9 bf
       0.07728523294954312 -0.1977505373392555
000440 7b 0e b0 6c d6 40 d9 bf 84 08 e4 66 7c 0e c3 bf
       -0.39458237279925584 -0.1488795759578957
000450 bc f8 42 e9 69 69 ea 3f ef 75 71 c5 ee 9e ea 3f
       0.8253678851977138 0.8319009643852818
000460 d8 67 67 1d c3 47 d6 bf 3e 70 54 da 73 1d d1 3f
       -0.348130015101217 0.2674226410033532
000470 53 43 c4 8e c4 3e a1 bf d9 b9 71 91 6a 81 c3 bf
       -0.03368200533635126 -0.15238697149057037
000480 3c e5 f6 34 8c c6 d4 bf 06 a4 e4 17 77 78 96 3f
       -0.3246183888655485 0.02194391330082015
000490 6f d7 0d 41 d0 38 c7 3f 8c 16 dd 41 38 00 eb bf
       0.18142131020038785 -0.8437768255614215
0004a0 3e fc 7e b6 f5 7f cb 3f bb 0f 75 01 77 a0 de bf
       0.21484252367915418 -0.4785439981681027
0004b0 62 ab 2c 1c ec 29 e0 3f f2 33 91 cb e5 89 e2 bf
       0.5051174688609132 -0.579333207695184
0004c0 15 c7 4e c7 72 4e c4 bf 13 c1 42 8c be 96 db 3f
       -0.1586440537626507 0.4310757035955401
0004d0 5c ff ac b1 11 3e c5 3f 23 5f f7 8e c5 e9 ea bf
       0.16595669913840083 -0.8410365860281427
0004e0 96 c7 64 61 2d ac e3 bf 6c 26 c1 e8 1e b9 eb 3f
       -0.614767732831967 0.8663477464662726
0004f0 43 7f 8f 1b 23 82 e0 bf 1e 93 ba b4 24 f4 eb bf
       -0.5158858812610351 -0.8735526590213316
000500 17 8f 20 c7 33 e5 e4 bf 27 96 66 9b b0 8e e0 bf
       -0.6529787911608506 -0.5174181971712571
000510 9a 1e 95 c6 3a b8 e1 bf ed 93 cb 22 1c 1b e4 3f
       -0.5537389639439028 0.6283093146890885
000520 73 65 7c 96 ff bd ec bf b4 92 20 05 17 5e de bf
       -0.8981931628397163 -0.4744927930899323
000530 89 07 7b f9 87 50 cc bf 0e c3 56 bf ef 74 83 bf
       -0.22120761567753913 -0.009500382448864222
000540 ae 8b 09 09 2e fa ec bf 30 dd 5f bb 40 55 5c bf
       -0.9055395294675372 -0.0017293102405327547
000550 14 85 b0 0e 04 b5 df 3f fc 43 02 89 d4 f7 be 3f
       0.4954233306362579 0.12096908898298858
000560 51 22 03 ba 07 b6 f1 bf b1 b8 8b ee 16 18 c5 3f
       -1.1069409624198168 0.16479765556090833
000570 8a 83 50 25 40 b7 cc 3f 32 72 53 37 68 97 c2 3f
       0.22434236356732767 0.1452455778261466
000580 29 4a d4 a0 4e ef ef 3f ec 75 52 9b 2d d1 d7 bf
       0.9979622975536745 -0.37214222114729867
000590 8e 19 e5 78 9c d8 7d 3f 84 8e f2 08 3b ab d6 bf
       0.007286654681882955 -0.35420108674791373
0005a0 3c 43 d2 15 ee a4 e8 3f 7b 47 06 db fc 0a ba 3f
       0.7701330591390625 0.10173015925673028
0005b0 df 8f ca e3 25 22 ca bf 85 1b cf 4c fc 0f dc 3f
       -0.20416711447353372 0.43847568035965195
0005c0 21 1a d9 73 b8 ab ef 3f 7b 1f 2f bd 55 49 e8 bf
       0.989711977258427 -0.7589520163537452
0005d0 c9 96 dd f2 01 32 e5 bf 26 ff 82 45 31 d5 e4 3f
       -0.6623544448345565 0.6510244710588935
0005e0 d5 0c 23 16 e8 10 9d bf ec 40 a1 8f c1 db a1 bf
       -0.02838480601418499 -0.034879730971285244
0005f0 82 ec 32 1b d2 d2 ee 3f 9a 02 70 c5 34 48 b3 3f
       0.9632349520901615 0.07532052822353777
000600 99 2c be 59 f3 60 e4 3f ae 62 35 29 34 14 ce 3f
       0.6368347885885611 0.23499156963477702
000610 a0 d9 9a 5c 55 07 d5 3f 58 c3 41 de 26 62 b9 3f
       0.32857259791799187 0.09915392805284051
000620 9c 65 44 ed 72 ab a8 3f 26 ab a8 bb 6e f6 e1 3f
       0.048183051551130535 0.5613320985042705
000630 ef db d7 6c 7f 38 e2 bf 3d b5 a9 01 04 31 ea 3f
       -0.5693966985553497 0.8184833557585659
000640 01 20 06 46 00 2e dc bf 10 88 31 64 07 23 d6 3f
       -0.4403076824023629 0.3458879927112557
000650 68 83 dc 68 4e 40 f1 3f 0b 49 b1 1f 9f ce e7 3f
       1.0781997772357617 0.7439723605150744
000660 dd a8 1f 7d b0 5a 84 bf ec 2a 36 16 18 5d cb bf
       -0.009938601320716273 -0.21377850613165295
000670 b3 f5 4f ab 88 37 ee 3f 05 52 70 8b 7e fb dd bf
       0.94427903613512 -0.46847499482217386
000680 06 53 96 eb f6 1b c0 bf ec 9d f7 bb ef 6e c5 bf
       -0.12585340979844534 -0.16744801214302585
000690 eb b5 4e 60 3b b3 e8 3f 6f a1 2e 00 cb 4d f8 bf
       0.7718788987164634 -1.518992424689795
0006a0 06 60 79 4c 1c ad b6 bf 54 c3 2a 7a ab 65 ea 3f
       -0.08857895724338513 0.8249108682704027
0006b0 96 ce 7a 4f b0 45 c8 bf e6 46 6b aa 51 63 d4 3f
       -0.18962673073621222 0.31856195108876617
0006c0 e6 2d ca ef dc 50 e4 bf ad 4c 32 e8 25 e0 df bf
       -0.6348709758180433 -0.49805591273725264
0006d0 4a 74 d7 4b f0 ca e0 bf b7 d8 1d ef 32 53 97 bf
       -0.524772785308991 -0.022778316349523844
0006e0 98 e0 3e bf 52 e2 a9 3f 2c 58 10 4c 11 77 d9 3f
       0.050554834218418054 0.39789230754957106
0006f0 f1 e8 4a 65 68 43 88 bf 78 38 df 39 90 40 b5 bf
       -0.011847320166783666 -0.08301640904321228
000700 b4 a7 44 d1 c8 73 d7 bf e5 98 7a b0 ae e3 cf bf
       -0.36644192158075417 -0.2491358148301465
000710 34 23 85 93 b7 77 e6 bf ef df 8f 56 4e 71 d2 bf
       -0.702113903164991 -0.2881656499225746
000720 47 92 5b 27 06 60 e0 bf 90 20 e0 88 b4 20 d8 3f
       -0.5117216843323796 0.3769961678194784
000730 df 09 68 9a b0 68 98 bf b2 e5 f3 a6 10 5d fd 3f
       -0.023836860107630527 1.8352209588614241
000740 30 42 41 03 12 2f fa 3f b1 9e ef d2 5a 65 d8 bf
       1.636491787638203 -0.3811862049028419
000750 ce 9b 79 bd 1c 3b e2 bf a9 34 e1 59 16 cb e9 bf
       -0.569715852802682 -0.8060409312689859
000760 10 59 ae a0 b3 6f e7 3f 02 4e 23 7b 41 b6 d9 bf
       0.7323854578305902 -0.4017490103262561
000770 26 76 ab 69 9e cb e0 3f cc 0e 16 eb 37 b5 df bf
       0.5248558105337835 -0.49543569524415143
000780 3b 1a 51 17 9f 14 db 3f b4 cd 24 90 7d 2d c2 bf
       0.4231336333945454 -0.14201325929898945
000790 19 70 5c 52 b9 8f c9 bf 6f 04 3c b3 91 cd e4 3f
       -0.19969860574281098 0.6500938893006046
0007a0 ba aa 97 b5 07 fc ae 3f 5c 4f 13 f7 ce e4 ec bf
       0.060516587178275086 -0.9029307199184404
0007b0 17 70 47 46 43 ac c7 3f 5c bc 68 b2 54 4c a8 3f
       0.1849445431861347 0.04745735814901117
0007c0 5c a8 bd ff f7 95 b5 bf 0f cd 47 bf de aa c4 bf
       -0.08431959146187878 -0.16146454181544143
0007d0 35 c2 59 61 47 bc f1 bf 67 1d d9 3c 66 c7 cb 3f
       -1.1084665110357836 0.21702268572901603
0007e0 c9 ad 87 a2 e2 25 e9 3f 35 02 28 41 10 10 f5 bf
       0.7858746694959616 -1.316421751515134
0007f0 6b a3 cf 18 96 da cb bf 23 8a 0d 7d e7 93 f3 bf
       -0.21760822497824547 -1.2236094365004042

bias_ih_l0 f8 [120]
000000 3f 41 c0 ad fd 1b ea 3f 9f cf df 8c 60 2c fe 3f
       0.8159168618749745 1.8858342650318958
000010 9c 5f e4 08 fb ea f4 3f 48 01 fa 93 1a 1b 92 bf
       1.3073683116290118 -0.017681517869733626
000020 0c 3d ad ae 3e e6 a2 3f 5c c4 4c cf e7 e8 a9 3f
       0.03691287882122127 0.05060505300060278
000030 38 55 e6 da 60 b7 e1 3f f6 48 16 3a 42 31 d4 3f
       0.5536350512872223 0.3155065123802524
000040 94 54 34 66 72 54 f8 3f 53 d2 15 33 aa 07 f2 3f
       1.520616912113188 1.12687129931614
000050 6f 3f 78 18 f6 db f7 3f 1f 19 d1 69 ed 61 fe 3f
       1.4912014919136387 1.8989080556362479
000060 26 53 52 5e da ae ef 3f e9 59 eb 0a 9d 8e e6 3f
       0.990094360563124 0.7049088681476948
000070 5b 2a 2a 07 cb 95 f3 3f 14 ef 68 0f ca 73 d2 3f
       1.2240705757018506 0.28831721787331444
000080 28 a0 52 4d f9 e4 de 3f ce 08 ed e6 b6 27 f3 3f
       0.48272545386362475 1.197195913366659
000090 ad a8 2c 57 e6 94 f2 3f 3c 43 61 8b 39 0c eb 3f
       1.1613524823429018 0.8452422830833721
0000a0 39 b0 fd 94 30 b1 f8 3f 73 56 9e 98 e2 18 f1 3f
       1.5432592220268033 1.0685754739437499
0000b0 b0 4c 28 ea 06 55 d3 3f a3 ff 59 03 84 3c e6 3f
       0.302064636868816 0.6948871674976441
0000c0 9c 9d 61 9c ed 18 ed 3f ad 7e 44 a6 1f 16 e3 3f
       0.9092929891893848 0.5964506385243645
0000d0 f7 7a 87 d9 83 5e dc 3f a2 6e fc da ec 15 f5 3f
       0.44326874011123557 1.3178528360503283
0000e0 e7 d2 c5 7c 75 4b dc 3f 6e 37 c1 63 77 ba d4 3f
       0.44210564789618306 0.3238810037772656
0000f0 10 67 29 f9 d8 41 c1 bf 9d 96 61 d0 2a a5 fa bf
       -0.13482200780963938 -1.6653240337267683
000100 e3 c7 53 35 45 82 f4 bf 59 2d 9c af a0 ba ec 3f
       -1.281804283437389 0.8977816991695519
000110 e4 5b f8 85 e7 94 a7 bf 49 f2 a4 14 19 12 e8 3f
       -0.046057925323274934 0.7522092250070013
000120 53 76 e0 7a b2 4e cc bf 13 9b 91 ae 8f 13 e7 bf
       -0.22115164756626146 -0.7211378488108003
000130 c8 26 1e 29 22 5c f4 bf 9a 1d e0 d8 f6 9f 76 bf
       -1.272493515602422 -0.005523647543675203
000140 20 eb b0 bc 1a 6d f0 bf 0e be 3c 61 5d 7f f3 bf
       -1.026636826586305 -1.218594913323503
000150 d2 df 25 50 29 6f 77 bf ac 4e 1f 25 54 d8 e0 3f
       -0.0057212461273294535 0.5264073109669503
000160 10 25 6a d8 e5 51 d6 bf 35 49 22 dd 9f b3 f4 bf
       -0.3487486470626928 -1.293853629879391
000170 64 9f 84 20 56 28 b4 3f d1 bb 63 2d 27 96 f9 bf
       0.07874048513315085 -1.599158456137719
000180 1f 21 4b a9 16 33 cc 3f a7 4d 1e 39 33 6e e8 3f
       0.22030909792216222 0.7634521594613276
000190 65 59 ae f2 06 c2 b6 bf 20 87 92 44 20 b3 f4 bf
       -0.08889811920957909 -1.2937319449051259
0001a0 10 e3 e3 e5 54 b9 e4 bf 92 49 ce 35 89 ef f8 bf
       -0.6476234903376241 -1.55848046319861
0001b0 12 8c 0e ea 1e cb f5 bf 32 bd 7b 56 b4 eb e8 3f
       -1.362090029034111 0.7787725152137794
0001c0 69 dc 8d a9 6c bb c1 3f a1 02 7e 42 5f 58 e5 bf
       0.13853224066744765 -0.6670376108814545
0001d0 2a 13 7f a6 d0 5e df 3f a5 bb 1c dd cf 95 d5 bf
       0.49016205081379616 -0.337268796853943
0001e0 ff 7a ac ff 1d 8e cc 3f 59 65 fd af 25 4a cc 3f
       0.22308707222051535 0.2210127934766131
0001f0 6e 2f 5a 35 25 d8 d1 3f dc 71 92 46 a3 37 e0 3f
       0.2788174649256153 0.5067917230949734
000200 8e cc b5 c3 e6 f3 ea 3f e4 5f fc b7 f2 55 f0 bf
       0.8422731230224529 -1.0209834277102283
000210 78 22 af 23 11 e4 d7 bf 32 05 f8 a9 42 5c de 3f
       -0.37329510197427096 0.4743811282970284
000220 cf 76 48 a8 e1 82 e6 3f 3f 77 13 a5 b4 71 d5 bf
       0.7034767424372265 -0.3350650417395293
000230 3d 22 30 d8 04 fc 85 3f 50 ef f8 71 da 57 bf 3f
       0.01073459419969069 0.12243428499726616
000240 ba b5 f5 ba a5 89 92 3f de d0 d3 e6 a6 23 e9 bf
       0.018103208099480496 -0.7856020458553095
000250 18 c0 f5 37 95 b7 d9 3f 31 9b 47 ff 34 ee cf bf
       0.40183001007881236 -0.24945700135068585
000260 29 31 b3 94 4a af 94 bf c8 a7 a9 1e e6 c0 ed bf
       -0.020199933362890086 -0.9297972296601467
000270 af 54 86 a5 e6 e2 e1 bf 74 75 fe f0 d3 8c ee 3f
       -0.5589478714852215 0.9546909052766481
000280 a6 11 d0 67 e5 28 f1 3f 9b e9 58 10 2e 9e e0 bf
       1.0724844031511593 -0.5193090743335235
000290 9d 80 05 59 2b 92 df bf 90 73 f6 6c be 53 e4 3f
       -0.4932964677191281 0.6352226379564048
0002a0 22 a6 06 66 78 23 d5 bf 76 ae da 54 3f d7 da bf
       -0.33028993571733356 -0.4193876579908883
0002b0 7c fd 49 6c ba cd ec 3f b1 3b a8 19 2f 79 f1 bf
       0.9001133074779513 -1.0920859338982434
0002c0 e0 1e 31 c4 11 eb dd bf 9e 93 8b 74 e5 26 e9 bf
       -0.4674724975525191 -0.7859980846666195
0002d0 e1 1a 1f 97 5b 99 df 3f 55 b5 b7 41 d9 0a fd 3f
       0.4937352157398163 1.8151485983938376
0002e0 be 98 3c 97 db cc c1 bf af eb d9 b2 2e f8 e3 bf
       -0.13906426319699067 -0.6240457051456952
0002f0 ae dd 06 d1 57 0f 85 3f d0 09 fa 7d e4 75 e1 bf
       0.010283170763485252 -0.5456411800844823
000300 db 39 5e e9 ce cf bd bf c0 6b 3c 29 af 76 ed 3f
       -0.11645215222799925 0.9207378201857566
000310 e4 8b 43 76 3f 7e f6 3f d6 ea 78 7d 3a 46 de 3f
       1.405822240799119 0.4730364060703044
000320 20 24 ff b4 db d8 fd 3f a0 f2 98 89 ad c0 f4 3f
       1.8654439039403385 1.297040498247192
000330 74 61 93 2c c5 19 f5 3f 74 41 5e 8b ea 09 d5 bf
       1.3187915555227763 -0.3287302361504978
000340 cd c2 21 ae 3d 4b d7 bf f5 da 18 51 59 c7 f6 3f
       -0.36396734242502476 1.4236691634993666
000350 ed 53 d5 da 12 89 d8 bf b3 d0 8c db 77 e6 e2 3f
       -0.38336631174507724 0.5906333244406795
000360 fa 70 d6 1d f1 f6 d8 bf 74 e2 fc 31 53 43 d0 bf
       -0.3900721351035511 -0.25410919076561034
000370 20 c9 0d a5 fb 99 fb 3f c4 f6 fd f3 0a a1 e5 3f
       1.7250935027519247 0.6759085431546841
000380 df bf e6 9f 71 b1 e3 3f 82 a0 07 a4 ec 1b f2 3f
       0.6154106257508792 1.131817475072268
000390 71 a1 69 a2 c3 5a d7 3f bd d2 48 ac 44 3f de bf
       0.3649148069439639 -0.472611587759541
0003a0 0e 2d 86 82 9b 1c d1 3f 66 b7 c7 db 78 9c b7 3f
       0.26737106081482487 0.09223132482267501
0003b0 ce 7e 0b 77 5e 8a e1 bf 7d ce 1d 0b f5 be 9b 3f
       -0.5481407475562834 0.027095631412022748
